{"format": "graph-model", "generatedBy": "2.12.0", "convertedBy": "TensorFlow.js Converter v4.6.0", "signature": {"inputs": {"input_1": {"name": "input_1:0", "dtype": "DT_FLOAT", "tensorShape": {"dim": [{"size": "-1"}, {"size": "160"}, {"size": "160"}, {"size": "3"}]}}}, "outputs": {"Bottleneck_BatchNorm": {"name": "Identity:0", "dtype": "DT_FLOAT", "tensorShape": {"dim": [{"size": "-1"}, {"size": "512"}]}}}}, "modelTopology": {"node": [{"name": "StatefulPartitionedCall/inception_resnet_v1/Block35_1_Concatenate/concat/axis", "op": "Const", "attr": {"value": {"tensor": {"dtype": "DT_INT32", "tensorShape": {}}}, "dtype": {"type": "DT_INT32"}}}, {"name": "StatefulPartitionedCall/inception_resnet_v1/Block35_1_Conv2d_1x1/Conv2D/ReadVariableOp", "op": "Const", "attr": {"dtype": {"type": "DT_FLOAT"}, "value": {"tensor": {"dtype": "DT_FLOAT", "tensorShape": {"dim": [{"size": "1"}, {"size": "1"}, {"size": "96"}, {"size": "256"}]}}}}}, {"name": "StatefulPartitionedCall/inception_resnet_v1/Block35_1_Conv2d_1x1/BiasAdd/ReadVariableOp", "op": "Const", "attr": {"dtype": {"type": "DT_FLOAT"}, "value": {"tensor": {"dtype": "DT_FLOAT", "tensorShape": {"dim": [{"size": "256"}]}}}}}, {"name": "StatefulPartitionedCall/inception_resnet_v1/lambda/mul/y", "op": "Const", "attr": {"dtype": {"type": "DT_FLOAT"}, "value": {"tensor": {"dtype": "DT_FLOAT", "tensorShape": {}}}}}, {"name": "StatefulPartitionedCall/inception_resnet_v1/Block35_2_Concatenate/concat/axis", "op": "Const", "attr": {"dtype": {"type": "DT_INT32"}, "value": {"tensor": {"dtype": "DT_INT32", "tensorShape": {}}}}}, {"name": "StatefulPartitionedCall/inception_resnet_v1/Block35_2_Conv2d_1x1/Conv2D/ReadVariableOp", "op": "Const", "attr": {"dtype": {"type": "DT_FLOAT"}, "value": {"tensor": {"dtype": "DT_FLOAT", "tensorShape": {"dim": [{"size": "1"}, {"size": "1"}, {"size": "96"}, {"size": "256"}]}}}}}, {"name": "StatefulPartitionedCall/inception_resnet_v1/Block35_2_Conv2d_1x1/BiasAdd/ReadVariableOp", "op": "Const", "attr": {"dtype": {"type": "DT_FLOAT"}, "value": {"tensor": {"dtype": "DT_FLOAT", "tensorShape": {"dim": [{"size": "256"}]}}}}}, {"name": "StatefulPartitionedCall/inception_resnet_v1/lambda_1/mul/y", "op": "Const", "attr": {"value": {"tensor": {"dtype": "DT_FLOAT", "tensorShape": {}}}, "dtype": {"type": "DT_FLOAT"}}}, {"name": "StatefulPartitionedCall/inception_resnet_v1/Block35_3_Concatenate/concat/axis", "op": "Const", "attr": {"dtype": {"type": "DT_INT32"}, "value": {"tensor": {"dtype": "DT_INT32", "tensorShape": {}}}}}, {"name": "StatefulPartitionedCall/inception_resnet_v1/Block35_3_Conv2d_1x1/Conv2D/ReadVariableOp", "op": "Const", "attr": {"dtype": {"type": "DT_FLOAT"}, "value": {"tensor": {"dtype": "DT_FLOAT", "tensorShape": {"dim": [{"size": "1"}, {"size": "1"}, {"size": "96"}, {"size": "256"}]}}}}}, {"name": "StatefulPartitionedCall/inception_resnet_v1/Block35_3_Conv2d_1x1/BiasAdd/ReadVariableOp", "op": "Const", "attr": {"dtype": {"type": "DT_FLOAT"}, "value": {"tensor": {"dtype": "DT_FLOAT", "tensorShape": {"dim": [{"size": "256"}]}}}}}, {"name": "StatefulPartitionedCall/inception_resnet_v1/lambda_2/mul/y", "op": "Const", "attr": {"value": {"tensor": {"dtype": "DT_FLOAT", "tensorShape": {}}}, "dtype": {"type": "DT_FLOAT"}}}, {"name": "StatefulPartitionedCall/inception_resnet_v1/Block35_4_Concatenate/concat/axis", "op": "Const", "attr": {"value": {"tensor": {"dtype": "DT_INT32", "tensorShape": {}}}, "dtype": {"type": "DT_INT32"}}}, {"name": "StatefulPartitionedCall/inception_resnet_v1/Block35_4_Conv2d_1x1/Conv2D/ReadVariableOp", "op": "Const", "attr": {"dtype": {"type": "DT_FLOAT"}, "value": {"tensor": {"dtype": "DT_FLOAT", "tensorShape": {"dim": [{"size": "1"}, {"size": "1"}, {"size": "96"}, {"size": "256"}]}}}}}, {"name": "StatefulPartitionedCall/inception_resnet_v1/Block35_4_Conv2d_1x1/BiasAdd/ReadVariableOp", "op": "Const", "attr": {"dtype": {"type": "DT_FLOAT"}, "value": {"tensor": {"dtype": "DT_FLOAT", "tensorShape": {"dim": [{"size": "256"}]}}}}}, {"name": "StatefulPartitionedCall/inception_resnet_v1/lambda_3/mul/y", "op": "Const", "attr": {"dtype": {"type": "DT_FLOAT"}, "value": {"tensor": {"dtype": "DT_FLOAT", "tensorShape": {}}}}}, {"name": "StatefulPartitionedCall/inception_resnet_v1/Block35_5_Concatenate/concat/axis", "op": "Const", "attr": {"dtype": {"type": "DT_INT32"}, "value": {"tensor": {"dtype": "DT_INT32", "tensorShape": {}}}}}, {"name": "StatefulPartitionedCall/inception_resnet_v1/Block35_5_Conv2d_1x1/Conv2D/ReadVariableOp", "op": "Const", "attr": {"value": {"tensor": {"dtype": "DT_FLOAT", "tensorShape": {"dim": [{"size": "1"}, {"size": "1"}, {"size": "96"}, {"size": "256"}]}}}, "dtype": {"type": "DT_FLOAT"}}}, {"name": "StatefulPartitionedCall/inception_resnet_v1/Block35_5_Conv2d_1x1/BiasAdd/ReadVariableOp", "op": "Const", "attr": {"value": {"tensor": {"dtype": "DT_FLOAT", "tensorShape": {"dim": [{"size": "256"}]}}}, "dtype": {"type": "DT_FLOAT"}}}, {"name": "StatefulPartitionedCall/inception_resnet_v1/lambda_4/mul/y", "op": "Const", "attr": {"dtype": {"type": "DT_FLOAT"}, "value": {"tensor": {"dtype": "DT_FLOAT", "tensorShape": {}}}}}, {"name": "StatefulPartitionedCall/inception_resnet_v1/Mixed_6a/concat/axis", "op": "Const", "attr": {"dtype": {"type": "DT_INT32"}, "value": {"tensor": {"dtype": "DT_INT32", "tensorShape": {}}}}}, {"name": "StatefulPartitionedCall/inception_resnet_v1/Block17_1_Concatenate/concat/axis", "op": "Const", "attr": {"dtype": {"type": "DT_INT32"}, "value": {"tensor": {"dtype": "DT_INT32", "tensorShape": {}}}}}, {"name": "StatefulPartitionedCall/inception_resnet_v1/Block17_1_Conv2d_1x1/Conv2D/ReadVariableOp", "op": "Const", "attr": {"value": {"tensor": {"dtype": "DT_FLOAT", "tensorShape": {"dim": [{"size": "1"}, {"size": "1"}, {"size": "256"}, {"size": "896"}]}}}, "dtype": {"type": "DT_FLOAT"}}}, {"name": "StatefulPartitionedCall/inception_resnet_v1/Block17_1_Conv2d_1x1/BiasAdd/ReadVariableOp", "op": "Const", "attr": {"value": {"tensor": {"dtype": "DT_FLOAT", "tensorShape": {"dim": [{"size": "896"}]}}}, "dtype": {"type": "DT_FLOAT"}}}, {"name": "StatefulPartitionedCall/inception_resnet_v1/lambda_5/mul/y", "op": "Const", "attr": {"value": {"tensor": {"dtype": "DT_FLOAT", "tensorShape": {}}}, "dtype": {"type": "DT_FLOAT"}}}, {"name": "StatefulPartitionedCall/inception_resnet_v1/Block17_2_Concatenate/concat/axis", "op": "Const", "attr": {"dtype": {"type": "DT_INT32"}, "value": {"tensor": {"dtype": "DT_INT32", "tensorShape": {}}}}}, {"name": "StatefulPartitionedCall/inception_resnet_v1/Block17_2_Conv2d_1x1/Conv2D/ReadVariableOp", "op": "Const", "attr": {"value": {"tensor": {"dtype": "DT_FLOAT", "tensorShape": {"dim": [{"size": "1"}, {"size": "1"}, {"size": "256"}, {"size": "896"}]}}}, "dtype": {"type": "DT_FLOAT"}}}, {"name": "StatefulPartitionedCall/inception_resnet_v1/Block17_2_Conv2d_1x1/BiasAdd/ReadVariableOp", "op": "Const", "attr": {"dtype": {"type": "DT_FLOAT"}, "value": {"tensor": {"dtype": "DT_FLOAT", "tensorShape": {"dim": [{"size": "896"}]}}}}}, {"name": "StatefulPartitionedCall/inception_resnet_v1/lambda_6/mul/y", "op": "Const", "attr": {"dtype": {"type": "DT_FLOAT"}, "value": {"tensor": {"dtype": "DT_FLOAT", "tensorShape": {}}}}}, {"name": "StatefulPartitionedCall/inception_resnet_v1/Block17_3_Concatenate/concat/axis", "op": "Const", "attr": {"value": {"tensor": {"dtype": "DT_INT32", "tensorShape": {}}}, "dtype": {"type": "DT_INT32"}}}, {"name": "StatefulPartitionedCall/inception_resnet_v1/Block17_3_Conv2d_1x1/Conv2D/ReadVariableOp", "op": "Const", "attr": {"value": {"tensor": {"dtype": "DT_FLOAT", "tensorShape": {"dim": [{"size": "1"}, {"size": "1"}, {"size": "256"}, {"size": "896"}]}}}, "dtype": {"type": "DT_FLOAT"}}}, {"name": "StatefulPartitionedCall/inception_resnet_v1/Block17_3_Conv2d_1x1/BiasAdd/ReadVariableOp", "op": "Const", "attr": {"value": {"tensor": {"dtype": "DT_FLOAT", "tensorShape": {"dim": [{"size": "896"}]}}}, "dtype": {"type": "DT_FLOAT"}}}, {"name": "StatefulPartitionedCall/inception_resnet_v1/lambda_7/mul/y", "op": "Const", "attr": {"value": {"tensor": {"dtype": "DT_FLOAT", "tensorShape": {}}}, "dtype": {"type": "DT_FLOAT"}}}, {"name": "StatefulPartitionedCall/inception_resnet_v1/Block17_4_Concatenate/concat/axis", "op": "Const", "attr": {"dtype": {"type": "DT_INT32"}, "value": {"tensor": {"dtype": "DT_INT32", "tensorShape": {}}}}}, {"name": "StatefulPartitionedCall/inception_resnet_v1/Block17_4_Conv2d_1x1/Conv2D/ReadVariableOp", "op": "Const", "attr": {"dtype": {"type": "DT_FLOAT"}, "value": {"tensor": {"dtype": "DT_FLOAT", "tensorShape": {"dim": [{"size": "1"}, {"size": "1"}, {"size": "256"}, {"size": "896"}]}}}}}, {"name": "StatefulPartitionedCall/inception_resnet_v1/Block17_4_Conv2d_1x1/BiasAdd/ReadVariableOp", "op": "Const", "attr": {"dtype": {"type": "DT_FLOAT"}, "value": {"tensor": {"dtype": "DT_FLOAT", "tensorShape": {"dim": [{"size": "896"}]}}}}}, {"name": "StatefulPartitionedCall/inception_resnet_v1/lambda_8/mul/y", "op": "Const", "attr": {"dtype": {"type": "DT_FLOAT"}, "value": {"tensor": {"dtype": "DT_FLOAT", "tensorShape": {}}}}}, {"name": "StatefulPartitionedCall/inception_resnet_v1/Block17_5_Concatenate/concat/axis", "op": "Const", "attr": {"value": {"tensor": {"dtype": "DT_INT32", "tensorShape": {}}}, "dtype": {"type": "DT_INT32"}}}, {"name": "StatefulPartitionedCall/inception_resnet_v1/Block17_5_Conv2d_1x1/Conv2D/ReadVariableOp", "op": "Const", "attr": {"dtype": {"type": "DT_FLOAT"}, "value": {"tensor": {"dtype": "DT_FLOAT", "tensorShape": {"dim": [{"size": "1"}, {"size": "1"}, {"size": "256"}, {"size": "896"}]}}}}}, {"name": "StatefulPartitionedCall/inception_resnet_v1/Block17_5_Conv2d_1x1/BiasAdd/ReadVariableOp", "op": "Const", "attr": {"value": {"tensor": {"dtype": "DT_FLOAT", "tensorShape": {"dim": [{"size": "896"}]}}}, "dtype": {"type": "DT_FLOAT"}}}, {"name": "StatefulPartitionedCall/inception_resnet_v1/lambda_9/mul/y", "op": "Const", "attr": {"dtype": {"type": "DT_FLOAT"}, "value": {"tensor": {"dtype": "DT_FLOAT", "tensorShape": {}}}}}, {"name": "StatefulPartitionedCall/inception_resnet_v1/Block17_6_Concatenate/concat/axis", "op": "Const", "attr": {"dtype": {"type": "DT_INT32"}, "value": {"tensor": {"dtype": "DT_INT32", "tensorShape": {}}}}}, {"name": "StatefulPartitionedCall/inception_resnet_v1/Block17_6_Conv2d_1x1/Conv2D/ReadVariableOp", "op": "Const", "attr": {"value": {"tensor": {"dtype": "DT_FLOAT", "tensorShape": {"dim": [{"size": "1"}, {"size": "1"}, {"size": "256"}, {"size": "896"}]}}}, "dtype": {"type": "DT_FLOAT"}}}, {"name": "StatefulPartitionedCall/inception_resnet_v1/Block17_6_Conv2d_1x1/BiasAdd/ReadVariableOp", "op": "Const", "attr": {"value": {"tensor": {"dtype": "DT_FLOAT", "tensorShape": {"dim": [{"size": "896"}]}}}, "dtype": {"type": "DT_FLOAT"}}}, {"name": "StatefulPartitionedCall/inception_resnet_v1/lambda_10/mul/y", "op": "Const", "attr": {"dtype": {"type": "DT_FLOAT"}, "value": {"tensor": {"dtype": "DT_FLOAT", "tensorShape": {}}}}}, {"name": "StatefulPartitionedCall/inception_resnet_v1/Block17_7_Concatenate/concat/axis", "op": "Const", "attr": {"value": {"tensor": {"dtype": "DT_INT32", "tensorShape": {}}}, "dtype": {"type": "DT_INT32"}}}, {"name": "StatefulPartitionedCall/inception_resnet_v1/Block17_7_Conv2d_1x1/Conv2D/ReadVariableOp", "op": "Const", "attr": {"dtype": {"type": "DT_FLOAT"}, "value": {"tensor": {"dtype": "DT_FLOAT", "tensorShape": {"dim": [{"size": "1"}, {"size": "1"}, {"size": "256"}, {"size": "896"}]}}}}}, {"name": "StatefulPartitionedCall/inception_resnet_v1/Block17_7_Conv2d_1x1/BiasAdd/ReadVariableOp", "op": "Const", "attr": {"dtype": {"type": "DT_FLOAT"}, "value": {"tensor": {"dtype": "DT_FLOAT", "tensorShape": {"dim": [{"size": "896"}]}}}}}, {"name": "StatefulPartitionedCall/inception_resnet_v1/lambda_11/mul/y", "op": "Const", "attr": {"dtype": {"type": "DT_FLOAT"}, "value": {"tensor": {"dtype": "DT_FLOAT", "tensorShape": {}}}}}, {"name": "StatefulPartitionedCall/inception_resnet_v1/Block17_8_Concatenate/concat/axis", "op": "Const", "attr": {"dtype": {"type": "DT_INT32"}, "value": {"tensor": {"dtype": "DT_INT32", "tensorShape": {}}}}}, {"name": "StatefulPartitionedCall/inception_resnet_v1/Block17_8_Conv2d_1x1/Conv2D/ReadVariableOp", "op": "Const", "attr": {"value": {"tensor": {"dtype": "DT_FLOAT", "tensorShape": {"dim": [{"size": "1"}, {"size": "1"}, {"size": "256"}, {"size": "896"}]}}}, "dtype": {"type": "DT_FLOAT"}}}, {"name": "StatefulPartitionedCall/inception_resnet_v1/Block17_8_Conv2d_1x1/BiasAdd/ReadVariableOp", "op": "Const", "attr": {"dtype": {"type": "DT_FLOAT"}, "value": {"tensor": {"dtype": "DT_FLOAT", "tensorShape": {"dim": [{"size": "896"}]}}}}}, {"name": "StatefulPartitionedCall/inception_resnet_v1/lambda_12/mul/y", "op": "Const", "attr": {"value": {"tensor": {"dtype": "DT_FLOAT", "tensorShape": {}}}, "dtype": {"type": "DT_FLOAT"}}}, {"name": "StatefulPartitionedCall/inception_resnet_v1/Block17_9_Concatenate/concat/axis", "op": "Const", "attr": {"dtype": {"type": "DT_INT32"}, "value": {"tensor": {"dtype": "DT_INT32", "tensorShape": {}}}}}, {"name": "StatefulPartitionedCall/inception_resnet_v1/Block17_9_Conv2d_1x1/Conv2D/ReadVariableOp", "op": "Const", "attr": {"dtype": {"type": "DT_FLOAT"}, "value": {"tensor": {"dtype": "DT_FLOAT", "tensorShape": {"dim": [{"size": "1"}, {"size": "1"}, {"size": "256"}, {"size": "896"}]}}}}}, {"name": "StatefulPartitionedCall/inception_resnet_v1/Block17_9_Conv2d_1x1/BiasAdd/ReadVariableOp", "op": "Const", "attr": {"value": {"tensor": {"dtype": "DT_FLOAT", "tensorShape": {"dim": [{"size": "896"}]}}}, "dtype": {"type": "DT_FLOAT"}}}, {"name": "StatefulPartitionedCall/inception_resnet_v1/lambda_13/mul/y", "op": "Const", "attr": {"dtype": {"type": "DT_FLOAT"}, "value": {"tensor": {"dtype": "DT_FLOAT", "tensorShape": {}}}}}, {"name": "StatefulPartitionedCall/inception_resnet_v1/Block17_10_Concatenate/concat/axis", "op": "Const", "attr": {"dtype": {"type": "DT_INT32"}, "value": {"tensor": {"dtype": "DT_INT32", "tensorShape": {}}}}}, {"name": "StatefulPartitionedCall/inception_resnet_v1/Block17_10_Conv2d_1x1/Conv2D/ReadVariableOp", "op": "Const", "attr": {"value": {"tensor": {"dtype": "DT_FLOAT", "tensorShape": {"dim": [{"size": "1"}, {"size": "1"}, {"size": "256"}, {"size": "896"}]}}}, "dtype": {"type": "DT_FLOAT"}}}, {"name": "StatefulPartitionedCall/inception_resnet_v1/Block17_10_Conv2d_1x1/BiasAdd/ReadVariableOp", "op": "Const", "attr": {"dtype": {"type": "DT_FLOAT"}, "value": {"tensor": {"dtype": "DT_FLOAT", "tensorShape": {"dim": [{"size": "896"}]}}}}}, {"name": "StatefulPartitionedCall/inception_resnet_v1/lambda_14/mul/y", "op": "Const", "attr": {"value": {"tensor": {"dtype": "DT_FLOAT", "tensorShape": {}}}, "dtype": {"type": "DT_FLOAT"}}}, {"name": "StatefulPartitionedCall/inception_resnet_v1/Mixed_7a/concat/axis", "op": "Const", "attr": {"value": {"tensor": {"dtype": "DT_INT32", "tensorShape": {}}}, "dtype": {"type": "DT_INT32"}}}, {"name": "StatefulPartitionedCall/inception_resnet_v1/Block8_1_Concatenate/concat/axis", "op": "Const", "attr": {"dtype": {"type": "DT_INT32"}, "value": {"tensor": {"dtype": "DT_INT32", "tensorShape": {}}}}}, {"name": "StatefulPartitionedCall/inception_resnet_v1/Block8_1_Conv2d_1x1/Conv2D/ReadVariableOp", "op": "Const", "attr": {"dtype": {"type": "DT_FLOAT"}, "value": {"tensor": {"dtype": "DT_FLOAT", "tensorShape": {"dim": [{"size": "1"}, {"size": "1"}, {"size": "384"}, {"size": "1792"}]}}}}}, {"name": "StatefulPartitionedCall/inception_resnet_v1/Block8_1_Conv2d_1x1/BiasAdd/ReadVariableOp", "op": "Const", "attr": {"value": {"tensor": {"dtype": "DT_FLOAT", "tensorShape": {"dim": [{"size": "1792"}]}}}, "dtype": {"type": "DT_FLOAT"}}}, {"name": "StatefulPartitionedCall/inception_resnet_v1/lambda_15/mul/y", "op": "Const", "attr": {"dtype": {"type": "DT_FLOAT"}, "value": {"tensor": {"dtype": "DT_FLOAT", "tensorShape": {}}}}}, {"name": "StatefulPartitionedCall/inception_resnet_v1/Block8_2_Concatenate/concat/axis", "op": "Const", "attr": {"dtype": {"type": "DT_INT32"}, "value": {"tensor": {"dtype": "DT_INT32", "tensorShape": {}}}}}, {"name": "StatefulPartitionedCall/inception_resnet_v1/Block8_2_Conv2d_1x1/Conv2D/ReadVariableOp", "op": "Const", "attr": {"value": {"tensor": {"dtype": "DT_FLOAT", "tensorShape": {"dim": [{"size": "1"}, {"size": "1"}, {"size": "384"}, {"size": "1792"}]}}}, "dtype": {"type": "DT_FLOAT"}}}, {"name": "StatefulPartitionedCall/inception_resnet_v1/Block8_2_Conv2d_1x1/BiasAdd/ReadVariableOp", "op": "Const", "attr": {"value": {"tensor": {"dtype": "DT_FLOAT", "tensorShape": {"dim": [{"size": "1792"}]}}}, "dtype": {"type": "DT_FLOAT"}}}, {"name": "StatefulPartitionedCall/inception_resnet_v1/lambda_16/mul/y", "op": "Const", "attr": {"dtype": {"type": "DT_FLOAT"}, "value": {"tensor": {"dtype": "DT_FLOAT", "tensorShape": {}}}}}, {"name": "StatefulPartitionedCall/inception_resnet_v1/Block8_3_Concatenate/concat/axis", "op": "Const", "attr": {"value": {"tensor": {"dtype": "DT_INT32", "tensorShape": {}}}, "dtype": {"type": "DT_INT32"}}}, {"name": "StatefulPartitionedCall/inception_resnet_v1/Block8_3_Conv2d_1x1/Conv2D/ReadVariableOp", "op": "Const", "attr": {"dtype": {"type": "DT_FLOAT"}, "value": {"tensor": {"dtype": "DT_FLOAT", "tensorShape": {"dim": [{"size": "1"}, {"size": "1"}, {"size": "384"}, {"size": "1792"}]}}}}}, {"name": "StatefulPartitionedCall/inception_resnet_v1/Block8_3_Conv2d_1x1/BiasAdd/ReadVariableOp", "op": "Const", "attr": {"value": {"tensor": {"dtype": "DT_FLOAT", "tensorShape": {"dim": [{"size": "1792"}]}}}, "dtype": {"type": "DT_FLOAT"}}}, {"name": "StatefulPartitionedCall/inception_resnet_v1/lambda_17/mul/y", "op": "Const", "attr": {"value": {"tensor": {"dtype": "DT_FLOAT", "tensorShape": {}}}, "dtype": {"type": "DT_FLOAT"}}}, {"name": "StatefulPartitionedCall/inception_resnet_v1/Block8_4_Concatenate/concat/axis", "op": "Const", "attr": {"dtype": {"type": "DT_INT32"}, "value": {"tensor": {"dtype": "DT_INT32", "tensorShape": {}}}}}, {"name": "StatefulPartitionedCall/inception_resnet_v1/Block8_4_Conv2d_1x1/Conv2D/ReadVariableOp", "op": "Const", "attr": {"dtype": {"type": "DT_FLOAT"}, "value": {"tensor": {"dtype": "DT_FLOAT", "tensorShape": {"dim": [{"size": "1"}, {"size": "1"}, {"size": "384"}, {"size": "1792"}]}}}}}, {"name": "StatefulPartitionedCall/inception_resnet_v1/Block8_4_Conv2d_1x1/BiasAdd/ReadVariableOp", "op": "Const", "attr": {"value": {"tensor": {"dtype": "DT_FLOAT", "tensorShape": {"dim": [{"size": "1792"}]}}}, "dtype": {"type": "DT_FLOAT"}}}, {"name": "StatefulPartitionedCall/inception_resnet_v1/lambda_18/mul/y", "op": "Const", "attr": {"value": {"tensor": {"dtype": "DT_FLOAT", "tensorShape": {}}}, "dtype": {"type": "DT_FLOAT"}}}, {"name": "StatefulPartitionedCall/inception_resnet_v1/Block8_5_Concatenate/concat/axis", "op": "Const", "attr": {"dtype": {"type": "DT_INT32"}, "value": {"tensor": {"dtype": "DT_INT32", "tensorShape": {}}}}}, {"name": "StatefulPartitionedCall/inception_resnet_v1/Block8_5_Conv2d_1x1/Conv2D/ReadVariableOp", "op": "Const", "attr": {"dtype": {"type": "DT_FLOAT"}, "value": {"tensor": {"dtype": "DT_FLOAT", "tensorShape": {"dim": [{"size": "1"}, {"size": "1"}, {"size": "384"}, {"size": "1792"}]}}}}}, {"name": "StatefulPartitionedCall/inception_resnet_v1/Block8_5_Conv2d_1x1/BiasAdd/ReadVariableOp", "op": "Const", "attr": {"value": {"tensor": {"dtype": "DT_FLOAT", "tensorShape": {"dim": [{"size": "1792"}]}}}, "dtype": {"type": "DT_FLOAT"}}}, {"name": "StatefulPartitionedCall/inception_resnet_v1/lambda_19/mul/y", "op": "Const", "attr": {"dtype": {"type": "DT_FLOAT"}, "value": {"tensor": {"dtype": "DT_FLOAT", "tensorShape": {}}}}}, {"name": "StatefulPartitionedCall/inception_resnet_v1/Block8_6_Concatenate/concat/axis", "op": "Const", "attr": {"dtype": {"type": "DT_INT32"}, "value": {"tensor": {"dtype": "DT_INT32", "tensorShape": {}}}}}, {"name": "StatefulPartitionedCall/inception_resnet_v1/Block8_6_Conv2d_1x1/Conv2D/ReadVariableOp", "op": "Const", "attr": {"dtype": {"type": "DT_FLOAT"}, "value": {"tensor": {"dtype": "DT_FLOAT", "tensorShape": {"dim": [{"size": "1"}, {"size": "1"}, {"size": "384"}, {"size": "1792"}]}}}}}, {"name": "StatefulPartitionedCall/inception_resnet_v1/Block8_6_Conv2d_1x1/BiasAdd/ReadVariableOp", "op": "Const", "attr": {"value": {"tensor": {"dtype": "DT_FLOAT", "tensorShape": {"dim": [{"size": "1792"}]}}}, "dtype": {"type": "DT_FLOAT"}}}, {"name": "StatefulPartitionedCall/inception_resnet_v1/AvgPool/Mean/reduction_indices", "op": "Const", "attr": {"value": {"tensor": {"dtype": "DT_INT32", "tensorShape": {"dim": [{"size": "2"}]}}}, "dtype": {"type": "DT_INT32"}}}, {"name": "StatefulPartitionedCall/inception_resnet_v1/Bottleneck/MatMul/ReadVariableOp", "op": "Const", "attr": {"value": {"tensor": {"dtype": "DT_FLOAT", "tensorShape": {"dim": [{"size": "1792"}, {"size": "512"}]}}}, "dtype": {"type": "DT_FLOAT"}}}, {"name": "StatefulPartitionedCall/inception_resnet_v1/Bottleneck_BatchNorm/batchnorm/Rsqrt", "op": "Const", "attr": {"dtype": {"type": "DT_FLOAT"}, "value": {"tensor": {"dtype": "DT_FLOAT", "tensorShape": {"dim": [{"size": "512"}]}}}}}, {"name": "StatefulPartitionedCall/inception_resnet_v1/Bottleneck_BatchNorm/batchnorm/sub", "op": "Const", "attr": {"dtype": {"type": "DT_FLOAT"}, "value": {"tensor": {"dtype": "DT_FLOAT", "tensorShape": {"dim": [{"size": "512"}]}}}}}, {"name": "input_1", "op": "Placeholder", "attr": {"dtype": {"type": "DT_FLOAT"}, "shape": {"shape": {"dim": [{"size": "-1"}, {"size": "160"}, {"size": "160"}, {"size": "3"}]}}}}, {"name": "StatefulPartitionedCall/inception_resnet_v1/Conv2d_1a_3x3/Conv2D_weights", "op": "Const", "attr": {"value": {"tensor": {"dtype": "DT_FLOAT", "tensorShape": {"dim": [{"size": "3"}, {"size": "3"}, {"size": "3"}, {"size": "32"}]}}}, "dtype": {"type": "DT_FLOAT"}}}, {"name": "StatefulPartitionedCall/inception_resnet_v1/Block17_9_Branch_9_Conv2d_0a_1x1/Conv2D_weights", "op": "Const", "attr": {"value": {"tensor": {"dtype": "DT_FLOAT", "tensorShape": {"dim": [{"size": "1"}, {"size": "1"}, {"size": "896"}, {"size": "128"}]}}}, "dtype": {"type": "DT_FLOAT"}}}, {"name": "StatefulPartitionedCall/inception_resnet_v1/Conv2d_1a_3x3/Conv2D_bn_offset", "op": "Const", "attr": {"dtype": {"type": "DT_FLOAT"}, "value": {"tensor": {"dtype": "DT_FLOAT", "tensorShape": {"dim": [{"size": "32"}]}}}}}, {"name": "StatefulPartitionedCall/inception_resnet_v1/Conv2d_2a_3x3/Conv2D_weights", "op": "Const", "attr": {"value": {"tensor": {"dtype": "DT_FLOAT", "tensorShape": {"dim": [{"size": "3"}, {"size": "3"}, {"size": "32"}, {"size": "32"}]}}}, "dtype": {"type": "DT_FLOAT"}}}, {"name": "StatefulPartitionedCall/inception_resnet_v1/Block17_9_Branch_9_Conv2d_0a_1x1/Conv2D_bn_offset", "op": "Const", "attr": {"dtype": {"type": "DT_FLOAT"}, "value": {"tensor": {"dtype": "DT_FLOAT", "tensorShape": {"dim": [{"size": "128"}]}}}}}, {"name": "StatefulPartitionedCall/inception_resnet_v1/Conv2d_2a_3x3/Conv2D_bn_offset", "op": "Const", "attr": {"dtype": {"type": "DT_FLOAT"}, "value": {"tensor": {"dtype": "DT_FLOAT", "tensorShape": {"dim": [{"size": "32"}]}}}}}, {"name": "StatefulPartitionedCall/inception_resnet_v1/Conv2d_2b_3x3/Conv2D_weights", "op": "Const", "attr": {"value": {"tensor": {"dtype": "DT_FLOAT", "tensorShape": {"dim": [{"size": "3"}, {"size": "3"}, {"size": "32"}, {"size": "64"}]}}}, "dtype": {"type": "DT_FLOAT"}}}, {"name": "StatefulPartitionedCall/inception_resnet_v1/Conv2d_2b_3x3/Conv2D_bn_offset", "op": "Const", "attr": {"value": {"tensor": {"dtype": "DT_FLOAT", "tensorShape": {"dim": [{"size": "64"}]}}}, "dtype": {"type": "DT_FLOAT"}}}, {"name": "StatefulPartitionedCall/inception_resnet_v1/Block17_9_Branch_9_Conv2d_0b_1x7/Conv2D_weights", "op": "Const", "attr": {"dtype": {"type": "DT_FLOAT"}, "value": {"tensor": {"dtype": "DT_FLOAT", "tensorShape": {"dim": [{"size": "1"}, {"size": "7"}, {"size": "128"}, {"size": "128"}]}}}}}, {"name": "StatefulPartitionedCall/inception_resnet_v1/Conv2d_3b_1x1/Conv2D_weights", "op": "Const", "attr": {"value": {"tensor": {"dtype": "DT_FLOAT", "tensorShape": {"dim": [{"size": "1"}, {"size": "1"}, {"size": "64"}, {"size": "80"}]}}}, "dtype": {"type": "DT_FLOAT"}}}, {"name": "StatefulPartitionedCall/inception_resnet_v1/Conv2d_3b_1x1/Conv2D_bn_offset", "op": "Const", "attr": {"dtype": {"type": "DT_FLOAT"}, "value": {"tensor": {"dtype": "DT_FLOAT", "tensorShape": {"dim": [{"size": "80"}]}}}}}, {"name": "StatefulPartitionedCall/inception_resnet_v1/Block17_9_Branch_9_Conv2d_0b_1x7/Conv2D_bn_offset", "op": "Const", "attr": {"value": {"tensor": {"dtype": "DT_FLOAT", "tensorShape": {"dim": [{"size": "128"}]}}}, "dtype": {"type": "DT_FLOAT"}}}, {"name": "StatefulPartitionedCall/inception_resnet_v1/Conv2d_4a_3x3/Conv2D_weights", "op": "Const", "attr": {"dtype": {"type": "DT_FLOAT"}, "value": {"tensor": {"dtype": "DT_FLOAT", "tensorShape": {"dim": [{"size": "3"}, {"size": "3"}, {"size": "80"}, {"size": "192"}]}}}}}, {"name": "StatefulPartitionedCall/inception_resnet_v1/Block8_4_Branch_0_Conv2d_1x1/Conv2D_weights", "op": "Const", "attr": {"dtype": {"type": "DT_FLOAT"}, "value": {"tensor": {"dtype": "DT_FLOAT", "tensorShape": {"dim": [{"size": "1"}, {"size": "1"}, {"size": "1792"}, {"size": "192"}]}}}}}, {"name": "StatefulPartitionedCall/inception_resnet_v1/Conv2d_4a_3x3/Conv2D_bn_offset", "op": "Const", "attr": {"dtype": {"type": "DT_FLOAT"}, "value": {"tensor": {"dtype": "DT_FLOAT", "tensorShape": {"dim": [{"size": "192"}]}}}}}, {"name": "StatefulPartitionedCall/inception_resnet_v1/Conv2d_4b_3x3/Conv2D_weights", "op": "Const", "attr": {"dtype": {"type": "DT_FLOAT"}, "value": {"tensor": {"dtype": "DT_FLOAT", "tensorShape": {"dim": [{"size": "3"}, {"size": "3"}, {"size": "192"}, {"size": "256"}]}}}}}, {"name": "StatefulPartitionedCall/inception_resnet_v1/Block17_9_Branch_9_Conv2d_0c_7x1/Conv2D_weights", "op": "Const", "attr": {"dtype": {"type": "DT_FLOAT"}, "value": {"tensor": {"dtype": "DT_FLOAT", "tensorShape": {"dim": [{"size": "7"}, {"size": "1"}, {"size": "128"}, {"size": "128"}]}}}}}, {"name": "StatefulPartitionedCall/inception_resnet_v1/Conv2d_4b_3x3/Conv2D_bn_offset", "op": "Const", "attr": {"value": {"tensor": {"dtype": "DT_FLOAT", "tensorShape": {"dim": [{"size": "256"}]}}}, "dtype": {"type": "DT_FLOAT"}}}, {"name": "StatefulPartitionedCall/inception_resnet_v1/Block8_6_Branch_0_Conv2d_1x1/Conv2D_bn_offset", "op": "Const", "attr": {"dtype": {"type": "DT_FLOAT"}, "value": {"tensor": {"dtype": "DT_FLOAT", "tensorShape": {"dim": [{"size": "192"}]}}}}}, {"name": "StatefulPartitionedCall/inception_resnet_v1/Block35_1_Branch_0_Conv2d_1x1/Conv2D_weights", "op": "Const", "attr": {"dtype": {"type": "DT_FLOAT"}, "value": {"tensor": {"dtype": "DT_FLOAT", "tensorShape": {"dim": [{"size": "1"}, {"size": "1"}, {"size": "256"}, {"size": "32"}]}}}}}, {"name": "StatefulPartitionedCall/inception_resnet_v1/Block17_9_Branch_9_Conv2d_0c_7x1/Conv2D_bn_offset", "op": "Const", "attr": {"value": {"tensor": {"dtype": "DT_FLOAT", "tensorShape": {"dim": [{"size": "128"}]}}}, "dtype": {"type": "DT_FLOAT"}}}, {"name": "StatefulPartitionedCall/inception_resnet_v1/Block35_1_Branch_0_Conv2d_1x1/Conv2D_bn_offset", "op": "Const", "attr": {"dtype": {"type": "DT_FLOAT"}, "value": {"tensor": {"dtype": "DT_FLOAT", "tensorShape": {"dim": [{"size": "32"}]}}}}}, {"name": "StatefulPartitionedCall/inception_resnet_v1/Block8_4_Branch_0_Conv2d_1x1/Conv2D_bn_offset", "op": "Const", "attr": {"value": {"tensor": {"dtype": "DT_FLOAT", "tensorShape": {"dim": [{"size": "192"}]}}}, "dtype": {"type": "DT_FLOAT"}}}, {"name": "StatefulPartitionedCall/inception_resnet_v1/Block35_1_Branch_1_Conv2d_0a_1x1/Conv2D_weights", "op": "Const", "attr": {"value": {"tensor": {"dtype": "DT_FLOAT", "tensorShape": {"dim": [{"size": "1"}, {"size": "1"}, {"size": "256"}, {"size": "32"}]}}}, "dtype": {"type": "DT_FLOAT"}}}, {"name": "StatefulPartitionedCall/inception_resnet_v1/Block35_1_Branch_1_Conv2d_0a_1x1/Conv2D_bn_offset", "op": "Const", "attr": {"dtype": {"type": "DT_FLOAT"}, "value": {"tensor": {"dtype": "DT_FLOAT", "tensorShape": {"dim": [{"size": "32"}]}}}}}, {"name": "StatefulPartitionedCall/inception_resnet_v1/Block35_1_Branch_2_Conv2d_0a_1x1/Conv2D_weights", "op": "Const", "attr": {"value": {"tensor": {"dtype": "DT_FLOAT", "tensorShape": {"dim": [{"size": "1"}, {"size": "1"}, {"size": "256"}, {"size": "32"}]}}}, "dtype": {"type": "DT_FLOAT"}}}, {"name": "StatefulPartitionedCall/inception_resnet_v1/Block35_1_Branch_2_Conv2d_0a_1x1/Conv2D_bn_offset", "op": "Const", "attr": {"value": {"tensor": {"dtype": "DT_FLOAT", "tensorShape": {"dim": [{"size": "32"}]}}}, "dtype": {"type": "DT_FLOAT"}}}, {"name": "StatefulPartitionedCall/inception_resnet_v1/Block35_1_Branch_1_Conv2d_0b_3x3/Conv2D_weights", "op": "Const", "attr": {"dtype": {"type": "DT_FLOAT"}, "value": {"tensor": {"dtype": "DT_FLOAT", "tensorShape": {"dim": [{"size": "3"}, {"size": "3"}, {"size": "32"}, {"size": "32"}]}}}}}, {"name": "StatefulPartitionedCall/inception_resnet_v1/Block35_1_Branch_1_Conv2d_0b_3x3/Conv2D_bn_offset", "op": "Const", "attr": {"value": {"tensor": {"dtype": "DT_FLOAT", "tensorShape": {"dim": [{"size": "32"}]}}}, "dtype": {"type": "DT_FLOAT"}}}, {"name": "StatefulPartitionedCall/inception_resnet_v1/Block35_1_Branch_2_Conv2d_0b_3x3/Conv2D_weights", "op": "Const", "attr": {"dtype": {"type": "DT_FLOAT"}, "value": {"tensor": {"dtype": "DT_FLOAT", "tensorShape": {"dim": [{"size": "3"}, {"size": "3"}, {"size": "32"}, {"size": "32"}]}}}}}, {"name": "StatefulPartitionedCall/inception_resnet_v1/Block35_1_Branch_2_Conv2d_0b_3x3/Conv2D_bn_offset", "op": "Const", "attr": {"dtype": {"type": "DT_FLOAT"}, "value": {"tensor": {"dtype": "DT_FLOAT", "tensorShape": {"dim": [{"size": "32"}]}}}}}, {"name": "StatefulPartitionedCall/inception_resnet_v1/Block17_10_Branch_0_Conv2d_1x1/Conv2D_weights", "op": "Const", "attr": {"value": {"tensor": {"dtype": "DT_FLOAT", "tensorShape": {"dim": [{"size": "1"}, {"size": "1"}, {"size": "896"}, {"size": "128"}]}}}, "dtype": {"type": "DT_FLOAT"}}}, {"name": "StatefulPartitionedCall/inception_resnet_v1/Block35_1_Branch_2_Conv2d_0c_3x3/Conv2D_weights", "op": "Const", "attr": {"value": {"tensor": {"dtype": "DT_FLOAT", "tensorShape": {"dim": [{"size": "3"}, {"size": "3"}, {"size": "32"}, {"size": "32"}]}}}, "dtype": {"type": "DT_FLOAT"}}}, {"name": "StatefulPartitionedCall/inception_resnet_v1/Block35_1_Branch_2_Conv2d_0c_3x3/Conv2D_bn_offset", "op": "Const", "attr": {"value": {"tensor": {"dtype": "DT_FLOAT", "tensorShape": {"dim": [{"size": "32"}]}}}, "dtype": {"type": "DT_FLOAT"}}}, {"name": "StatefulPartitionedCall/inception_resnet_v1/Block17_10_Branch_0_Conv2d_1x1/Conv2D_bn_offset", "op": "Const", "attr": {"dtype": {"type": "DT_FLOAT"}, "value": {"tensor": {"dtype": "DT_FLOAT", "tensorShape": {"dim": [{"size": "128"}]}}}}}, {"name": "StatefulPartitionedCall/inception_resnet_v1/Block8_4_Branch_4_Conv2d_0a_1x1/Conv2D_weights", "op": "Const", "attr": {"dtype": {"type": "DT_FLOAT"}, "value": {"tensor": {"dtype": "DT_FLOAT", "tensorShape": {"dim": [{"size": "1"}, {"size": "1"}, {"size": "1792"}, {"size": "192"}]}}}}}, {"name": "StatefulPartitionedCall/inception_resnet_v1/Block35_2_Branch_0_Conv2d_1x1/Conv2D_weights", "op": "Const", "attr": {"value": {"tensor": {"dtype": "DT_FLOAT", "tensorShape": {"dim": [{"size": "1"}, {"size": "1"}, {"size": "256"}, {"size": "32"}]}}}, "dtype": {"type": "DT_FLOAT"}}}, {"name": "StatefulPartitionedCall/inception_resnet_v1/Block35_2_Branch_0_Conv2d_1x1/Conv2D_bn_offset", "op": "Const", "attr": {"dtype": {"type": "DT_FLOAT"}, "value": {"tensor": {"dtype": "DT_FLOAT", "tensorShape": {"dim": [{"size": "32"}]}}}}}, {"name": "StatefulPartitionedCall/inception_resnet_v1/Block17_10_Branch_10_Conv2d_0a_1x1/Conv2D_weights", "op": "Const", "attr": {"value": {"tensor": {"dtype": "DT_FLOAT", "tensorShape": {"dim": [{"size": "1"}, {"size": "1"}, {"size": "896"}, {"size": "128"}]}}}, "dtype": {"type": "DT_FLOAT"}}}, {"name": "StatefulPartitionedCall/inception_resnet_v1/Block35_2_Branch_1_Conv2d_0a_1x1/Conv2D_weights", "op": "Const", "attr": {"dtype": {"type": "DT_FLOAT"}, "value": {"tensor": {"dtype": "DT_FLOAT", "tensorShape": {"dim": [{"size": "1"}, {"size": "1"}, {"size": "256"}, {"size": "32"}]}}}}}, {"name": "StatefulPartitionedCall/inception_resnet_v1/Block35_2_Branch_1_Conv2d_0a_1x1/Conv2D_bn_offset", "op": "Const", "attr": {"value": {"tensor": {"dtype": "DT_FLOAT", "tensorShape": {"dim": [{"size": "32"}]}}}, "dtype": {"type": "DT_FLOAT"}}}, {"name": "StatefulPartitionedCall/inception_resnet_v1/Block17_10_Branch_10_Conv2d_0a_1x1/Conv2D_bn_offset", "op": "Const", "attr": {"dtype": {"type": "DT_FLOAT"}, "value": {"tensor": {"dtype": "DT_FLOAT", "tensorShape": {"dim": [{"size": "128"}]}}}}}, {"name": "StatefulPartitionedCall/inception_resnet_v1/Block35_2_Branch_2_Conv2d_0a_1x1/Conv2D_weights", "op": "Const", "attr": {"dtype": {"type": "DT_FLOAT"}, "value": {"tensor": {"dtype": "DT_FLOAT", "tensorShape": {"dim": [{"size": "1"}, {"size": "1"}, {"size": "256"}, {"size": "32"}]}}}}}, {"name": "StatefulPartitionedCall/inception_resnet_v1/Block8_4_Branch_4_Conv2d_0a_1x1/Conv2D_bn_offset", "op": "Const", "attr": {"value": {"tensor": {"dtype": "DT_FLOAT", "tensorShape": {"dim": [{"size": "192"}]}}}, "dtype": {"type": "DT_FLOAT"}}}, {"name": "StatefulPartitionedCall/inception_resnet_v1/Block35_2_Branch_2_Conv2d_0a_1x1/Conv2D_bn_offset", "op": "Const", "attr": {"value": {"tensor": {"dtype": "DT_FLOAT", "tensorShape": {"dim": [{"size": "32"}]}}}, "dtype": {"type": "DT_FLOAT"}}}, {"name": "StatefulPartitionedCall/inception_resnet_v1/Block35_2_Branch_1_Conv2d_0b_3x3/Conv2D_weights", "op": "Const", "attr": {"dtype": {"type": "DT_FLOAT"}, "value": {"tensor": {"dtype": "DT_FLOAT", "tensorShape": {"dim": [{"size": "3"}, {"size": "3"}, {"size": "32"}, {"size": "32"}]}}}}}, {"name": "StatefulPartitionedCall/inception_resnet_v1/Block17_10_Branch_10_Conv2d_0b_1x7/Conv2D_weights", "op": "Const", "attr": {"value": {"tensor": {"dtype": "DT_FLOAT", "tensorShape": {"dim": [{"size": "1"}, {"size": "7"}, {"size": "128"}, {"size": "128"}]}}}, "dtype": {"type": "DT_FLOAT"}}}, {"name": "StatefulPartitionedCall/inception_resnet_v1/Block35_2_Branch_1_Conv2d_0b_3x3/Conv2D_bn_offset", "op": "Const", "attr": {"dtype": {"type": "DT_FLOAT"}, "value": {"tensor": {"dtype": "DT_FLOAT", "tensorShape": {"dim": [{"size": "32"}]}}}}}, {"name": "StatefulPartitionedCall/inception_resnet_v1/Block8_6_Branch_1_Conv2d_0a_1x1/Conv2D_weights", "op": "Const", "attr": {"dtype": {"type": "DT_FLOAT"}, "value": {"tensor": {"dtype": "DT_FLOAT", "tensorShape": {"dim": [{"size": "1"}, {"size": "1"}, {"size": "1792"}, {"size": "192"}]}}}}}, {"name": "StatefulPartitionedCall/inception_resnet_v1/Block35_2_Branch_2_Conv2d_0b_3x3/Conv2D_weights", "op": "Const", "attr": {"value": {"tensor": {"dtype": "DT_FLOAT", "tensorShape": {"dim": [{"size": "3"}, {"size": "3"}, {"size": "32"}, {"size": "32"}]}}}, "dtype": {"type": "DT_FLOAT"}}}, {"name": "StatefulPartitionedCall/inception_resnet_v1/Block17_10_Branch_10_Conv2d_0b_1x7/Conv2D_bn_offset", "op": "Const", "attr": {"dtype": {"type": "DT_FLOAT"}, "value": {"tensor": {"dtype": "DT_FLOAT", "tensorShape": {"dim": [{"size": "128"}]}}}}}, {"name": "StatefulPartitionedCall/inception_resnet_v1/Block35_2_Branch_2_Conv2d_0b_3x3/Conv2D_bn_offset", "op": "Const", "attr": {"dtype": {"type": "DT_FLOAT"}, "value": {"tensor": {"dtype": "DT_FLOAT", "tensorShape": {"dim": [{"size": "32"}]}}}}}, {"name": "StatefulPartitionedCall/inception_resnet_v1/Block35_2_Branch_2_Conv2d_0c_3x3/Conv2D_weights", "op": "Const", "attr": {"dtype": {"type": "DT_FLOAT"}, "value": {"tensor": {"dtype": "DT_FLOAT", "tensorShape": {"dim": [{"size": "3"}, {"size": "3"}, {"size": "32"}, {"size": "32"}]}}}}}, {"name": "StatefulPartitionedCall/inception_resnet_v1/Block35_2_Branch_2_Conv2d_0c_3x3/Conv2D_bn_offset", "op": "Const", "attr": {"dtype": {"type": "DT_FLOAT"}, "value": {"tensor": {"dtype": "DT_FLOAT", "tensorShape": {"dim": [{"size": "32"}]}}}}}, {"name": "StatefulPartitionedCall/inception_resnet_v1/Block17_10_Branch_10_Conv2d_0c_7x1/Conv2D_weights", "op": "Const", "attr": {"value": {"tensor": {"dtype": "DT_FLOAT", "tensorShape": {"dim": [{"size": "7"}, {"size": "1"}, {"size": "128"}, {"size": "128"}]}}}, "dtype": {"type": "DT_FLOAT"}}}, {"name": "StatefulPartitionedCall/inception_resnet_v1/Block8_4_Branch_4_Conv2d_0b_1x3/Conv2D_weights", "op": "Const", "attr": {"dtype": {"type": "DT_FLOAT"}, "value": {"tensor": {"dtype": "DT_FLOAT", "tensorShape": {"dim": [{"size": "1"}, {"size": "3"}, {"size": "192"}, {"size": "192"}]}}}}}, {"name": "StatefulPartitionedCall/inception_resnet_v1/Block35_3_Branch_0_Conv2d_1x1/Conv2D_weights", "op": "Const", "attr": {"dtype": {"type": "DT_FLOAT"}, "value": {"tensor": {"dtype": "DT_FLOAT", "tensorShape": {"dim": [{"size": "1"}, {"size": "1"}, {"size": "256"}, {"size": "32"}]}}}}}, {"name": "StatefulPartitionedCall/inception_resnet_v1/Block17_10_Branch_10_Conv2d_0c_7x1/Conv2D_bn_offset", "op": "Const", "attr": {"dtype": {"type": "DT_FLOAT"}, "value": {"tensor": {"dtype": "DT_FLOAT", "tensorShape": {"dim": [{"size": "128"}]}}}}}, {"name": "StatefulPartitionedCall/inception_resnet_v1/Block35_3_Branch_0_Conv2d_1x1/Conv2D_bn_offset", "op": "Const", "attr": {"dtype": {"type": "DT_FLOAT"}, "value": {"tensor": {"dtype": "DT_FLOAT", "tensorShape": {"dim": [{"size": "32"}]}}}}}, {"name": "StatefulPartitionedCall/inception_resnet_v1/Block35_3_Branch_1_Conv2d_0a_1x1/Conv2D_weights", "op": "Const", "attr": {"dtype": {"type": "DT_FLOAT"}, "value": {"tensor": {"dtype": "DT_FLOAT", "tensorShape": {"dim": [{"size": "1"}, {"size": "1"}, {"size": "256"}, {"size": "32"}]}}}}}, {"name": "StatefulPartitionedCall/inception_resnet_v1/Block35_3_Branch_1_Conv2d_0a_1x1/Conv2D_bn_offset", "op": "Const", "attr": {"dtype": {"type": "DT_FLOAT"}, "value": {"tensor": {"dtype": "DT_FLOAT", "tensorShape": {"dim": [{"size": "32"}]}}}}}, {"name": "StatefulPartitionedCall/inception_resnet_v1/Block35_3_Branch_2_Conv2d_0a_1x1/Conv2D_weights", "op": "Const", "attr": {"dtype": {"type": "DT_FLOAT"}, "value": {"tensor": {"dtype": "DT_FLOAT", "tensorShape": {"dim": [{"size": "1"}, {"size": "1"}, {"size": "256"}, {"size": "32"}]}}}}}, {"name": "StatefulPartitionedCall/inception_resnet_v1/Block8_4_Branch_4_Conv2d_0b_1x3/Conv2D_bn_offset", "op": "Const", "attr": {"dtype": {"type": "DT_FLOAT"}, "value": {"tensor": {"dtype": "DT_FLOAT", "tensorShape": {"dim": [{"size": "192"}]}}}}}, {"name": "StatefulPartitionedCall/inception_resnet_v1/Block35_3_Branch_2_Conv2d_0a_1x1/Conv2D_bn_offset", "op": "Const", "attr": {"dtype": {"type": "DT_FLOAT"}, "value": {"tensor": {"dtype": "DT_FLOAT", "tensorShape": {"dim": [{"size": "32"}]}}}}}, {"name": "StatefulPartitionedCall/inception_resnet_v1/Block35_3_Branch_1_Conv2d_0b_3x3/Conv2D_weights", "op": "Const", "attr": {"dtype": {"type": "DT_FLOAT"}, "value": {"tensor": {"dtype": "DT_FLOAT", "tensorShape": {"dim": [{"size": "3"}, {"size": "3"}, {"size": "32"}, {"size": "32"}]}}}}}, {"name": "StatefulPartitionedCall/inception_resnet_v1/Block35_3_Branch_1_Conv2d_0b_3x3/Conv2D_bn_offset", "op": "Const", "attr": {"value": {"tensor": {"dtype": "DT_FLOAT", "tensorShape": {"dim": [{"size": "32"}]}}}, "dtype": {"type": "DT_FLOAT"}}}, {"name": "StatefulPartitionedCall/inception_resnet_v1/Block35_3_Branch_2_Conv2d_0b_3x3/Conv2D_weights", "op": "Const", "attr": {"value": {"tensor": {"dtype": "DT_FLOAT", "tensorShape": {"dim": [{"size": "3"}, {"size": "3"}, {"size": "32"}, {"size": "32"}]}}}, "dtype": {"type": "DT_FLOAT"}}}, {"name": "StatefulPartitionedCall/inception_resnet_v1/Block35_3_Branch_2_Conv2d_0b_3x3/Conv2D_bn_offset", "op": "Const", "attr": {"value": {"tensor": {"dtype": "DT_FLOAT", "tensorShape": {"dim": [{"size": "32"}]}}}, "dtype": {"type": "DT_FLOAT"}}}, {"name": "StatefulPartitionedCall/inception_resnet_v1/Block35_3_Branch_2_Conv2d_0c_3x3/Conv2D_weights", "op": "Const", "attr": {"dtype": {"type": "DT_FLOAT"}, "value": {"tensor": {"dtype": "DT_FLOAT", "tensorShape": {"dim": [{"size": "3"}, {"size": "3"}, {"size": "32"}, {"size": "32"}]}}}}}, {"name": "StatefulPartitionedCall/inception_resnet_v1/Mixed_7a_Branch_0_Conv2d_0a_1x1/Conv2D_weights", "op": "Const", "attr": {"dtype": {"type": "DT_FLOAT"}, "value": {"tensor": {"dtype": "DT_FLOAT", "tensorShape": {"dim": [{"size": "1"}, {"size": "1"}, {"size": "896"}, {"size": "256"}]}}}}}, {"name": "StatefulPartitionedCall/inception_resnet_v1/Block35_3_Branch_2_Conv2d_0c_3x3/Conv2D_bn_offset", "op": "Const", "attr": {"value": {"tensor": {"dtype": "DT_FLOAT", "tensorShape": {"dim": [{"size": "32"}]}}}, "dtype": {"type": "DT_FLOAT"}}}, {"name": "StatefulPartitionedCall/inception_resnet_v1/Block8_6_Branch_1_Conv2d_0a_1x1/Conv2D_bn_offset", "op": "Const", "attr": {"dtype": {"type": "DT_FLOAT"}, "value": {"tensor": {"dtype": "DT_FLOAT", "tensorShape": {"dim": [{"size": "192"}]}}}}}, {"name": "StatefulPartitionedCall/inception_resnet_v1/Mixed_7a_Branch_0_Conv2d_0a_1x1/Conv2D_bn_offset", "op": "Const", "attr": {"dtype": {"type": "DT_FLOAT"}, "value": {"tensor": {"dtype": "DT_FLOAT", "tensorShape": {"dim": [{"size": "256"}]}}}}}, {"name": "StatefulPartitionedCall/inception_resnet_v1/Block35_4_Branch_0_Conv2d_1x1/Conv2D_weights", "op": "Const", "attr": {"dtype": {"type": "DT_FLOAT"}, "value": {"tensor": {"dtype": "DT_FLOAT", "tensorShape": {"dim": [{"size": "1"}, {"size": "1"}, {"size": "256"}, {"size": "32"}]}}}}}, {"name": "StatefulPartitionedCall/inception_resnet_v1/Block35_4_Branch_0_Conv2d_1x1/Conv2D_bn_offset", "op": "Const", "attr": {"value": {"tensor": {"dtype": "DT_FLOAT", "tensorShape": {"dim": [{"size": "32"}]}}}, "dtype": {"type": "DT_FLOAT"}}}, {"name": "StatefulPartitionedCall/inception_resnet_v1/Block35_4_Branch_1_Conv2d_0a_1x1/Conv2D_weights", "op": "Const", "attr": {"value": {"tensor": {"dtype": "DT_FLOAT", "tensorShape": {"dim": [{"size": "1"}, {"size": "1"}, {"size": "256"}, {"size": "32"}]}}}, "dtype": {"type": "DT_FLOAT"}}}, {"name": "StatefulPartitionedCall/inception_resnet_v1/Mixed_7a_Branch_1_Conv2d_0a_1x1/Conv2D_weights", "op": "Const", "attr": {"value": {"tensor": {"dtype": "DT_FLOAT", "tensorShape": {"dim": [{"size": "1"}, {"size": "1"}, {"size": "896"}, {"size": "256"}]}}}, "dtype": {"type": "DT_FLOAT"}}}, {"name": "StatefulPartitionedCall/inception_resnet_v1/Block35_4_Branch_1_Conv2d_0a_1x1/Conv2D_bn_offset", "op": "Const", "attr": {"value": {"tensor": {"dtype": "DT_FLOAT", "tensorShape": {"dim": [{"size": "32"}]}}}, "dtype": {"type": "DT_FLOAT"}}}, {"name": "StatefulPartitionedCall/inception_resnet_v1/Block8_4_Branch_4_Conv2d_0c_3x1/Conv2D_weights", "op": "Const", "attr": {"value": {"tensor": {"dtype": "DT_FLOAT", "tensorShape": {"dim": [{"size": "3"}, {"size": "1"}, {"size": "192"}, {"size": "192"}]}}}, "dtype": {"type": "DT_FLOAT"}}}, {"name": "StatefulPartitionedCall/inception_resnet_v1/Block35_4_Branch_2_Conv2d_0a_1x1/Conv2D_weights", "op": "Const", "attr": {"value": {"tensor": {"dtype": "DT_FLOAT", "tensorShape": {"dim": [{"size": "1"}, {"size": "1"}, {"size": "256"}, {"size": "32"}]}}}, "dtype": {"type": "DT_FLOAT"}}}, {"name": "StatefulPartitionedCall/inception_resnet_v1/Mixed_7a_Branch_1_Conv2d_0a_1x1/Conv2D_bn_offset", "op": "Const", "attr": {"dtype": {"type": "DT_FLOAT"}, "value": {"tensor": {"dtype": "DT_FLOAT", "tensorShape": {"dim": [{"size": "256"}]}}}}}, {"name": "StatefulPartitionedCall/inception_resnet_v1/Block35_4_Branch_2_Conv2d_0a_1x1/Conv2D_bn_offset", "op": "Const", "attr": {"value": {"tensor": {"dtype": "DT_FLOAT", "tensorShape": {"dim": [{"size": "32"}]}}}, "dtype": {"type": "DT_FLOAT"}}}, {"name": "StatefulPartitionedCall/inception_resnet_v1/Block35_4_Branch_1_Conv2d_0b_3x3/Conv2D_weights", "op": "Const", "attr": {"value": {"tensor": {"dtype": "DT_FLOAT", "tensorShape": {"dim": [{"size": "3"}, {"size": "3"}, {"size": "32"}, {"size": "32"}]}}}, "dtype": {"type": "DT_FLOAT"}}}, {"name": "StatefulPartitionedCall/inception_resnet_v1/Block35_4_Branch_1_Conv2d_0b_3x3/Conv2D_bn_offset", "op": "Const", "attr": {"dtype": {"type": "DT_FLOAT"}, "value": {"tensor": {"dtype": "DT_FLOAT", "tensorShape": {"dim": [{"size": "32"}]}}}}}, {"name": "StatefulPartitionedCall/inception_resnet_v1/Mixed_7a_Branch_2_Conv2d_0a_1x1/Conv2D_weights", "op": "Const", "attr": {"value": {"tensor": {"dtype": "DT_FLOAT", "tensorShape": {"dim": [{"size": "1"}, {"size": "1"}, {"size": "896"}, {"size": "256"}]}}}, "dtype": {"type": "DT_FLOAT"}}}, {"name": "StatefulPartitionedCall/inception_resnet_v1/Block35_4_Branch_2_Conv2d_0b_3x3/Conv2D_weights", "op": "Const", "attr": {"value": {"tensor": {"dtype": "DT_FLOAT", "tensorShape": {"dim": [{"size": "3"}, {"size": "3"}, {"size": "32"}, {"size": "32"}]}}}, "dtype": {"type": "DT_FLOAT"}}}, {"name": "StatefulPartitionedCall/inception_resnet_v1/Block8_4_Branch_4_Conv2d_0c_3x1/Conv2D_bn_offset", "op": "Const", "attr": {"value": {"tensor": {"dtype": "DT_FLOAT", "tensorShape": {"dim": [{"size": "192"}]}}}, "dtype": {"type": "DT_FLOAT"}}}, {"name": "StatefulPartitionedCall/inception_resnet_v1/Block35_4_Branch_2_Conv2d_0b_3x3/Conv2D_bn_offset", "op": "Const", "attr": {"value": {"tensor": {"dtype": "DT_FLOAT", "tensorShape": {"dim": [{"size": "32"}]}}}, "dtype": {"type": "DT_FLOAT"}}}, {"name": "StatefulPartitionedCall/inception_resnet_v1/Mixed_7a_Branch_2_Conv2d_0a_1x1/Conv2D_bn_offset", "op": "Const", "attr": {"value": {"tensor": {"dtype": "DT_FLOAT", "tensorShape": {"dim": [{"size": "256"}]}}}, "dtype": {"type": "DT_FLOAT"}}}, {"name": "StatefulPartitionedCall/inception_resnet_v1/Block35_4_Branch_2_Conv2d_0c_3x3/Conv2D_weights", "op": "Const", "attr": {"value": {"tensor": {"dtype": "DT_FLOAT", "tensorShape": {"dim": [{"size": "3"}, {"size": "3"}, {"size": "32"}, {"size": "32"}]}}}, "dtype": {"type": "DT_FLOAT"}}}, {"name": "StatefulPartitionedCall/inception_resnet_v1/Block35_4_Branch_2_Conv2d_0c_3x3/Conv2D_bn_offset", "op": "Const", "attr": {"value": {"tensor": {"dtype": "DT_FLOAT", "tensorShape": {"dim": [{"size": "32"}]}}}, "dtype": {"type": "DT_FLOAT"}}}, {"name": "StatefulPartitionedCall/inception_resnet_v1/Mixed_7a_Branch_0_Conv2d_1a_3x3/Conv2D_weights", "op": "Const", "attr": {"dtype": {"type": "DT_FLOAT"}, "value": {"tensor": {"dtype": "DT_FLOAT", "tensorShape": {"dim": [{"size": "3"}, {"size": "3"}, {"size": "256"}, {"size": "384"}]}}}}}, {"name": "StatefulPartitionedCall/inception_resnet_v1/Block35_5_Branch_0_Conv2d_1x1/Conv2D_weights", "op": "Const", "attr": {"dtype": {"type": "DT_FLOAT"}, "value": {"tensor": {"dtype": "DT_FLOAT", "tensorShape": {"dim": [{"size": "1"}, {"size": "1"}, {"size": "256"}, {"size": "32"}]}}}}}, {"name": "StatefulPartitionedCall/inception_resnet_v1/Block35_5_Branch_0_Conv2d_1x1/Conv2D_bn_offset", "op": "Const", "attr": {"dtype": {"type": "DT_FLOAT"}, "value": {"tensor": {"dtype": "DT_FLOAT", "tensorShape": {"dim": [{"size": "32"}]}}}}}, {"name": "StatefulPartitionedCall/inception_resnet_v1/Mixed_7a_Branch_0_Conv2d_1a_3x3/Conv2D_bn_offset", "op": "Const", "attr": {"value": {"tensor": {"dtype": "DT_FLOAT", "tensorShape": {"dim": [{"size": "384"}]}}}, "dtype": {"type": "DT_FLOAT"}}}, {"name": "StatefulPartitionedCall/inception_resnet_v1/Block35_5_Branch_1_Conv2d_0a_1x1/Conv2D_weights", "op": "Const", "attr": {"value": {"tensor": {"dtype": "DT_FLOAT", "tensorShape": {"dim": [{"size": "1"}, {"size": "1"}, {"size": "256"}, {"size": "32"}]}}}, "dtype": {"type": "DT_FLOAT"}}}, {"name": "StatefulPartitionedCall/inception_resnet_v1/Block35_5_Branch_1_Conv2d_0a_1x1/Conv2D_bn_offset", "op": "Const", "attr": {"value": {"tensor": {"dtype": "DT_FLOAT", "tensorShape": {"dim": [{"size": "32"}]}}}, "dtype": {"type": "DT_FLOAT"}}}, {"name": "StatefulPartitionedCall/inception_resnet_v1/Block35_5_Branch_2_Conv2d_0a_1x1/Conv2D_weights", "op": "Const", "attr": {"dtype": {"type": "DT_FLOAT"}, "value": {"tensor": {"dtype": "DT_FLOAT", "tensorShape": {"dim": [{"size": "1"}, {"size": "1"}, {"size": "256"}, {"size": "32"}]}}}}}, {"name": "StatefulPartitionedCall/inception_resnet_v1/Mixed_7a_Branch_1_Conv2d_1a_3x3/Conv2D_weights", "op": "Const", "attr": {"dtype": {"type": "DT_FLOAT"}, "value": {"tensor": {"dtype": "DT_FLOAT", "tensorShape": {"dim": [{"size": "3"}, {"size": "3"}, {"size": "256"}, {"size": "256"}]}}}}}, {"name": "StatefulPartitionedCall/inception_resnet_v1/Block35_5_Branch_2_Conv2d_0a_1x1/Conv2D_bn_offset", "op": "Const", "attr": {"value": {"tensor": {"dtype": "DT_FLOAT", "tensorShape": {"dim": [{"size": "32"}]}}}, "dtype": {"type": "DT_FLOAT"}}}, {"name": "StatefulPartitionedCall/inception_resnet_v1/Block8_6_Branch_1_Conv2d_0b_1x3/Conv2D_weights", "op": "Const", "attr": {"value": {"tensor": {"dtype": "DT_FLOAT", "tensorShape": {"dim": [{"size": "1"}, {"size": "3"}, {"size": "192"}, {"size": "192"}]}}}, "dtype": {"type": "DT_FLOAT"}}}, {"name": "StatefulPartitionedCall/inception_resnet_v1/Block35_5_Branch_1_Conv2d_0b_3x3/Conv2D_weights", "op": "Const", "attr": {"value": {"tensor": {"dtype": "DT_FLOAT", "tensorShape": {"dim": [{"size": "3"}, {"size": "3"}, {"size": "32"}, {"size": "32"}]}}}, "dtype": {"type": "DT_FLOAT"}}}, {"name": "StatefulPartitionedCall/inception_resnet_v1/Mixed_7a_Branch_1_Conv2d_1a_3x3/Conv2D_bn_offset", "op": "Const", "attr": {"value": {"tensor": {"dtype": "DT_FLOAT", "tensorShape": {"dim": [{"size": "256"}]}}}, "dtype": {"type": "DT_FLOAT"}}}, {"name": "StatefulPartitionedCall/inception_resnet_v1/Block35_5_Branch_1_Conv2d_0b_3x3/Conv2D_bn_offset", "op": "Const", "attr": {"value": {"tensor": {"dtype": "DT_FLOAT", "tensorShape": {"dim": [{"size": "32"}]}}}, "dtype": {"type": "DT_FLOAT"}}}, {"name": "StatefulPartitionedCall/inception_resnet_v1/Block35_5_Branch_2_Conv2d_0b_3x3/Conv2D_weights", "op": "Const", "attr": {"dtype": {"type": "DT_FLOAT"}, "value": {"tensor": {"dtype": "DT_FLOAT", "tensorShape": {"dim": [{"size": "3"}, {"size": "3"}, {"size": "32"}, {"size": "32"}]}}}}}, {"name": "StatefulPartitionedCall/inception_resnet_v1/Block35_5_Branch_2_Conv2d_0b_3x3/Conv2D_bn_offset", "op": "Const", "attr": {"value": {"tensor": {"dtype": "DT_FLOAT", "tensorShape": {"dim": [{"size": "32"}]}}}, "dtype": {"type": "DT_FLOAT"}}}, {"name": "StatefulPartitionedCall/inception_resnet_v1/Mixed_7a_Branch_2_Conv2d_0b_3x3/Conv2D_weights", "op": "Const", "attr": {"value": {"tensor": {"dtype": "DT_FLOAT", "tensorShape": {"dim": [{"size": "3"}, {"size": "3"}, {"size": "256"}, {"size": "256"}]}}}, "dtype": {"type": "DT_FLOAT"}}}, {"name": "StatefulPartitionedCall/inception_resnet_v1/Block35_5_Branch_2_Conv2d_0c_3x3/Conv2D_weights", "op": "Const", "attr": {"dtype": {"type": "DT_FLOAT"}, "value": {"tensor": {"dtype": "DT_FLOAT", "tensorShape": {"dim": [{"size": "3"}, {"size": "3"}, {"size": "32"}, {"size": "32"}]}}}}}, {"name": "StatefulPartitionedCall/inception_resnet_v1/Block35_5_Branch_2_Conv2d_0c_3x3/Conv2D_bn_offset", "op": "Const", "attr": {"dtype": {"type": "DT_FLOAT"}, "value": {"tensor": {"dtype": "DT_FLOAT", "tensorShape": {"dim": [{"size": "32"}]}}}}}, {"name": "StatefulPartitionedCall/inception_resnet_v1/Mixed_7a_Branch_2_Conv2d_0b_3x3/Conv2D_bn_offset", "op": "Const", "attr": {"value": {"tensor": {"dtype": "DT_FLOAT", "tensorShape": {"dim": [{"size": "256"}]}}}, "dtype": {"type": "DT_FLOAT"}}}, {"name": "StatefulPartitionedCall/inception_resnet_v1/Mixed_6a_Branch_0_Conv2d_1a_3x3/Conv2D_weights", "op": "Const", "attr": {"dtype": {"type": "DT_FLOAT"}, "value": {"tensor": {"dtype": "DT_FLOAT", "tensorShape": {"dim": [{"size": "3"}, {"size": "3"}, {"size": "256"}, {"size": "384"}]}}}}}, {"name": "StatefulPartitionedCall/inception_resnet_v1/Mixed_6a_Branch_0_Conv2d_1a_3x3/Conv2D_bn_offset", "op": "Const", "attr": {"value": {"tensor": {"dtype": "DT_FLOAT", "tensorShape": {"dim": [{"size": "384"}]}}}, "dtype": {"type": "DT_FLOAT"}}}, {"name": "StatefulPartitionedCall/inception_resnet_v1/Mixed_7a_Branch_2_Conv2d_1a_3x3/Conv2D_weights", "op": "Const", "attr": {"value": {"tensor": {"dtype": "DT_FLOAT", "tensorShape": {"dim": [{"size": "3"}, {"size": "3"}, {"size": "256"}, {"size": "256"}]}}}, "dtype": {"type": "DT_FLOAT"}}}, {"name": "StatefulPartitionedCall/inception_resnet_v1/Mixed_6a_Branch_1_Conv2d_0a_1x1/Conv2D_weights", "op": "Const", "attr": {"dtype": {"type": "DT_FLOAT"}, "value": {"tensor": {"dtype": "DT_FLOAT", "tensorShape": {"dim": [{"size": "1"}, {"size": "1"}, {"size": "256"}, {"size": "192"}]}}}}}, {"name": "StatefulPartitionedCall/inception_resnet_v1/Mixed_6a_Branch_1_Conv2d_0a_1x1/Conv2D_bn_offset", "op": "Const", "attr": {"value": {"tensor": {"dtype": "DT_FLOAT", "tensorShape": {"dim": [{"size": "192"}]}}}, "dtype": {"type": "DT_FLOAT"}}}, {"name": "StatefulPartitionedCall/inception_resnet_v1/Mixed_7a_Branch_2_Conv2d_1a_3x3/Conv2D_bn_offset", "op": "Const", "attr": {"value": {"tensor": {"dtype": "DT_FLOAT", "tensorShape": {"dim": [{"size": "256"}]}}}, "dtype": {"type": "DT_FLOAT"}}}, {"name": "StatefulPartitionedCall/inception_resnet_v1/Mixed_6a_Branch_1_Conv2d_0b_3x3/Conv2D_weights", "op": "Const", "attr": {"value": {"tensor": {"dtype": "DT_FLOAT", "tensorShape": {"dim": [{"size": "3"}, {"size": "3"}, {"size": "192"}, {"size": "192"}]}}}, "dtype": {"type": "DT_FLOAT"}}}, {"name": "StatefulPartitionedCall/inception_resnet_v1/Block8_5_Branch_0_Conv2d_1x1/Conv2D_weights", "op": "Const", "attr": {"dtype": {"type": "DT_FLOAT"}, "value": {"tensor": {"dtype": "DT_FLOAT", "tensorShape": {"dim": [{"size": "1"}, {"size": "1"}, {"size": "1792"}, {"size": "192"}]}}}}}, {"name": "StatefulPartitionedCall/inception_resnet_v1/Mixed_6a_Branch_1_Conv2d_0b_3x3/Conv2D_bn_offset", "op": "Const", "attr": {"value": {"tensor": {"dtype": "DT_FLOAT", "tensorShape": {"dim": [{"size": "192"}]}}}, "dtype": {"type": "DT_FLOAT"}}}, {"name": "StatefulPartitionedCall/inception_resnet_v1/Mixed_6a_Branch_1_Conv2d_1a_3x3/Conv2D_weights", "op": "Const", "attr": {"dtype": {"type": "DT_FLOAT"}, "value": {"tensor": {"dtype": "DT_FLOAT", "tensorShape": {"dim": [{"size": "3"}, {"size": "3"}, {"size": "192"}, {"size": "256"}]}}}}}, {"name": "StatefulPartitionedCall/inception_resnet_v1/Mixed_6a_Branch_1_Conv2d_1a_3x3/Conv2D_bn_offset", "op": "Const", "attr": {"value": {"tensor": {"dtype": "DT_FLOAT", "tensorShape": {"dim": [{"size": "256"}]}}}, "dtype": {"type": "DT_FLOAT"}}}, {"name": "StatefulPartitionedCall/inception_resnet_v1/Block8_1_Branch_0_Conv2d_1x1/Conv2D_weights", "op": "Const", "attr": {"dtype": {"type": "DT_FLOAT"}, "value": {"tensor": {"dtype": "DT_FLOAT", "tensorShape": {"dim": [{"size": "1"}, {"size": "1"}, {"size": "1792"}, {"size": "192"}]}}}}}, {"name": "StatefulPartitionedCall/inception_resnet_v1/Block17_1_Branch_0_Conv2d_1x1/Conv2D_weights", "op": "Const", "attr": {"dtype": {"type": "DT_FLOAT"}, "value": {"tensor": {"dtype": "DT_FLOAT", "tensorShape": {"dim": [{"size": "1"}, {"size": "1"}, {"size": "896"}, {"size": "128"}]}}}}}, {"name": "StatefulPartitionedCall/inception_resnet_v1/Block17_1_Branch_0_Conv2d_1x1/Conv2D_bn_offset", "op": "Const", "attr": {"dtype": {"type": "DT_FLOAT"}, "value": {"tensor": {"dtype": "DT_FLOAT", "tensorShape": {"dim": [{"size": "128"}]}}}}}, {"name": "StatefulPartitionedCall/inception_resnet_v1/Block8_1_Branch_0_Conv2d_1x1/Conv2D_bn_offset", "op": "Const", "attr": {"dtype": {"type": "DT_FLOAT"}, "value": {"tensor": {"dtype": "DT_FLOAT", "tensorShape": {"dim": [{"size": "192"}]}}}}}, {"name": "StatefulPartitionedCall/inception_resnet_v1/Block17_1_Branch_1_Conv2d_0a_1x1/Conv2D_weights", "op": "Const", "attr": {"value": {"tensor": {"dtype": "DT_FLOAT", "tensorShape": {"dim": [{"size": "1"}, {"size": "1"}, {"size": "896"}, {"size": "128"}]}}}, "dtype": {"type": "DT_FLOAT"}}}, {"name": "StatefulPartitionedCall/inception_resnet_v1/Block8_5_Branch_0_Conv2d_1x1/Conv2D_bn_offset", "op": "Const", "attr": {"value": {"tensor": {"dtype": "DT_FLOAT", "tensorShape": {"dim": [{"size": "192"}]}}}, "dtype": {"type": "DT_FLOAT"}}}, {"name": "StatefulPartitionedCall/inception_resnet_v1/Block17_1_Branch_1_Conv2d_0a_1x1/Conv2D_bn_offset", "op": "Const", "attr": {"value": {"tensor": {"dtype": "DT_FLOAT", "tensorShape": {"dim": [{"size": "128"}]}}}, "dtype": {"type": "DT_FLOAT"}}}, {"name": "StatefulPartitionedCall/inception_resnet_v1/Block17_1_Branch_1_Conv2d_0b_1x7/Conv2D_weights", "op": "Const", "attr": {"dtype": {"type": "DT_FLOAT"}, "value": {"tensor": {"dtype": "DT_FLOAT", "tensorShape": {"dim": [{"size": "1"}, {"size": "7"}, {"size": "128"}, {"size": "128"}]}}}}}, {"name": "StatefulPartitionedCall/inception_resnet_v1/Block8_1_Branch_1_Conv2d_0a_1x1/Conv2D_weights", "op": "Const", "attr": {"dtype": {"type": "DT_FLOAT"}, "value": {"tensor": {"dtype": "DT_FLOAT", "tensorShape": {"dim": [{"size": "1"}, {"size": "1"}, {"size": "1792"}, {"size": "192"}]}}}}}, {"name": "StatefulPartitionedCall/inception_resnet_v1/Block17_1_Branch_1_Conv2d_0b_1x7/Conv2D_bn_offset", "op": "Const", "attr": {"dtype": {"type": "DT_FLOAT"}, "value": {"tensor": {"dtype": "DT_FLOAT", "tensorShape": {"dim": [{"size": "128"}]}}}}}, {"name": "StatefulPartitionedCall/inception_resnet_v1/Block8_6_Branch_1_Conv2d_0b_1x3/Conv2D_bn_offset", "op": "Const", "attr": {"value": {"tensor": {"dtype": "DT_FLOAT", "tensorShape": {"dim": [{"size": "192"}]}}}, "dtype": {"type": "DT_FLOAT"}}}, {"name": "StatefulPartitionedCall/inception_resnet_v1/Block17_1_Branch_1_Conv2d_0c_7x1/Conv2D_weights", "op": "Const", "attr": {"dtype": {"type": "DT_FLOAT"}, "value": {"tensor": {"dtype": "DT_FLOAT", "tensorShape": {"dim": [{"size": "7"}, {"size": "1"}, {"size": "128"}, {"size": "128"}]}}}}}, {"name": "StatefulPartitionedCall/inception_resnet_v1/Block8_1_Branch_1_Conv2d_0a_1x1/Conv2D_bn_offset", "op": "Const", "attr": {"value": {"tensor": {"dtype": "DT_FLOAT", "tensorShape": {"dim": [{"size": "192"}]}}}, "dtype": {"type": "DT_FLOAT"}}}, {"name": "StatefulPartitionedCall/inception_resnet_v1/Block17_1_Branch_1_Conv2d_0c_7x1/Conv2D_bn_offset", "op": "Const", "attr": {"dtype": {"type": "DT_FLOAT"}, "value": {"tensor": {"dtype": "DT_FLOAT", "tensorShape": {"dim": [{"size": "128"}]}}}}}, {"name": "StatefulPartitionedCall/inception_resnet_v1/Block17_2_Branch_0_Conv2d_1x1/Conv2D_weights", "op": "Const", "attr": {"value": {"tensor": {"dtype": "DT_FLOAT", "tensorShape": {"dim": [{"size": "1"}, {"size": "1"}, {"size": "896"}, {"size": "128"}]}}}, "dtype": {"type": "DT_FLOAT"}}}, {"name": "StatefulPartitionedCall/inception_resnet_v1/Block8_1_Branch_1_Conv2d_0b_1x3/Conv2D_weights", "op": "Const", "attr": {"value": {"tensor": {"dtype": "DT_FLOAT", "tensorShape": {"dim": [{"size": "1"}, {"size": "3"}, {"size": "192"}, {"size": "192"}]}}}, "dtype": {"type": "DT_FLOAT"}}}, {"name": "StatefulPartitionedCall/inception_resnet_v1/Block17_2_Branch_0_Conv2d_1x1/Conv2D_bn_offset", "op": "Const", "attr": {"dtype": {"type": "DT_FLOAT"}, "value": {"tensor": {"dtype": "DT_FLOAT", "tensorShape": {"dim": [{"size": "128"}]}}}}}, {"name": "StatefulPartitionedCall/inception_resnet_v1/Block8_5_Branch_5_Conv2d_0a_1x1/Conv2D_weights", "op": "Const", "attr": {"dtype": {"type": "DT_FLOAT"}, "value": {"tensor": {"dtype": "DT_FLOAT", "tensorShape": {"dim": [{"size": "1"}, {"size": "1"}, {"size": "1792"}, {"size": "192"}]}}}}}, {"name": "StatefulPartitionedCall/inception_resnet_v1/Block17_2_Branch_2_Conv2d_0a_1x1/Conv2D_weights", "op": "Const", "attr": {"dtype": {"type": "DT_FLOAT"}, "value": {"tensor": {"dtype": "DT_FLOAT", "tensorShape": {"dim": [{"size": "1"}, {"size": "1"}, {"size": "896"}, {"size": "128"}]}}}}}, {"name": "StatefulPartitionedCall/inception_resnet_v1/Block8_1_Branch_1_Conv2d_0b_1x3/Conv2D_bn_offset", "op": "Const", "attr": {"value": {"tensor": {"dtype": "DT_FLOAT", "tensorShape": {"dim": [{"size": "192"}]}}}, "dtype": {"type": "DT_FLOAT"}}}, {"name": "StatefulPartitionedCall/inception_resnet_v1/Block17_2_Branch_2_Conv2d_0a_1x1/Conv2D_bn_offset", "op": "Const", "attr": {"value": {"tensor": {"dtype": "DT_FLOAT", "tensorShape": {"dim": [{"size": "128"}]}}}, "dtype": {"type": "DT_FLOAT"}}}, {"name": "StatefulPartitionedCall/inception_resnet_v1/Block17_2_Branch_2_Conv2d_0b_1x7/Conv2D_weights", "op": "Const", "attr": {"dtype": {"type": "DT_FLOAT"}, "value": {"tensor": {"dtype": "DT_FLOAT", "tensorShape": {"dim": [{"size": "1"}, {"size": "7"}, {"size": "128"}, {"size": "128"}]}}}}}, {"name": "StatefulPartitionedCall/inception_resnet_v1/Block17_2_Branch_2_Conv2d_0b_1x7/Conv2D_bn_offset", "op": "Const", "attr": {"dtype": {"type": "DT_FLOAT"}, "value": {"tensor": {"dtype": "DT_FLOAT", "tensorShape": {"dim": [{"size": "128"}]}}}}}, {"name": "StatefulPartitionedCall/inception_resnet_v1/Block8_1_Branch_1_Conv2d_0c_3x1/Conv2D_weights", "op": "Const", "attr": {"dtype": {"type": "DT_FLOAT"}, "value": {"tensor": {"dtype": "DT_FLOAT", "tensorShape": {"dim": [{"size": "3"}, {"size": "1"}, {"size": "192"}, {"size": "192"}]}}}}}, {"name": "StatefulPartitionedCall/inception_resnet_v1/Block17_2_Branch_2_Conv2d_0c_7x1/Conv2D_weights", "op": "Const", "attr": {"dtype": {"type": "DT_FLOAT"}, "value": {"tensor": {"dtype": "DT_FLOAT", "tensorShape": {"dim": [{"size": "7"}, {"size": "1"}, {"size": "128"}, {"size": "128"}]}}}}}, {"name": "StatefulPartitionedCall/inception_resnet_v1/Block8_5_Branch_5_Conv2d_0a_1x1/Conv2D_bn_offset", "op": "Const", "attr": {"dtype": {"type": "DT_FLOAT"}, "value": {"tensor": {"dtype": "DT_FLOAT", "tensorShape": {"dim": [{"size": "192"}]}}}}}, {"name": "StatefulPartitionedCall/inception_resnet_v1/Block17_2_Branch_2_Conv2d_0c_7x1/Conv2D_bn_offset", "op": "Const", "attr": {"dtype": {"type": "DT_FLOAT"}, "value": {"tensor": {"dtype": "DT_FLOAT", "tensorShape": {"dim": [{"size": "128"}]}}}}}, {"name": "StatefulPartitionedCall/inception_resnet_v1/Block8_1_Branch_1_Conv2d_0c_3x1/Conv2D_bn_offset", "op": "Const", "attr": {"value": {"tensor": {"dtype": "DT_FLOAT", "tensorShape": {"dim": [{"size": "192"}]}}}, "dtype": {"type": "DT_FLOAT"}}}, {"name": "StatefulPartitionedCall/inception_resnet_v1/Block17_3_Branch_0_Conv2d_1x1/Conv2D_weights", "op": "Const", "attr": {"value": {"tensor": {"dtype": "DT_FLOAT", "tensorShape": {"dim": [{"size": "1"}, {"size": "1"}, {"size": "896"}, {"size": "128"}]}}}, "dtype": {"type": "DT_FLOAT"}}}, {"name": "StatefulPartitionedCall/inception_resnet_v1/Block17_3_Branch_0_Conv2d_1x1/Conv2D_bn_offset", "op": "Const", "attr": {"dtype": {"type": "DT_FLOAT"}, "value": {"tensor": {"dtype": "DT_FLOAT", "tensorShape": {"dim": [{"size": "128"}]}}}}}, {"name": "StatefulPartitionedCall/inception_resnet_v1/Block17_3_Branch_3_Conv2d_0a_1x1/Conv2D_weights", "op": "Const", "attr": {"dtype": {"type": "DT_FLOAT"}, "value": {"tensor": {"dtype": "DT_FLOAT", "tensorShape": {"dim": [{"size": "1"}, {"size": "1"}, {"size": "896"}, {"size": "128"}]}}}}}, {"name": "StatefulPartitionedCall/inception_resnet_v1/Block17_3_Branch_3_Conv2d_0a_1x1/Conv2D_bn_offset", "op": "Const", "attr": {"dtype": {"type": "DT_FLOAT"}, "value": {"tensor": {"dtype": "DT_FLOAT", "tensorShape": {"dim": [{"size": "128"}]}}}}}, {"name": "StatefulPartitionedCall/inception_resnet_v1/Block17_3_Branch_3_Conv2d_0b_1x7/Conv2D_weights", "op": "Const", "attr": {"dtype": {"type": "DT_FLOAT"}, "value": {"tensor": {"dtype": "DT_FLOAT", "tensorShape": {"dim": [{"size": "1"}, {"size": "7"}, {"size": "128"}, {"size": "128"}]}}}}}, {"name": "StatefulPartitionedCall/inception_resnet_v1/Block17_3_Branch_3_Conv2d_0b_1x7/Conv2D_bn_offset", "op": "Const", "attr": {"value": {"tensor": {"dtype": "DT_FLOAT", "tensorShape": {"dim": [{"size": "128"}]}}}, "dtype": {"type": "DT_FLOAT"}}}, {"name": "StatefulPartitionedCall/inception_resnet_v1/Block17_3_Branch_3_Conv2d_0c_7x1/Conv2D_weights", "op": "Const", "attr": {"dtype": {"type": "DT_FLOAT"}, "value": {"tensor": {"dtype": "DT_FLOAT", "tensorShape": {"dim": [{"size": "7"}, {"size": "1"}, {"size": "128"}, {"size": "128"}]}}}}}, {"name": "StatefulPartitionedCall/inception_resnet_v1/Block17_3_Branch_3_Conv2d_0c_7x1/Conv2D_bn_offset", "op": "Const", "attr": {"value": {"tensor": {"dtype": "DT_FLOAT", "tensorShape": {"dim": [{"size": "128"}]}}}, "dtype": {"type": "DT_FLOAT"}}}, {"name": "StatefulPartitionedCall/inception_resnet_v1/Block8_2_Branch_0_Conv2d_1x1/Conv2D_weights", "op": "Const", "attr": {"dtype": {"type": "DT_FLOAT"}, "value": {"tensor": {"dtype": "DT_FLOAT", "tensorShape": {"dim": [{"size": "1"}, {"size": "1"}, {"size": "1792"}, {"size": "192"}]}}}}}, {"name": "StatefulPartitionedCall/inception_resnet_v1/Block8_5_Branch_5_Conv2d_0b_1x3/Conv2D_weights", "op": "Const", "attr": {"value": {"tensor": {"dtype": "DT_FLOAT", "tensorShape": {"dim": [{"size": "1"}, {"size": "3"}, {"size": "192"}, {"size": "192"}]}}}, "dtype": {"type": "DT_FLOAT"}}}, {"name": "StatefulPartitionedCall/inception_resnet_v1/Block17_4_Branch_0_Conv2d_1x1/Conv2D_weights", "op": "Const", "attr": {"dtype": {"type": "DT_FLOAT"}, "value": {"tensor": {"dtype": "DT_FLOAT", "tensorShape": {"dim": [{"size": "1"}, {"size": "1"}, {"size": "896"}, {"size": "128"}]}}}}}, {"name": "StatefulPartitionedCall/inception_resnet_v1/Block8_2_Branch_0_Conv2d_1x1/Conv2D_bn_offset", "op": "Const", "attr": {"value": {"tensor": {"dtype": "DT_FLOAT", "tensorShape": {"dim": [{"size": "192"}]}}}, "dtype": {"type": "DT_FLOAT"}}}, {"name": "StatefulPartitionedCall/inception_resnet_v1/Block17_4_Branch_0_Conv2d_1x1/Conv2D_bn_offset", "op": "Const", "attr": {"dtype": {"type": "DT_FLOAT"}, "value": {"tensor": {"dtype": "DT_FLOAT", "tensorShape": {"dim": [{"size": "128"}]}}}}}, {"name": "StatefulPartitionedCall/inception_resnet_v1/Block8_6_Branch_1_Conv2d_0c_3x1/Conv2D_weights", "op": "Const", "attr": {"value": {"tensor": {"dtype": "DT_FLOAT", "tensorShape": {"dim": [{"size": "3"}, {"size": "1"}, {"size": "192"}, {"size": "192"}]}}}, "dtype": {"type": "DT_FLOAT"}}}, {"name": "StatefulPartitionedCall/inception_resnet_v1/Block17_4_Branch_4_Conv2d_0a_1x1/Conv2D_weights", "op": "Const", "attr": {"dtype": {"type": "DT_FLOAT"}, "value": {"tensor": {"dtype": "DT_FLOAT", "tensorShape": {"dim": [{"size": "1"}, {"size": "1"}, {"size": "896"}, {"size": "128"}]}}}}}, {"name": "StatefulPartitionedCall/inception_resnet_v1/Block17_4_Branch_4_Conv2d_0a_1x1/Conv2D_bn_offset", "op": "Const", "attr": {"dtype": {"type": "DT_FLOAT"}, "value": {"tensor": {"dtype": "DT_FLOAT", "tensorShape": {"dim": [{"size": "128"}]}}}}}, {"name": "StatefulPartitionedCall/inception_resnet_v1/Block8_2_Branch_2_Conv2d_0a_1x1/Conv2D_weights", "op": "Const", "attr": {"value": {"tensor": {"dtype": "DT_FLOAT", "tensorShape": {"dim": [{"size": "1"}, {"size": "1"}, {"size": "1792"}, {"size": "192"}]}}}, "dtype": {"type": "DT_FLOAT"}}}, {"name": "StatefulPartitionedCall/inception_resnet_v1/Block17_4_Branch_4_Conv2d_0b_1x7/Conv2D_weights", "op": "Const", "attr": {"dtype": {"type": "DT_FLOAT"}, "value": {"tensor": {"dtype": "DT_FLOAT", "tensorShape": {"dim": [{"size": "1"}, {"size": "7"}, {"size": "128"}, {"size": "128"}]}}}}}, {"name": "StatefulPartitionedCall/inception_resnet_v1/Block8_5_Branch_5_Conv2d_0b_1x3/Conv2D_bn_offset", "op": "Const", "attr": {"value": {"tensor": {"dtype": "DT_FLOAT", "tensorShape": {"dim": [{"size": "192"}]}}}, "dtype": {"type": "DT_FLOAT"}}}, {"name": "StatefulPartitionedCall/inception_resnet_v1/Block17_4_Branch_4_Conv2d_0b_1x7/Conv2D_bn_offset", "op": "Const", "attr": {"value": {"tensor": {"dtype": "DT_FLOAT", "tensorShape": {"dim": [{"size": "128"}]}}}, "dtype": {"type": "DT_FLOAT"}}}, {"name": "StatefulPartitionedCall/inception_resnet_v1/Block8_2_Branch_2_Conv2d_0a_1x1/Conv2D_bn_offset", "op": "Const", "attr": {"dtype": {"type": "DT_FLOAT"}, "value": {"tensor": {"dtype": "DT_FLOAT", "tensorShape": {"dim": [{"size": "192"}]}}}}}, {"name": "StatefulPartitionedCall/inception_resnet_v1/Block17_4_Branch_4_Conv2d_0c_7x1/Conv2D_weights", "op": "Const", "attr": {"dtype": {"type": "DT_FLOAT"}, "value": {"tensor": {"dtype": "DT_FLOAT", "tensorShape": {"dim": [{"size": "7"}, {"size": "1"}, {"size": "128"}, {"size": "128"}]}}}}}, {"name": "StatefulPartitionedCall/inception_resnet_v1/Block17_4_Branch_4_Conv2d_0c_7x1/Conv2D_bn_offset", "op": "Const", "attr": {"dtype": {"type": "DT_FLOAT"}, "value": {"tensor": {"dtype": "DT_FLOAT", "tensorShape": {"dim": [{"size": "128"}]}}}}}, {"name": "StatefulPartitionedCall/inception_resnet_v1/Block8_2_Branch_2_Conv2d_0b_1x3/Conv2D_weights", "op": "Const", "attr": {"dtype": {"type": "DT_FLOAT"}, "value": {"tensor": {"dtype": "DT_FLOAT", "tensorShape": {"dim": [{"size": "1"}, {"size": "3"}, {"size": "192"}, {"size": "192"}]}}}}}, {"name": "StatefulPartitionedCall/inception_resnet_v1/Block17_5_Branch_0_Conv2d_1x1/Conv2D_weights", "op": "Const", "attr": {"value": {"tensor": {"dtype": "DT_FLOAT", "tensorShape": {"dim": [{"size": "1"}, {"size": "1"}, {"size": "896"}, {"size": "128"}]}}}, "dtype": {"type": "DT_FLOAT"}}}, {"name": "StatefulPartitionedCall/inception_resnet_v1/Block17_5_Branch_0_Conv2d_1x1/Conv2D_bn_offset", "op": "Const", "attr": {"dtype": {"type": "DT_FLOAT"}, "value": {"tensor": {"dtype": "DT_FLOAT", "tensorShape": {"dim": [{"size": "128"}]}}}}}, {"name": "StatefulPartitionedCall/inception_resnet_v1/Block8_2_Branch_2_Conv2d_0b_1x3/Conv2D_bn_offset", "op": "Const", "attr": {"value": {"tensor": {"dtype": "DT_FLOAT", "tensorShape": {"dim": [{"size": "192"}]}}}, "dtype": {"type": "DT_FLOAT"}}}, {"name": "StatefulPartitionedCall/inception_resnet_v1/Block17_5_Branch_5_Conv2d_0a_1x1/Conv2D_weights", "op": "Const", "attr": {"value": {"tensor": {"dtype": "DT_FLOAT", "tensorShape": {"dim": [{"size": "1"}, {"size": "1"}, {"size": "896"}, {"size": "128"}]}}}, "dtype": {"type": "DT_FLOAT"}}}, {"name": "StatefulPartitionedCall/inception_resnet_v1/Block8_5_Branch_5_Conv2d_0c_3x1/Conv2D_weights", "op": "Const", "attr": {"dtype": {"type": "DT_FLOAT"}, "value": {"tensor": {"dtype": "DT_FLOAT", "tensorShape": {"dim": [{"size": "3"}, {"size": "1"}, {"size": "192"}, {"size": "192"}]}}}}}, {"name": "StatefulPartitionedCall/inception_resnet_v1/Block17_5_Branch_5_Conv2d_0a_1x1/Conv2D_bn_offset", "op": "Const", "attr": {"dtype": {"type": "DT_FLOAT"}, "value": {"tensor": {"dtype": "DT_FLOAT", "tensorShape": {"dim": [{"size": "128"}]}}}}}, {"name": "StatefulPartitionedCall/inception_resnet_v1/Block17_5_Branch_5_Conv2d_0b_1x7/Conv2D_weights", "op": "Const", "attr": {"dtype": {"type": "DT_FLOAT"}, "value": {"tensor": {"dtype": "DT_FLOAT", "tensorShape": {"dim": [{"size": "1"}, {"size": "7"}, {"size": "128"}, {"size": "128"}]}}}}}, {"name": "StatefulPartitionedCall/inception_resnet_v1/Block8_2_Branch_2_Conv2d_0c_3x1/Conv2D_weights", "op": "Const", "attr": {"dtype": {"type": "DT_FLOAT"}, "value": {"tensor": {"dtype": "DT_FLOAT", "tensorShape": {"dim": [{"size": "3"}, {"size": "1"}, {"size": "192"}, {"size": "192"}]}}}}}, {"name": "StatefulPartitionedCall/inception_resnet_v1/Block17_5_Branch_5_Conv2d_0b_1x7/Conv2D_bn_offset", "op": "Const", "attr": {"dtype": {"type": "DT_FLOAT"}, "value": {"tensor": {"dtype": "DT_FLOAT", "tensorShape": {"dim": [{"size": "128"}]}}}}}, {"name": "StatefulPartitionedCall/inception_resnet_v1/Block8_6_Branch_1_Conv2d_0c_3x1/Conv2D_bn_offset", "op": "Const", "attr": {"dtype": {"type": "DT_FLOAT"}, "value": {"tensor": {"dtype": "DT_FLOAT", "tensorShape": {"dim": [{"size": "192"}]}}}}}, {"name": "StatefulPartitionedCall/inception_resnet_v1/Block17_5_Branch_5_Conv2d_0c_7x1/Conv2D_weights", "op": "Const", "attr": {"value": {"tensor": {"dtype": "DT_FLOAT", "tensorShape": {"dim": [{"size": "7"}, {"size": "1"}, {"size": "128"}, {"size": "128"}]}}}, "dtype": {"type": "DT_FLOAT"}}}, {"name": "StatefulPartitionedCall/inception_resnet_v1/Block8_2_Branch_2_Conv2d_0c_3x1/Conv2D_bn_offset", "op": "Const", "attr": {"value": {"tensor": {"dtype": "DT_FLOAT", "tensorShape": {"dim": [{"size": "192"}]}}}, "dtype": {"type": "DT_FLOAT"}}}, {"name": "StatefulPartitionedCall/inception_resnet_v1/Block17_5_Branch_5_Conv2d_0c_7x1/Conv2D_bn_offset", "op": "Const", "attr": {"value": {"tensor": {"dtype": "DT_FLOAT", "tensorShape": {"dim": [{"size": "128"}]}}}, "dtype": {"type": "DT_FLOAT"}}}, {"name": "StatefulPartitionedCall/inception_resnet_v1/Block8_5_Branch_5_Conv2d_0c_3x1/Conv2D_bn_offset", "op": "Const", "attr": {"dtype": {"type": "DT_FLOAT"}, "value": {"tensor": {"dtype": "DT_FLOAT", "tensorShape": {"dim": [{"size": "192"}]}}}}}, {"name": "StatefulPartitionedCall/inception_resnet_v1/Block17_6_Branch_0_Conv2d_1x1/Conv2D_weights", "op": "Const", "attr": {"value": {"tensor": {"dtype": "DT_FLOAT", "tensorShape": {"dim": [{"size": "1"}, {"size": "1"}, {"size": "896"}, {"size": "128"}]}}}, "dtype": {"type": "DT_FLOAT"}}}, {"name": "StatefulPartitionedCall/inception_resnet_v1/Block17_6_Branch_0_Conv2d_1x1/Conv2D_bn_offset", "op": "Const", "attr": {"dtype": {"type": "DT_FLOAT"}, "value": {"tensor": {"dtype": "DT_FLOAT", "tensorShape": {"dim": [{"size": "128"}]}}}}}, {"name": "StatefulPartitionedCall/inception_resnet_v1/Block17_6_Branch_6_Conv2d_0a_1x1/Conv2D_weights", "op": "Const", "attr": {"value": {"tensor": {"dtype": "DT_FLOAT", "tensorShape": {"dim": [{"size": "1"}, {"size": "1"}, {"size": "896"}, {"size": "128"}]}}}, "dtype": {"type": "DT_FLOAT"}}}, {"name": "StatefulPartitionedCall/inception_resnet_v1/Block17_6_Branch_6_Conv2d_0a_1x1/Conv2D_bn_offset", "op": "Const", "attr": {"value": {"tensor": {"dtype": "DT_FLOAT", "tensorShape": {"dim": [{"size": "128"}]}}}, "dtype": {"type": "DT_FLOAT"}}}, {"name": "StatefulPartitionedCall/inception_resnet_v1/Block17_6_Branch_6_Conv2d_0b_1x7/Conv2D_weights", "op": "Const", "attr": {"dtype": {"type": "DT_FLOAT"}, "value": {"tensor": {"dtype": "DT_FLOAT", "tensorShape": {"dim": [{"size": "1"}, {"size": "7"}, {"size": "128"}, {"size": "128"}]}}}}}, {"name": "StatefulPartitionedCall/inception_resnet_v1/Block17_6_Branch_6_Conv2d_0b_1x7/Conv2D_bn_offset", "op": "Const", "attr": {"dtype": {"type": "DT_FLOAT"}, "value": {"tensor": {"dtype": "DT_FLOAT", "tensorShape": {"dim": [{"size": "128"}]}}}}}, {"name": "StatefulPartitionedCall/inception_resnet_v1/Block17_6_Branch_6_Conv2d_0c_7x1/Conv2D_weights", "op": "Const", "attr": {"dtype": {"type": "DT_FLOAT"}, "value": {"tensor": {"dtype": "DT_FLOAT", "tensorShape": {"dim": [{"size": "7"}, {"size": "1"}, {"size": "128"}, {"size": "128"}]}}}}}, {"name": "StatefulPartitionedCall/inception_resnet_v1/Block8_3_Branch_0_Conv2d_1x1/Conv2D_weights", "op": "Const", "attr": {"value": {"tensor": {"dtype": "DT_FLOAT", "tensorShape": {"dim": [{"size": "1"}, {"size": "1"}, {"size": "1792"}, {"size": "192"}]}}}, "dtype": {"type": "DT_FLOAT"}}}, {"name": "StatefulPartitionedCall/inception_resnet_v1/Block17_6_Branch_6_Conv2d_0c_7x1/Conv2D_bn_offset", "op": "Const", "attr": {"value": {"tensor": {"dtype": "DT_FLOAT", "tensorShape": {"dim": [{"size": "128"}]}}}, "dtype": {"type": "DT_FLOAT"}}}, {"name": "StatefulPartitionedCall/inception_resnet_v1/Block8_3_Branch_0_Conv2d_1x1/Conv2D_bn_offset", "op": "Const", "attr": {"value": {"tensor": {"dtype": "DT_FLOAT", "tensorShape": {"dim": [{"size": "192"}]}}}, "dtype": {"type": "DT_FLOAT"}}}, {"name": "StatefulPartitionedCall/inception_resnet_v1/Block17_7_Branch_0_Conv2d_1x1/Conv2D_weights", "op": "Const", "attr": {"value": {"tensor": {"dtype": "DT_FLOAT", "tensorShape": {"dim": [{"size": "1"}, {"size": "1"}, {"size": "896"}, {"size": "128"}]}}}, "dtype": {"type": "DT_FLOAT"}}}, {"name": "StatefulPartitionedCall/inception_resnet_v1/Block17_7_Branch_0_Conv2d_1x1/Conv2D_bn_offset", "op": "Const", "attr": {"dtype": {"type": "DT_FLOAT"}, "value": {"tensor": {"dtype": "DT_FLOAT", "tensorShape": {"dim": [{"size": "128"}]}}}}}, {"name": "StatefulPartitionedCall/inception_resnet_v1/Block17_7_Branch_7_Conv2d_0a_1x1/Conv2D_weights", "op": "Const", "attr": {"value": {"tensor": {"dtype": "DT_FLOAT", "tensorShape": {"dim": [{"size": "1"}, {"size": "1"}, {"size": "896"}, {"size": "128"}]}}}, "dtype": {"type": "DT_FLOAT"}}}, {"name": "StatefulPartitionedCall/inception_resnet_v1/Block8_3_Branch_3_Conv2d_0a_1x1/Conv2D_weights", "op": "Const", "attr": {"value": {"tensor": {"dtype": "DT_FLOAT", "tensorShape": {"dim": [{"size": "1"}, {"size": "1"}, {"size": "1792"}, {"size": "192"}]}}}, "dtype": {"type": "DT_FLOAT"}}}, {"name": "StatefulPartitionedCall/inception_resnet_v1/Block17_7_Branch_7_Conv2d_0a_1x1/Conv2D_bn_offset", "op": "Const", "attr": {"dtype": {"type": "DT_FLOAT"}, "value": {"tensor": {"dtype": "DT_FLOAT", "tensorShape": {"dim": [{"size": "128"}]}}}}}, {"name": "StatefulPartitionedCall/inception_resnet_v1/Block17_7_Branch_7_Conv2d_0b_1x7/Conv2D_weights", "op": "Const", "attr": {"dtype": {"type": "DT_FLOAT"}, "value": {"tensor": {"dtype": "DT_FLOAT", "tensorShape": {"dim": [{"size": "1"}, {"size": "7"}, {"size": "128"}, {"size": "128"}]}}}}}, {"name": "StatefulPartitionedCall/inception_resnet_v1/Block8_3_Branch_3_Conv2d_0a_1x1/Conv2D_bn_offset", "op": "Const", "attr": {"dtype": {"type": "DT_FLOAT"}, "value": {"tensor": {"dtype": "DT_FLOAT", "tensorShape": {"dim": [{"size": "192"}]}}}}}, {"name": "StatefulPartitionedCall/inception_resnet_v1/Block17_7_Branch_7_Conv2d_0b_1x7/Conv2D_bn_offset", "op": "Const", "attr": {"dtype": {"type": "DT_FLOAT"}, "value": {"tensor": {"dtype": "DT_FLOAT", "tensorShape": {"dim": [{"size": "128"}]}}}}}, {"name": "StatefulPartitionedCall/inception_resnet_v1/Block17_7_Branch_7_Conv2d_0c_7x1/Conv2D_weights", "op": "Const", "attr": {"value": {"tensor": {"dtype": "DT_FLOAT", "tensorShape": {"dim": [{"size": "7"}, {"size": "1"}, {"size": "128"}, {"size": "128"}]}}}, "dtype": {"type": "DT_FLOAT"}}}, {"name": "StatefulPartitionedCall/inception_resnet_v1/Block17_7_Branch_7_Conv2d_0c_7x1/Conv2D_bn_offset", "op": "Const", "attr": {"value": {"tensor": {"dtype": "DT_FLOAT", "tensorShape": {"dim": [{"size": "128"}]}}}, "dtype": {"type": "DT_FLOAT"}}}, {"name": "StatefulPartitionedCall/inception_resnet_v1/Block8_3_Branch_3_Conv2d_0b_1x3/Conv2D_weights", "op": "Const", "attr": {"value": {"tensor": {"dtype": "DT_FLOAT", "tensorShape": {"dim": [{"size": "1"}, {"size": "3"}, {"size": "192"}, {"size": "192"}]}}}, "dtype": {"type": "DT_FLOAT"}}}, {"name": "StatefulPartitionedCall/inception_resnet_v1/Block17_8_Branch_0_Conv2d_1x1/Conv2D_weights", "op": "Const", "attr": {"value": {"tensor": {"dtype": "DT_FLOAT", "tensorShape": {"dim": [{"size": "1"}, {"size": "1"}, {"size": "896"}, {"size": "128"}]}}}, "dtype": {"type": "DT_FLOAT"}}}, {"name": "StatefulPartitionedCall/inception_resnet_v1/Block8_3_Branch_3_Conv2d_0b_1x3/Conv2D_bn_offset", "op": "Const", "attr": {"dtype": {"type": "DT_FLOAT"}, "value": {"tensor": {"dtype": "DT_FLOAT", "tensorShape": {"dim": [{"size": "192"}]}}}}}, {"name": "StatefulPartitionedCall/inception_resnet_v1/Block17_8_Branch_0_Conv2d_1x1/Conv2D_bn_offset", "op": "Const", "attr": {"value": {"tensor": {"dtype": "DT_FLOAT", "tensorShape": {"dim": [{"size": "128"}]}}}, "dtype": {"type": "DT_FLOAT"}}}, {"name": "StatefulPartitionedCall/inception_resnet_v1/Block17_8_Branch_8_Conv2d_0a_1x1/Conv2D_weights", "op": "Const", "attr": {"value": {"tensor": {"dtype": "DT_FLOAT", "tensorShape": {"dim": [{"size": "1"}, {"size": "1"}, {"size": "896"}, {"size": "128"}]}}}, "dtype": {"type": "DT_FLOAT"}}}, {"name": "StatefulPartitionedCall/inception_resnet_v1/Block17_8_Branch_8_Conv2d_0a_1x1/Conv2D_bn_offset", "op": "Const", "attr": {"dtype": {"type": "DT_FLOAT"}, "value": {"tensor": {"dtype": "DT_FLOAT", "tensorShape": {"dim": [{"size": "128"}]}}}}}, {"name": "StatefulPartitionedCall/inception_resnet_v1/Block8_3_Branch_3_Conv2d_0c_3x1/Conv2D_weights", "op": "Const", "attr": {"value": {"tensor": {"dtype": "DT_FLOAT", "tensorShape": {"dim": [{"size": "3"}, {"size": "1"}, {"size": "192"}, {"size": "192"}]}}}, "dtype": {"type": "DT_FLOAT"}}}, {"name": "StatefulPartitionedCall/inception_resnet_v1/Block17_8_Branch_8_Conv2d_0b_1x7/Conv2D_weights", "op": "Const", "attr": {"value": {"tensor": {"dtype": "DT_FLOAT", "tensorShape": {"dim": [{"size": "1"}, {"size": "7"}, {"size": "128"}, {"size": "128"}]}}}, "dtype": {"type": "DT_FLOAT"}}}, {"name": "StatefulPartitionedCall/inception_resnet_v1/Block17_8_Branch_8_Conv2d_0b_1x7/Conv2D_bn_offset", "op": "Const", "attr": {"value": {"tensor": {"dtype": "DT_FLOAT", "tensorShape": {"dim": [{"size": "128"}]}}}, "dtype": {"type": "DT_FLOAT"}}}, {"name": "StatefulPartitionedCall/inception_resnet_v1/Block8_3_Branch_3_Conv2d_0c_3x1/Conv2D_bn_offset", "op": "Const", "attr": {"dtype": {"type": "DT_FLOAT"}, "value": {"tensor": {"dtype": "DT_FLOAT", "tensorShape": {"dim": [{"size": "192"}]}}}}}, {"name": "StatefulPartitionedCall/inception_resnet_v1/Block17_8_Branch_8_Conv2d_0c_7x1/Conv2D_weights", "op": "Const", "attr": {"dtype": {"type": "DT_FLOAT"}, "value": {"tensor": {"dtype": "DT_FLOAT", "tensorShape": {"dim": [{"size": "7"}, {"size": "1"}, {"size": "128"}, {"size": "128"}]}}}}}, {"name": "StatefulPartitionedCall/inception_resnet_v1/Block8_6_Branch_0_Conv2d_1x1/Conv2D_weights", "op": "Const", "attr": {"dtype": {"type": "DT_FLOAT"}, "value": {"tensor": {"dtype": "DT_FLOAT", "tensorShape": {"dim": [{"size": "1"}, {"size": "1"}, {"size": "1792"}, {"size": "192"}]}}}}}, {"name": "StatefulPartitionedCall/inception_resnet_v1/Block17_8_Branch_8_Conv2d_0c_7x1/Conv2D_bn_offset", "op": "Const", "attr": {"value": {"tensor": {"dtype": "DT_FLOAT", "tensorShape": {"dim": [{"size": "128"}]}}}, "dtype": {"type": "DT_FLOAT"}}}, {"name": "StatefulPartitionedCall/inception_resnet_v1/Block17_9_Branch_0_Conv2d_1x1/Conv2D_weights", "op": "Const", "attr": {"value": {"tensor": {"dtype": "DT_FLOAT", "tensorShape": {"dim": [{"size": "1"}, {"size": "1"}, {"size": "896"}, {"size": "128"}]}}}, "dtype": {"type": "DT_FLOAT"}}}, {"name": "StatefulPartitionedCall/inception_resnet_v1/Block17_9_Branch_0_Conv2d_1x1/Conv2D_bn_offset", "op": "Const", "attr": {"value": {"tensor": {"dtype": "DT_FLOAT", "tensorShape": {"dim": [{"size": "128"}]}}}, "dtype": {"type": "DT_FLOAT"}}}, {"name": "StatefulPartitionedCall/inception_resnet_v1/Conv2d_1a_3x3_Activation/Relu", "op": "_FusedConv2D", "input": ["input_1", "StatefulPartitionedCall/inception_resnet_v1/Conv2d_1a_3x3/Conv2D_weights", "StatefulPartitionedCall/inception_resnet_v1/Conv2d_1a_3x3/Conv2D_bn_offset"], "device": "/device:CPU:0", "attr": {"data_format": {"s": "TkhXQw=="}, "dilations": {"list": {"i": ["1", "1", "1", "1"]}}, "epsilon": {"f": 0.0}, "num_args": {"i": "1"}, "explicit_paddings": {"list": {}}, "TArgs": {"list": {"type": ["DT_FLOAT"]}}, "fused_ops": {"list": {"s": ["Qmlhc0FkZA==", "UmVsdQ=="]}}, "leakyrelu_alpha": {"f": 0.2}, "use_cudnn_on_gpu": {"b": true}, "T": {"type": "DT_FLOAT"}, "filter_format": {"s": "SFdJTw=="}, "num_host_args": {"i": "0"}, "padding": {"s": "VkFMSUQ="}, "strides": {"list": {"i": ["1", "2", "2", "1"]}}}}, {"name": "StatefulPartitionedCall/inception_resnet_v1/Conv2d_2a_3x3_Activation/Relu", "op": "_FusedConv2D", "input": ["StatefulPartitionedCall/inception_resnet_v1/Conv2d_1a_3x3_Activation/Relu", "StatefulPartitionedCall/inception_resnet_v1/Conv2d_2a_3x3/Conv2D_weights", "StatefulPartitionedCall/inception_resnet_v1/Conv2d_2a_3x3/Conv2D_bn_offset"], "device": "/device:CPU:0", "attr": {"num_args": {"i": "1"}, "filter_format": {"s": "SFdJTw=="}, "leakyrelu_alpha": {"f": 0.2}, "data_format": {"s": "TkhXQw=="}, "fused_ops": {"list": {"s": ["Qmlhc0FkZA==", "UmVsdQ=="]}}, "use_cudnn_on_gpu": {"b": true}, "dilations": {"list": {"i": ["1", "1", "1", "1"]}}, "padding": {"s": "VkFMSUQ="}, "explicit_paddings": {"list": {}}, "strides": {"list": {"i": ["1", "1", "1", "1"]}}, "TArgs": {"list": {"type": ["DT_FLOAT"]}}, "T": {"type": "DT_FLOAT"}, "epsilon": {"f": 0.0}, "num_host_args": {"i": "0"}}}, {"name": "StatefulPartitionedCall/inception_resnet_v1/Conv2d_2b_3x3_Activation/Relu", "op": "_FusedConv2D", "input": ["StatefulPartitionedCall/inception_resnet_v1/Conv2d_2a_3x3_Activation/Relu", "StatefulPartitionedCall/inception_resnet_v1/Conv2d_2b_3x3/Conv2D_weights", "StatefulPartitionedCall/inception_resnet_v1/Conv2d_2b_3x3/Conv2D_bn_offset"], "device": "/device:CPU:0", "attr": {"filter_format": {"s": "SFdJTw=="}, "padding": {"s": "U0FNRQ=="}, "fused_ops": {"list": {"s": ["Qmlhc0FkZA==", "UmVsdQ=="]}}, "data_format": {"s": "TkhXQw=="}, "leakyrelu_alpha": {"f": 0.2}, "TArgs": {"list": {"type": ["DT_FLOAT"]}}, "num_args": {"i": "1"}, "dilations": {"list": {"i": ["1", "1", "1", "1"]}}, "epsilon": {"f": 0.0}, "use_cudnn_on_gpu": {"b": true}, "explicit_paddings": {"list": {}}, "T": {"type": "DT_FLOAT"}, "num_host_args": {"i": "0"}, "strides": {"list": {"i": ["1", "1", "1", "1"]}}}}, {"name": "StatefulPartitionedCall/inception_resnet_v1/MaxPool_3a_3x3/MaxPool", "op": "MaxPool", "input": ["StatefulPartitionedCall/inception_resnet_v1/Conv2d_2b_3x3_Activation/Relu"], "attr": {"data_format": {"s": "TkhXQw=="}, "T": {"type": "DT_FLOAT"}, "ksize": {"list": {"i": ["1", "3", "3", "1"]}}, "explicit_paddings": {"list": {}}, "strides": {"list": {"i": ["1", "2", "2", "1"]}}, "padding": {"s": "VkFMSUQ="}}}, {"name": "StatefulPartitionedCall/inception_resnet_v1/Conv2d_3b_1x1_Activation/Relu", "op": "_FusedConv2D", "input": ["StatefulPartitionedCall/inception_resnet_v1/MaxPool_3a_3x3/MaxPool", "StatefulPartitionedCall/inception_resnet_v1/Conv2d_3b_1x1/Conv2D_weights", "StatefulPartitionedCall/inception_resnet_v1/Conv2d_3b_1x1/Conv2D_bn_offset"], "device": "/device:CPU:0", "attr": {"use_cudnn_on_gpu": {"b": true}, "epsilon": {"f": 0.0}, "num_args": {"i": "1"}, "padding": {"s": "VkFMSUQ="}, "TArgs": {"list": {"type": ["DT_FLOAT"]}}, "data_format": {"s": "TkhXQw=="}, "num_host_args": {"i": "0"}, "fused_ops": {"list": {"s": ["Qmlhc0FkZA==", "UmVsdQ=="]}}, "strides": {"list": {"i": ["1", "1", "1", "1"]}}, "leakyrelu_alpha": {"f": 0.2}, "T": {"type": "DT_FLOAT"}, "dilations": {"list": {"i": ["1", "1", "1", "1"]}}, "explicit_paddings": {"list": {}}, "filter_format": {"s": "SFdJTw=="}}}, {"name": "StatefulPartitionedCall/inception_resnet_v1/Conv2d_4a_3x3_Activation/Relu", "op": "_FusedConv2D", "input": ["StatefulPartitionedCall/inception_resnet_v1/Conv2d_3b_1x1_Activation/Relu", "StatefulPartitionedCall/inception_resnet_v1/Conv2d_4a_3x3/Conv2D_weights", "StatefulPartitionedCall/inception_resnet_v1/Conv2d_4a_3x3/Conv2D_bn_offset"], "device": "/device:CPU:0", "attr": {"epsilon": {"f": 0.0}, "data_format": {"s": "TkhXQw=="}, "fused_ops": {"list": {"s": ["Qmlhc0FkZA==", "UmVsdQ=="]}}, "filter_format": {"s": "SFdJTw=="}, "dilations": {"list": {"i": ["1", "1", "1", "1"]}}, "T": {"type": "DT_FLOAT"}, "TArgs": {"list": {"type": ["DT_FLOAT"]}}, "leakyrelu_alpha": {"f": 0.2}, "num_host_args": {"i": "0"}, "strides": {"list": {"i": ["1", "1", "1", "1"]}}, "num_args": {"i": "1"}, "explicit_paddings": {"list": {}}, "padding": {"s": "VkFMSUQ="}, "use_cudnn_on_gpu": {"b": true}}}, {"name": "StatefulPartitionedCall/inception_resnet_v1/Conv2d_4b_3x3_Activation/Relu", "op": "_FusedConv2D", "input": ["StatefulPartitionedCall/inception_resnet_v1/Conv2d_4a_3x3_Activation/Relu", "StatefulPartitionedCall/inception_resnet_v1/Conv2d_4b_3x3/Conv2D_weights", "StatefulPartitionedCall/inception_resnet_v1/Conv2d_4b_3x3/Conv2D_bn_offset"], "device": "/device:CPU:0", "attr": {"epsilon": {"f": 0.0}, "padding": {"s": "VkFMSUQ="}, "T": {"type": "DT_FLOAT"}, "num_args": {"i": "1"}, "TArgs": {"list": {"type": ["DT_FLOAT"]}}, "fused_ops": {"list": {"s": ["Qmlhc0FkZA==", "UmVsdQ=="]}}, "use_cudnn_on_gpu": {"b": true}, "leakyrelu_alpha": {"f": 0.2}, "explicit_paddings": {"list": {}}, "dilations": {"list": {"i": ["1", "1", "1", "1"]}}, "filter_format": {"s": "SFdJTw=="}, "num_host_args": {"i": "0"}, "data_format": {"s": "TkhXQw=="}, "strides": {"list": {"i": ["1", "2", "2", "1"]}}}}, {"name": "StatefulPartitionedCall/inception_resnet_v1/Block35_1_Branch_0_Conv2d_1x1_Activation/Relu", "op": "_FusedConv2D", "input": ["StatefulPartitionedCall/inception_resnet_v1/Conv2d_4b_3x3_Activation/Relu", "StatefulPartitionedCall/inception_resnet_v1/Block35_1_Branch_0_Conv2d_1x1/Conv2D_weights", "StatefulPartitionedCall/inception_resnet_v1/Block35_1_Branch_0_Conv2d_1x1/Conv2D_bn_offset"], "device": "/device:CPU:0", "attr": {"filter_format": {"s": "SFdJTw=="}, "T": {"type": "DT_FLOAT"}, "strides": {"list": {"i": ["1", "1", "1", "1"]}}, "num_args": {"i": "1"}, "TArgs": {"list": {"type": ["DT_FLOAT"]}}, "leakyrelu_alpha": {"f": 0.2}, "use_cudnn_on_gpu": {"b": true}, "num_host_args": {"i": "0"}, "epsilon": {"f": 0.0}, "explicit_paddings": {"list": {}}, "padding": {"s": "U0FNRQ=="}, "data_format": {"s": "TkhXQw=="}, "dilations": {"list": {"i": ["1", "1", "1", "1"]}}, "fused_ops": {"list": {"s": ["Qmlhc0FkZA==", "UmVsdQ=="]}}}}, {"name": "StatefulPartitionedCall/inception_resnet_v1/Block35_1_Branch_1_Conv2d_0a_1x1_Activation/Relu", "op": "_FusedConv2D", "input": ["StatefulPartitionedCall/inception_resnet_v1/Conv2d_4b_3x3_Activation/Relu", "StatefulPartitionedCall/inception_resnet_v1/Block35_1_Branch_1_Conv2d_0a_1x1/Conv2D_weights", "StatefulPartitionedCall/inception_resnet_v1/Block35_1_Branch_1_Conv2d_0a_1x1/Conv2D_bn_offset"], "device": "/device:CPU:0", "attr": {"use_cudnn_on_gpu": {"b": true}, "data_format": {"s": "TkhXQw=="}, "padding": {"s": "U0FNRQ=="}, "explicit_paddings": {"list": {}}, "dilations": {"list": {"i": ["1", "1", "1", "1"]}}, "leakyrelu_alpha": {"f": 0.2}, "num_host_args": {"i": "0"}, "epsilon": {"f": 0.0}, "fused_ops": {"list": {"s": ["Qmlhc0FkZA==", "UmVsdQ=="]}}, "filter_format": {"s": "SFdJTw=="}, "TArgs": {"list": {"type": ["DT_FLOAT"]}}, "num_args": {"i": "1"}, "T": {"type": "DT_FLOAT"}, "strides": {"list": {"i": ["1", "1", "1", "1"]}}}}, {"name": "StatefulPartitionedCall/inception_resnet_v1/Block35_1_Branch_2_Conv2d_0a_1x1_Activation/Relu", "op": "_FusedConv2D", "input": ["StatefulPartitionedCall/inception_resnet_v1/Conv2d_4b_3x3_Activation/Relu", "StatefulPartitionedCall/inception_resnet_v1/Block35_1_Branch_2_Conv2d_0a_1x1/Conv2D_weights", "StatefulPartitionedCall/inception_resnet_v1/Block35_1_Branch_2_Conv2d_0a_1x1/Conv2D_bn_offset"], "device": "/device:CPU:0", "attr": {"data_format": {"s": "TkhXQw=="}, "T": {"type": "DT_FLOAT"}, "explicit_paddings": {"list": {}}, "fused_ops": {"list": {"s": ["Qmlhc0FkZA==", "UmVsdQ=="]}}, "num_args": {"i": "1"}, "filter_format": {"s": "SFdJTw=="}, "epsilon": {"f": 0.0}, "strides": {"list": {"i": ["1", "1", "1", "1"]}}, "num_host_args": {"i": "0"}, "leakyrelu_alpha": {"f": 0.2}, "dilations": {"list": {"i": ["1", "1", "1", "1"]}}, "use_cudnn_on_gpu": {"b": true}, "TArgs": {"list": {"type": ["DT_FLOAT"]}}, "padding": {"s": "U0FNRQ=="}}}, {"name": "StatefulPartitionedCall/inception_resnet_v1/Block35_1_Branch_1_Conv2d_0b_3x3_Activation/Relu", "op": "_FusedConv2D", "input": ["StatefulPartitionedCall/inception_resnet_v1/Block35_1_Branch_1_Conv2d_0a_1x1_Activation/Relu", "StatefulPartitionedCall/inception_resnet_v1/Block35_1_Branch_1_Conv2d_0b_3x3/Conv2D_weights", "StatefulPartitionedCall/inception_resnet_v1/Block35_1_Branch_1_Conv2d_0b_3x3/Conv2D_bn_offset"], "device": "/device:CPU:0", "attr": {"strides": {"list": {"i": ["1", "1", "1", "1"]}}, "fused_ops": {"list": {"s": ["Qmlhc0FkZA==", "UmVsdQ=="]}}, "dilations": {"list": {"i": ["1", "1", "1", "1"]}}, "explicit_paddings": {"list": {}}, "leakyrelu_alpha": {"f": 0.2}, "num_args": {"i": "1"}, "TArgs": {"list": {"type": ["DT_FLOAT"]}}, "use_cudnn_on_gpu": {"b": true}, "T": {"type": "DT_FLOAT"}, "num_host_args": {"i": "0"}, "filter_format": {"s": "SFdJTw=="}, "data_format": {"s": "TkhXQw=="}, "epsilon": {"f": 0.0}, "padding": {"s": "U0FNRQ=="}}}, {"name": "StatefulPartitionedCall/inception_resnet_v1/Block35_1_Branch_2_Conv2d_0b_3x3_Activation/Relu", "op": "_FusedConv2D", "input": ["StatefulPartitionedCall/inception_resnet_v1/Block35_1_Branch_2_Conv2d_0a_1x1_Activation/Relu", "StatefulPartitionedCall/inception_resnet_v1/Block35_1_Branch_2_Conv2d_0b_3x3/Conv2D_weights", "StatefulPartitionedCall/inception_resnet_v1/Block35_1_Branch_2_Conv2d_0b_3x3/Conv2D_bn_offset"], "device": "/device:CPU:0", "attr": {"num_host_args": {"i": "0"}, "dilations": {"list": {"i": ["1", "1", "1", "1"]}}, "leakyrelu_alpha": {"f": 0.2}, "T": {"type": "DT_FLOAT"}, "fused_ops": {"list": {"s": ["Qmlhc0FkZA==", "UmVsdQ=="]}}, "padding": {"s": "U0FNRQ=="}, "filter_format": {"s": "SFdJTw=="}, "data_format": {"s": "TkhXQw=="}, "TArgs": {"list": {"type": ["DT_FLOAT"]}}, "strides": {"list": {"i": ["1", "1", "1", "1"]}}, "num_args": {"i": "1"}, "explicit_paddings": {"list": {}}, "epsilon": {"f": 0.0}, "use_cudnn_on_gpu": {"b": true}}}, {"name": "StatefulPartitionedCall/inception_resnet_v1/Block35_1_Branch_2_Conv2d_0c_3x3_Activation/Relu", "op": "_FusedConv2D", "input": ["StatefulPartitionedCall/inception_resnet_v1/Block35_1_Branch_2_Conv2d_0b_3x3_Activation/Relu", "StatefulPartitionedCall/inception_resnet_v1/Block35_1_Branch_2_Conv2d_0c_3x3/Conv2D_weights", "StatefulPartitionedCall/inception_resnet_v1/Block35_1_Branch_2_Conv2d_0c_3x3/Conv2D_bn_offset"], "device": "/device:CPU:0", "attr": {"TArgs": {"list": {"type": ["DT_FLOAT"]}}, "num_args": {"i": "1"}, "epsilon": {"f": 0.0}, "leakyrelu_alpha": {"f": 0.2}, "strides": {"list": {"i": ["1", "1", "1", "1"]}}, "T": {"type": "DT_FLOAT"}, "filter_format": {"s": "SFdJTw=="}, "data_format": {"s": "TkhXQw=="}, "use_cudnn_on_gpu": {"b": true}, "fused_ops": {"list": {"s": ["Qmlhc0FkZA==", "UmVsdQ=="]}}, "num_host_args": {"i": "0"}, "dilations": {"list": {"i": ["1", "1", "1", "1"]}}, "explicit_paddings": {"list": {}}, "padding": {"s": "U0FNRQ=="}}}, {"name": "StatefulPartitionedCall/inception_resnet_v1/Block35_1_Concatenate/concat", "op": "ConcatV2", "input": ["StatefulPartitionedCall/inception_resnet_v1/Block35_1_Branch_0_Conv2d_1x1_Activation/Relu", "StatefulPartitionedCall/inception_resnet_v1/Block35_1_Branch_1_Conv2d_0b_3x3_Activation/Relu", "StatefulPartitionedCall/inception_resnet_v1/Block35_1_Branch_2_Conv2d_0c_3x3_Activation/Relu", "StatefulPartitionedCall/inception_resnet_v1/Block35_1_Concatenate/concat/axis"], "attr": {"T": {"type": "DT_FLOAT"}, "Tidx": {"type": "DT_INT32"}, "N": {"i": "3"}}}, {"name": "StatefulPartitionedCall/inception_resnet_v1/Block35_1_Conv2d_1x1/BiasAdd", "op": "_FusedConv2D", "input": ["StatefulPartitionedCall/inception_resnet_v1/Block35_1_Concatenate/concat", "StatefulPartitionedCall/inception_resnet_v1/Block35_1_Conv2d_1x1/Conv2D/ReadVariableOp", "StatefulPartitionedCall/inception_resnet_v1/Block35_1_Conv2d_1x1/BiasAdd/ReadVariableOp"], "device": "/device:CPU:0", "attr": {"TArgs": {"list": {"type": ["DT_FLOAT"]}}, "strides": {"list": {"i": ["1", "1", "1", "1"]}}, "num_host_args": {"i": "0"}, "leakyrelu_alpha": {"f": 0.2}, "epsilon": {"f": 0.0}, "data_format": {"s": "TkhXQw=="}, "use_cudnn_on_gpu": {"b": true}, "dilations": {"list": {"i": ["1", "1", "1", "1"]}}, "explicit_paddings": {"list": {}}, "filter_format": {"s": "SFdJTw=="}, "num_args": {"i": "1"}, "T": {"type": "DT_FLOAT"}, "fused_ops": {"list": {"s": ["Qmlhc0FkZA=="]}}, "padding": {"s": "U0FNRQ=="}}}, {"name": "StatefulPartitionedCall/inception_resnet_v1/lambda/mul", "op": "Mul", "input": ["StatefulPartitionedCall/inception_resnet_v1/Block35_1_Conv2d_1x1/BiasAdd", "StatefulPartitionedCall/inception_resnet_v1/lambda/mul/y"], "attr": {"T": {"type": "DT_FLOAT"}}}, {"name": "StatefulPartitionedCall/inception_resnet_v1/add/add", "op": "AddV2", "input": ["StatefulPartitionedCall/inception_resnet_v1/Conv2d_4b_3x3_Activation/Relu", "StatefulPartitionedCall/inception_resnet_v1/lambda/mul"], "attr": {"T": {"type": "DT_FLOAT"}}}, {"name": "StatefulPartitionedCall/inception_resnet_v1/Block35_1_Activation/Relu", "op": "Relu", "input": ["StatefulPartitionedCall/inception_resnet_v1/add/add"], "attr": {"T": {"type": "DT_FLOAT"}}}, {"name": "StatefulPartitionedCall/inception_resnet_v1/Block35_2_Branch_0_Conv2d_1x1_Activation/Relu", "op": "_FusedConv2D", "input": ["StatefulPartitionedCall/inception_resnet_v1/Block35_1_Activation/Relu", "StatefulPartitionedCall/inception_resnet_v1/Block35_2_Branch_0_Conv2d_1x1/Conv2D_weights", "StatefulPartitionedCall/inception_resnet_v1/Block35_2_Branch_0_Conv2d_1x1/Conv2D_bn_offset"], "device": "/device:CPU:0", "attr": {"T": {"type": "DT_FLOAT"}, "epsilon": {"f": 0.0}, "TArgs": {"list": {"type": ["DT_FLOAT"]}}, "fused_ops": {"list": {"s": ["Qmlhc0FkZA==", "UmVsdQ=="]}}, "explicit_paddings": {"list": {}}, "leakyrelu_alpha": {"f": 0.2}, "data_format": {"s": "TkhXQw=="}, "padding": {"s": "U0FNRQ=="}, "num_host_args": {"i": "0"}, "filter_format": {"s": "SFdJTw=="}, "use_cudnn_on_gpu": {"b": true}, "num_args": {"i": "1"}, "strides": {"list": {"i": ["1", "1", "1", "1"]}}, "dilations": {"list": {"i": ["1", "1", "1", "1"]}}}}, {"name": "StatefulPartitionedCall/inception_resnet_v1/Block35_2_Branch_1_Conv2d_0a_1x1_Activation/Relu", "op": "_FusedConv2D", "input": ["StatefulPartitionedCall/inception_resnet_v1/Block35_1_Activation/Relu", "StatefulPartitionedCall/inception_resnet_v1/Block35_2_Branch_1_Conv2d_0a_1x1/Conv2D_weights", "StatefulPartitionedCall/inception_resnet_v1/Block35_2_Branch_1_Conv2d_0a_1x1/Conv2D_bn_offset"], "device": "/device:CPU:0", "attr": {"T": {"type": "DT_FLOAT"}, "data_format": {"s": "TkhXQw=="}, "TArgs": {"list": {"type": ["DT_FLOAT"]}}, "num_host_args": {"i": "0"}, "strides": {"list": {"i": ["1", "1", "1", "1"]}}, "num_args": {"i": "1"}, "epsilon": {"f": 0.0}, "dilations": {"list": {"i": ["1", "1", "1", "1"]}}, "fused_ops": {"list": {"s": ["Qmlhc0FkZA==", "UmVsdQ=="]}}, "filter_format": {"s": "SFdJTw=="}, "explicit_paddings": {"list": {}}, "use_cudnn_on_gpu": {"b": true}, "leakyrelu_alpha": {"f": 0.2}, "padding": {"s": "U0FNRQ=="}}}, {"name": "StatefulPartitionedCall/inception_resnet_v1/Block35_2_Branch_2_Conv2d_0a_1x1_Activation/Relu", "op": "_FusedConv2D", "input": ["StatefulPartitionedCall/inception_resnet_v1/Block35_1_Activation/Relu", "StatefulPartitionedCall/inception_resnet_v1/Block35_2_Branch_2_Conv2d_0a_1x1/Conv2D_weights", "StatefulPartitionedCall/inception_resnet_v1/Block35_2_Branch_2_Conv2d_0a_1x1/Conv2D_bn_offset"], "device": "/device:CPU:0", "attr": {"strides": {"list": {"i": ["1", "1", "1", "1"]}}, "num_host_args": {"i": "0"}, "T": {"type": "DT_FLOAT"}, "TArgs": {"list": {"type": ["DT_FLOAT"]}}, "dilations": {"list": {"i": ["1", "1", "1", "1"]}}, "leakyrelu_alpha": {"f": 0.2}, "explicit_paddings": {"list": {}}, "filter_format": {"s": "SFdJTw=="}, "epsilon": {"f": 0.0}, "num_args": {"i": "1"}, "fused_ops": {"list": {"s": ["Qmlhc0FkZA==", "UmVsdQ=="]}}, "data_format": {"s": "TkhXQw=="}, "use_cudnn_on_gpu": {"b": true}, "padding": {"s": "U0FNRQ=="}}}, {"name": "StatefulPartitionedCall/inception_resnet_v1/Block35_2_Branch_1_Conv2d_0b_3x3_Activation/Relu", "op": "_FusedConv2D", "input": ["StatefulPartitionedCall/inception_resnet_v1/Block35_2_Branch_1_Conv2d_0a_1x1_Activation/Relu", "StatefulPartitionedCall/inception_resnet_v1/Block35_2_Branch_1_Conv2d_0b_3x3/Conv2D_weights", "StatefulPartitionedCall/inception_resnet_v1/Block35_2_Branch_1_Conv2d_0b_3x3/Conv2D_bn_offset"], "device": "/device:CPU:0", "attr": {"filter_format": {"s": "SFdJTw=="}, "padding": {"s": "U0FNRQ=="}, "TArgs": {"list": {"type": ["DT_FLOAT"]}}, "fused_ops": {"list": {"s": ["Qmlhc0FkZA==", "UmVsdQ=="]}}, "dilations": {"list": {"i": ["1", "1", "1", "1"]}}, "epsilon": {"f": 0.0}, "num_args": {"i": "1"}, "num_host_args": {"i": "0"}, "data_format": {"s": "TkhXQw=="}, "use_cudnn_on_gpu": {"b": true}, "explicit_paddings": {"list": {}}, "leakyrelu_alpha": {"f": 0.2}, "strides": {"list": {"i": ["1", "1", "1", "1"]}}, "T": {"type": "DT_FLOAT"}}}, {"name": "StatefulPartitionedCall/inception_resnet_v1/Block35_2_Branch_2_Conv2d_0b_3x3_Activation/Relu", "op": "_FusedConv2D", "input": ["StatefulPartitionedCall/inception_resnet_v1/Block35_2_Branch_2_Conv2d_0a_1x1_Activation/Relu", "StatefulPartitionedCall/inception_resnet_v1/Block35_2_Branch_2_Conv2d_0b_3x3/Conv2D_weights", "StatefulPartitionedCall/inception_resnet_v1/Block35_2_Branch_2_Conv2d_0b_3x3/Conv2D_bn_offset"], "device": "/device:CPU:0", "attr": {"strides": {"list": {"i": ["1", "1", "1", "1"]}}, "fused_ops": {"list": {"s": ["Qmlhc0FkZA==", "UmVsdQ=="]}}, "padding": {"s": "U0FNRQ=="}, "leakyrelu_alpha": {"f": 0.2}, "data_format": {"s": "TkhXQw=="}, "use_cudnn_on_gpu": {"b": true}, "TArgs": {"list": {"type": ["DT_FLOAT"]}}, "num_host_args": {"i": "0"}, "dilations": {"list": {"i": ["1", "1", "1", "1"]}}, "num_args": {"i": "1"}, "explicit_paddings": {"list": {}}, "T": {"type": "DT_FLOAT"}, "epsilon": {"f": 0.0}, "filter_format": {"s": "SFdJTw=="}}}, {"name": "StatefulPartitionedCall/inception_resnet_v1/Block35_2_Branch_2_Conv2d_0c_3x3_Activation/Relu", "op": "_FusedConv2D", "input": ["StatefulPartitionedCall/inception_resnet_v1/Block35_2_Branch_2_Conv2d_0b_3x3_Activation/Relu", "StatefulPartitionedCall/inception_resnet_v1/Block35_2_Branch_2_Conv2d_0c_3x3/Conv2D_weights", "StatefulPartitionedCall/inception_resnet_v1/Block35_2_Branch_2_Conv2d_0c_3x3/Conv2D_bn_offset"], "device": "/device:CPU:0", "attr": {"fused_ops": {"list": {"s": ["Qmlhc0FkZA==", "UmVsdQ=="]}}, "dilations": {"list": {"i": ["1", "1", "1", "1"]}}, "explicit_paddings": {"list": {}}, "epsilon": {"f": 0.0}, "TArgs": {"list": {"type": ["DT_FLOAT"]}}, "num_host_args": {"i": "0"}, "filter_format": {"s": "SFdJTw=="}, "strides": {"list": {"i": ["1", "1", "1", "1"]}}, "T": {"type": "DT_FLOAT"}, "leakyrelu_alpha": {"f": 0.2}, "num_args": {"i": "1"}, "use_cudnn_on_gpu": {"b": true}, "padding": {"s": "U0FNRQ=="}, "data_format": {"s": "TkhXQw=="}}}, {"name": "StatefulPartitionedCall/inception_resnet_v1/Block35_2_Concatenate/concat", "op": "ConcatV2", "input": ["StatefulPartitionedCall/inception_resnet_v1/Block35_2_Branch_0_Conv2d_1x1_Activation/Relu", "StatefulPartitionedCall/inception_resnet_v1/Block35_2_Branch_1_Conv2d_0b_3x3_Activation/Relu", "StatefulPartitionedCall/inception_resnet_v1/Block35_2_Branch_2_Conv2d_0c_3x3_Activation/Relu", "StatefulPartitionedCall/inception_resnet_v1/Block35_2_Concatenate/concat/axis"], "attr": {"N": {"i": "3"}, "Tidx": {"type": "DT_INT32"}, "T": {"type": "DT_FLOAT"}}}, {"name": "StatefulPartitionedCall/inception_resnet_v1/Block35_2_Conv2d_1x1/BiasAdd", "op": "_FusedConv2D", "input": ["StatefulPartitionedCall/inception_resnet_v1/Block35_2_Concatenate/concat", "StatefulPartitionedCall/inception_resnet_v1/Block35_2_Conv2d_1x1/Conv2D/ReadVariableOp", "StatefulPartitionedCall/inception_resnet_v1/Block35_2_Conv2d_1x1/BiasAdd/ReadVariableOp"], "device": "/device:CPU:0", "attr": {"num_args": {"i": "1"}, "use_cudnn_on_gpu": {"b": true}, "data_format": {"s": "TkhXQw=="}, "TArgs": {"list": {"type": ["DT_FLOAT"]}}, "num_host_args": {"i": "0"}, "epsilon": {"f": 0.0}, "fused_ops": {"list": {"s": ["Qmlhc0FkZA=="]}}, "explicit_paddings": {"list": {}}, "dilations": {"list": {"i": ["1", "1", "1", "1"]}}, "T": {"type": "DT_FLOAT"}, "filter_format": {"s": "SFdJTw=="}, "padding": {"s": "U0FNRQ=="}, "strides": {"list": {"i": ["1", "1", "1", "1"]}}, "leakyrelu_alpha": {"f": 0.2}}}, {"name": "StatefulPartitionedCall/inception_resnet_v1/lambda_1/mul", "op": "Mul", "input": ["StatefulPartitionedCall/inception_resnet_v1/Block35_2_Conv2d_1x1/BiasAdd", "StatefulPartitionedCall/inception_resnet_v1/lambda_1/mul/y"], "attr": {"T": {"type": "DT_FLOAT"}}}, {"name": "StatefulPartitionedCall/inception_resnet_v1/add_1/add", "op": "AddV2", "input": ["StatefulPartitionedCall/inception_resnet_v1/Block35_1_Activation/Relu", "StatefulPartitionedCall/inception_resnet_v1/lambda_1/mul"], "attr": {"T": {"type": "DT_FLOAT"}}}, {"name": "StatefulPartitionedCall/inception_resnet_v1/Block35_2_Activation/Relu", "op": "Relu", "input": ["StatefulPartitionedCall/inception_resnet_v1/add_1/add"], "attr": {"T": {"type": "DT_FLOAT"}}}, {"name": "StatefulPartitionedCall/inception_resnet_v1/Block35_3_Branch_0_Conv2d_1x1_Activation/Relu", "op": "_FusedConv2D", "input": ["StatefulPartitionedCall/inception_resnet_v1/Block35_2_Activation/Relu", "StatefulPartitionedCall/inception_resnet_v1/Block35_3_Branch_0_Conv2d_1x1/Conv2D_weights", "StatefulPartitionedCall/inception_resnet_v1/Block35_3_Branch_0_Conv2d_1x1/Conv2D_bn_offset"], "device": "/device:CPU:0", "attr": {"epsilon": {"f": 0.0}, "num_args": {"i": "1"}, "use_cudnn_on_gpu": {"b": true}, "leakyrelu_alpha": {"f": 0.2}, "data_format": {"s": "TkhXQw=="}, "padding": {"s": "U0FNRQ=="}, "strides": {"list": {"i": ["1", "1", "1", "1"]}}, "explicit_paddings": {"list": {}}, "dilations": {"list": {"i": ["1", "1", "1", "1"]}}, "TArgs": {"list": {"type": ["DT_FLOAT"]}}, "fused_ops": {"list": {"s": ["Qmlhc0FkZA==", "UmVsdQ=="]}}, "T": {"type": "DT_FLOAT"}, "filter_format": {"s": "SFdJTw=="}, "num_host_args": {"i": "0"}}}, {"name": "StatefulPartitionedCall/inception_resnet_v1/Block35_3_Branch_1_Conv2d_0a_1x1_Activation/Relu", "op": "_FusedConv2D", "input": ["StatefulPartitionedCall/inception_resnet_v1/Block35_2_Activation/Relu", "StatefulPartitionedCall/inception_resnet_v1/Block35_3_Branch_1_Conv2d_0a_1x1/Conv2D_weights", "StatefulPartitionedCall/inception_resnet_v1/Block35_3_Branch_1_Conv2d_0a_1x1/Conv2D_bn_offset"], "device": "/device:CPU:0", "attr": {"leakyrelu_alpha": {"f": 0.2}, "padding": {"s": "U0FNRQ=="}, "fused_ops": {"list": {"s": ["Qmlhc0FkZA==", "UmVsdQ=="]}}, "explicit_paddings": {"list": {}}, "num_host_args": {"i": "0"}, "epsilon": {"f": 0.0}, "use_cudnn_on_gpu": {"b": true}, "data_format": {"s": "TkhXQw=="}, "filter_format": {"s": "SFdJTw=="}, "dilations": {"list": {"i": ["1", "1", "1", "1"]}}, "num_args": {"i": "1"}, "T": {"type": "DT_FLOAT"}, "strides": {"list": {"i": ["1", "1", "1", "1"]}}, "TArgs": {"list": {"type": ["DT_FLOAT"]}}}}, {"name": "StatefulPartitionedCall/inception_resnet_v1/Block35_3_Branch_2_Conv2d_0a_1x1_Activation/Relu", "op": "_FusedConv2D", "input": ["StatefulPartitionedCall/inception_resnet_v1/Block35_2_Activation/Relu", "StatefulPartitionedCall/inception_resnet_v1/Block35_3_Branch_2_Conv2d_0a_1x1/Conv2D_weights", "StatefulPartitionedCall/inception_resnet_v1/Block35_3_Branch_2_Conv2d_0a_1x1/Conv2D_bn_offset"], "device": "/device:CPU:0", "attr": {"num_host_args": {"i": "0"}, "padding": {"s": "U0FNRQ=="}, "data_format": {"s": "TkhXQw=="}, "dilations": {"list": {"i": ["1", "1", "1", "1"]}}, "T": {"type": "DT_FLOAT"}, "leakyrelu_alpha": {"f": 0.2}, "fused_ops": {"list": {"s": ["Qmlhc0FkZA==", "UmVsdQ=="]}}, "TArgs": {"list": {"type": ["DT_FLOAT"]}}, "explicit_paddings": {"list": {}}, "use_cudnn_on_gpu": {"b": true}, "strides": {"list": {"i": ["1", "1", "1", "1"]}}, "filter_format": {"s": "SFdJTw=="}, "num_args": {"i": "1"}, "epsilon": {"f": 0.0}}}, {"name": "StatefulPartitionedCall/inception_resnet_v1/Block35_3_Branch_1_Conv2d_0b_3x3_Activation/Relu", "op": "_FusedConv2D", "input": ["StatefulPartitionedCall/inception_resnet_v1/Block35_3_Branch_1_Conv2d_0a_1x1_Activation/Relu", "StatefulPartitionedCall/inception_resnet_v1/Block35_3_Branch_1_Conv2d_0b_3x3/Conv2D_weights", "StatefulPartitionedCall/inception_resnet_v1/Block35_3_Branch_1_Conv2d_0b_3x3/Conv2D_bn_offset"], "device": "/device:CPU:0", "attr": {"dilations": {"list": {"i": ["1", "1", "1", "1"]}}, "fused_ops": {"list": {"s": ["Qmlhc0FkZA==", "UmVsdQ=="]}}, "explicit_paddings": {"list": {}}, "padding": {"s": "U0FNRQ=="}, "T": {"type": "DT_FLOAT"}, "num_host_args": {"i": "0"}, "use_cudnn_on_gpu": {"b": true}, "leakyrelu_alpha": {"f": 0.2}, "TArgs": {"list": {"type": ["DT_FLOAT"]}}, "epsilon": {"f": 0.0}, "filter_format": {"s": "SFdJTw=="}, "data_format": {"s": "TkhXQw=="}, "strides": {"list": {"i": ["1", "1", "1", "1"]}}, "num_args": {"i": "1"}}}, {"name": "StatefulPartitionedCall/inception_resnet_v1/Block35_3_Branch_2_Conv2d_0b_3x3_Activation/Relu", "op": "_FusedConv2D", "input": ["StatefulPartitionedCall/inception_resnet_v1/Block35_3_Branch_2_Conv2d_0a_1x1_Activation/Relu", "StatefulPartitionedCall/inception_resnet_v1/Block35_3_Branch_2_Conv2d_0b_3x3/Conv2D_weights", "StatefulPartitionedCall/inception_resnet_v1/Block35_3_Branch_2_Conv2d_0b_3x3/Conv2D_bn_offset"], "device": "/device:CPU:0", "attr": {"dilations": {"list": {"i": ["1", "1", "1", "1"]}}, "strides": {"list": {"i": ["1", "1", "1", "1"]}}, "use_cudnn_on_gpu": {"b": true}, "T": {"type": "DT_FLOAT"}, "explicit_paddings": {"list": {}}, "num_args": {"i": "1"}, "num_host_args": {"i": "0"}, "fused_ops": {"list": {"s": ["Qmlhc0FkZA==", "UmVsdQ=="]}}, "data_format": {"s": "TkhXQw=="}, "TArgs": {"list": {"type": ["DT_FLOAT"]}}, "epsilon": {"f": 0.0}, "leakyrelu_alpha": {"f": 0.2}, "padding": {"s": "U0FNRQ=="}, "filter_format": {"s": "SFdJTw=="}}}, {"name": "StatefulPartitionedCall/inception_resnet_v1/Block35_3_Branch_2_Conv2d_0c_3x3_Activation/Relu", "op": "_FusedConv2D", "input": ["StatefulPartitionedCall/inception_resnet_v1/Block35_3_Branch_2_Conv2d_0b_3x3_Activation/Relu", "StatefulPartitionedCall/inception_resnet_v1/Block35_3_Branch_2_Conv2d_0c_3x3/Conv2D_weights", "StatefulPartitionedCall/inception_resnet_v1/Block35_3_Branch_2_Conv2d_0c_3x3/Conv2D_bn_offset"], "device": "/device:CPU:0", "attr": {"explicit_paddings": {"list": {}}, "num_args": {"i": "1"}, "padding": {"s": "U0FNRQ=="}, "filter_format": {"s": "SFdJTw=="}, "num_host_args": {"i": "0"}, "data_format": {"s": "TkhXQw=="}, "leakyrelu_alpha": {"f": 0.2}, "use_cudnn_on_gpu": {"b": true}, "dilations": {"list": {"i": ["1", "1", "1", "1"]}}, "T": {"type": "DT_FLOAT"}, "TArgs": {"list": {"type": ["DT_FLOAT"]}}, "strides": {"list": {"i": ["1", "1", "1", "1"]}}, "fused_ops": {"list": {"s": ["Qmlhc0FkZA==", "UmVsdQ=="]}}, "epsilon": {"f": 0.0}}}, {"name": "StatefulPartitionedCall/inception_resnet_v1/Block35_3_Concatenate/concat", "op": "ConcatV2", "input": ["StatefulPartitionedCall/inception_resnet_v1/Block35_3_Branch_0_Conv2d_1x1_Activation/Relu", "StatefulPartitionedCall/inception_resnet_v1/Block35_3_Branch_1_Conv2d_0b_3x3_Activation/Relu", "StatefulPartitionedCall/inception_resnet_v1/Block35_3_Branch_2_Conv2d_0c_3x3_Activation/Relu", "StatefulPartitionedCall/inception_resnet_v1/Block35_3_Concatenate/concat/axis"], "attr": {"T": {"type": "DT_FLOAT"}, "N": {"i": "3"}, "Tidx": {"type": "DT_INT32"}}}, {"name": "StatefulPartitionedCall/inception_resnet_v1/Block35_3_Conv2d_1x1/BiasAdd", "op": "_FusedConv2D", "input": ["StatefulPartitionedCall/inception_resnet_v1/Block35_3_Concatenate/concat", "StatefulPartitionedCall/inception_resnet_v1/Block35_3_Conv2d_1x1/Conv2D/ReadVariableOp", "StatefulPartitionedCall/inception_resnet_v1/Block35_3_Conv2d_1x1/BiasAdd/ReadVariableOp"], "device": "/device:CPU:0", "attr": {"use_cudnn_on_gpu": {"b": true}, "strides": {"list": {"i": ["1", "1", "1", "1"]}}, "leakyrelu_alpha": {"f": 0.2}, "data_format": {"s": "TkhXQw=="}, "TArgs": {"list": {"type": ["DT_FLOAT"]}}, "epsilon": {"f": 0.0}, "padding": {"s": "U0FNRQ=="}, "explicit_paddings": {"list": {}}, "filter_format": {"s": "SFdJTw=="}, "T": {"type": "DT_FLOAT"}, "num_host_args": {"i": "0"}, "fused_ops": {"list": {"s": ["Qmlhc0FkZA=="]}}, "num_args": {"i": "1"}, "dilations": {"list": {"i": ["1", "1", "1", "1"]}}}}, {"name": "StatefulPartitionedCall/inception_resnet_v1/lambda_2/mul", "op": "Mul", "input": ["StatefulPartitionedCall/inception_resnet_v1/Block35_3_Conv2d_1x1/BiasAdd", "StatefulPartitionedCall/inception_resnet_v1/lambda_2/mul/y"], "attr": {"T": {"type": "DT_FLOAT"}}}, {"name": "StatefulPartitionedCall/inception_resnet_v1/add_2/add", "op": "AddV2", "input": ["StatefulPartitionedCall/inception_resnet_v1/Block35_2_Activation/Relu", "StatefulPartitionedCall/inception_resnet_v1/lambda_2/mul"], "attr": {"T": {"type": "DT_FLOAT"}}}, {"name": "StatefulPartitionedCall/inception_resnet_v1/Block35_3_Activation/Relu", "op": "Relu", "input": ["StatefulPartitionedCall/inception_resnet_v1/add_2/add"], "attr": {"T": {"type": "DT_FLOAT"}}}, {"name": "StatefulPartitionedCall/inception_resnet_v1/Block35_4_Branch_0_Conv2d_1x1_Activation/Relu", "op": "_FusedConv2D", "input": ["StatefulPartitionedCall/inception_resnet_v1/Block35_3_Activation/Relu", "StatefulPartitionedCall/inception_resnet_v1/Block35_4_Branch_0_Conv2d_1x1/Conv2D_weights", "StatefulPartitionedCall/inception_resnet_v1/Block35_4_Branch_0_Conv2d_1x1/Conv2D_bn_offset"], "device": "/device:CPU:0", "attr": {"fused_ops": {"list": {"s": ["Qmlhc0FkZA==", "UmVsdQ=="]}}, "padding": {"s": "U0FNRQ=="}, "filter_format": {"s": "SFdJTw=="}, "TArgs": {"list": {"type": ["DT_FLOAT"]}}, "num_host_args": {"i": "0"}, "data_format": {"s": "TkhXQw=="}, "num_args": {"i": "1"}, "strides": {"list": {"i": ["1", "1", "1", "1"]}}, "use_cudnn_on_gpu": {"b": true}, "explicit_paddings": {"list": {}}, "dilations": {"list": {"i": ["1", "1", "1", "1"]}}, "T": {"type": "DT_FLOAT"}, "epsilon": {"f": 0.0}, "leakyrelu_alpha": {"f": 0.2}}}, {"name": "StatefulPartitionedCall/inception_resnet_v1/Block35_4_Branch_1_Conv2d_0a_1x1_Activation/Relu", "op": "_FusedConv2D", "input": ["StatefulPartitionedCall/inception_resnet_v1/Block35_3_Activation/Relu", "StatefulPartitionedCall/inception_resnet_v1/Block35_4_Branch_1_Conv2d_0a_1x1/Conv2D_weights", "StatefulPartitionedCall/inception_resnet_v1/Block35_4_Branch_1_Conv2d_0a_1x1/Conv2D_bn_offset"], "device": "/device:CPU:0", "attr": {"strides": {"list": {"i": ["1", "1", "1", "1"]}}, "num_args": {"i": "1"}, "T": {"type": "DT_FLOAT"}, "num_host_args": {"i": "0"}, "data_format": {"s": "TkhXQw=="}, "dilations": {"list": {"i": ["1", "1", "1", "1"]}}, "padding": {"s": "U0FNRQ=="}, "explicit_paddings": {"list": {}}, "fused_ops": {"list": {"s": ["Qmlhc0FkZA==", "UmVsdQ=="]}}, "TArgs": {"list": {"type": ["DT_FLOAT"]}}, "leakyrelu_alpha": {"f": 0.2}, "use_cudnn_on_gpu": {"b": true}, "filter_format": {"s": "SFdJTw=="}, "epsilon": {"f": 0.0}}}, {"name": "StatefulPartitionedCall/inception_resnet_v1/Block35_4_Branch_2_Conv2d_0a_1x1_Activation/Relu", "op": "_FusedConv2D", "input": ["StatefulPartitionedCall/inception_resnet_v1/Block35_3_Activation/Relu", "StatefulPartitionedCall/inception_resnet_v1/Block35_4_Branch_2_Conv2d_0a_1x1/Conv2D_weights", "StatefulPartitionedCall/inception_resnet_v1/Block35_4_Branch_2_Conv2d_0a_1x1/Conv2D_bn_offset"], "device": "/device:CPU:0", "attr": {"use_cudnn_on_gpu": {"b": true}, "T": {"type": "DT_FLOAT"}, "num_args": {"i": "1"}, "data_format": {"s": "TkhXQw=="}, "TArgs": {"list": {"type": ["DT_FLOAT"]}}, "epsilon": {"f": 0.0}, "padding": {"s": "U0FNRQ=="}, "leakyrelu_alpha": {"f": 0.2}, "strides": {"list": {"i": ["1", "1", "1", "1"]}}, "filter_format": {"s": "SFdJTw=="}, "explicit_paddings": {"list": {}}, "dilations": {"list": {"i": ["1", "1", "1", "1"]}}, "num_host_args": {"i": "0"}, "fused_ops": {"list": {"s": ["Qmlhc0FkZA==", "UmVsdQ=="]}}}}, {"name": "StatefulPartitionedCall/inception_resnet_v1/Block35_4_Branch_1_Conv2d_0b_3x3_Activation/Relu", "op": "_FusedConv2D", "input": ["StatefulPartitionedCall/inception_resnet_v1/Block35_4_Branch_1_Conv2d_0a_1x1_Activation/Relu", "StatefulPartitionedCall/inception_resnet_v1/Block35_4_Branch_1_Conv2d_0b_3x3/Conv2D_weights", "StatefulPartitionedCall/inception_resnet_v1/Block35_4_Branch_1_Conv2d_0b_3x3/Conv2D_bn_offset"], "device": "/device:CPU:0", "attr": {"padding": {"s": "U0FNRQ=="}, "fused_ops": {"list": {"s": ["Qmlhc0FkZA==", "UmVsdQ=="]}}, "strides": {"list": {"i": ["1", "1", "1", "1"]}}, "data_format": {"s": "TkhXQw=="}, "num_args": {"i": "1"}, "num_host_args": {"i": "0"}, "epsilon": {"f": 0.0}, "T": {"type": "DT_FLOAT"}, "use_cudnn_on_gpu": {"b": true}, "leakyrelu_alpha": {"f": 0.2}, "TArgs": {"list": {"type": ["DT_FLOAT"]}}, "filter_format": {"s": "SFdJTw=="}, "explicit_paddings": {"list": {}}, "dilations": {"list": {"i": ["1", "1", "1", "1"]}}}}, {"name": "StatefulPartitionedCall/inception_resnet_v1/Block35_4_Branch_2_Conv2d_0b_3x3_Activation/Relu", "op": "_FusedConv2D", "input": ["StatefulPartitionedCall/inception_resnet_v1/Block35_4_Branch_2_Conv2d_0a_1x1_Activation/Relu", "StatefulPartitionedCall/inception_resnet_v1/Block35_4_Branch_2_Conv2d_0b_3x3/Conv2D_weights", "StatefulPartitionedCall/inception_resnet_v1/Block35_4_Branch_2_Conv2d_0b_3x3/Conv2D_bn_offset"], "device": "/device:CPU:0", "attr": {"num_args": {"i": "1"}, "data_format": {"s": "TkhXQw=="}, "fused_ops": {"list": {"s": ["Qmlhc0FkZA==", "UmVsdQ=="]}}, "filter_format": {"s": "SFdJTw=="}, "dilations": {"list": {"i": ["1", "1", "1", "1"]}}, "use_cudnn_on_gpu": {"b": true}, "num_host_args": {"i": "0"}, "strides": {"list": {"i": ["1", "1", "1", "1"]}}, "explicit_paddings": {"list": {}}, "TArgs": {"list": {"type": ["DT_FLOAT"]}}, "leakyrelu_alpha": {"f": 0.2}, "padding": {"s": "U0FNRQ=="}, "epsilon": {"f": 0.0}, "T": {"type": "DT_FLOAT"}}}, {"name": "StatefulPartitionedCall/inception_resnet_v1/Block35_4_Branch_2_Conv2d_0c_3x3_Activation/Relu", "op": "_FusedConv2D", "input": ["StatefulPartitionedCall/inception_resnet_v1/Block35_4_Branch_2_Conv2d_0b_3x3_Activation/Relu", "StatefulPartitionedCall/inception_resnet_v1/Block35_4_Branch_2_Conv2d_0c_3x3/Conv2D_weights", "StatefulPartitionedCall/inception_resnet_v1/Block35_4_Branch_2_Conv2d_0c_3x3/Conv2D_bn_offset"], "device": "/device:CPU:0", "attr": {"filter_format": {"s": "SFdJTw=="}, "num_args": {"i": "1"}, "use_cudnn_on_gpu": {"b": true}, "T": {"type": "DT_FLOAT"}, "leakyrelu_alpha": {"f": 0.2}, "dilations": {"list": {"i": ["1", "1", "1", "1"]}}, "num_host_args": {"i": "0"}, "data_format": {"s": "TkhXQw=="}, "TArgs": {"list": {"type": ["DT_FLOAT"]}}, "strides": {"list": {"i": ["1", "1", "1", "1"]}}, "epsilon": {"f": 0.0}, "fused_ops": {"list": {"s": ["Qmlhc0FkZA==", "UmVsdQ=="]}}, "explicit_paddings": {"list": {}}, "padding": {"s": "U0FNRQ=="}}}, {"name": "StatefulPartitionedCall/inception_resnet_v1/Block35_4_Concatenate/concat", "op": "ConcatV2", "input": ["StatefulPartitionedCall/inception_resnet_v1/Block35_4_Branch_0_Conv2d_1x1_Activation/Relu", "StatefulPartitionedCall/inception_resnet_v1/Block35_4_Branch_1_Conv2d_0b_3x3_Activation/Relu", "StatefulPartitionedCall/inception_resnet_v1/Block35_4_Branch_2_Conv2d_0c_3x3_Activation/Relu", "StatefulPartitionedCall/inception_resnet_v1/Block35_4_Concatenate/concat/axis"], "attr": {"Tidx": {"type": "DT_INT32"}, "N": {"i": "3"}, "T": {"type": "DT_FLOAT"}}}, {"name": "StatefulPartitionedCall/inception_resnet_v1/Block35_4_Conv2d_1x1/BiasAdd", "op": "_FusedConv2D", "input": ["StatefulPartitionedCall/inception_resnet_v1/Block35_4_Concatenate/concat", "StatefulPartitionedCall/inception_resnet_v1/Block35_4_Conv2d_1x1/Conv2D/ReadVariableOp", "StatefulPartitionedCall/inception_resnet_v1/Block35_4_Conv2d_1x1/BiasAdd/ReadVariableOp"], "device": "/device:CPU:0", "attr": {"filter_format": {"s": "SFdJTw=="}, "num_host_args": {"i": "0"}, "use_cudnn_on_gpu": {"b": true}, "num_args": {"i": "1"}, "fused_ops": {"list": {"s": ["Qmlhc0FkZA=="]}}, "data_format": {"s": "TkhXQw=="}, "explicit_paddings": {"list": {}}, "strides": {"list": {"i": ["1", "1", "1", "1"]}}, "epsilon": {"f": 0.0}, "leakyrelu_alpha": {"f": 0.2}, "T": {"type": "DT_FLOAT"}, "padding": {"s": "U0FNRQ=="}, "TArgs": {"list": {"type": ["DT_FLOAT"]}}, "dilations": {"list": {"i": ["1", "1", "1", "1"]}}}}, {"name": "StatefulPartitionedCall/inception_resnet_v1/lambda_3/mul", "op": "Mul", "input": ["StatefulPartitionedCall/inception_resnet_v1/Block35_4_Conv2d_1x1/BiasAdd", "StatefulPartitionedCall/inception_resnet_v1/lambda_3/mul/y"], "attr": {"T": {"type": "DT_FLOAT"}}}, {"name": "StatefulPartitionedCall/inception_resnet_v1/add_3/add", "op": "AddV2", "input": ["StatefulPartitionedCall/inception_resnet_v1/Block35_3_Activation/Relu", "StatefulPartitionedCall/inception_resnet_v1/lambda_3/mul"], "attr": {"T": {"type": "DT_FLOAT"}}}, {"name": "StatefulPartitionedCall/inception_resnet_v1/Block35_4_Activation/Relu", "op": "Relu", "input": ["StatefulPartitionedCall/inception_resnet_v1/add_3/add"], "attr": {"T": {"type": "DT_FLOAT"}}}, {"name": "StatefulPartitionedCall/inception_resnet_v1/Block35_5_Branch_0_Conv2d_1x1_Activation/Relu", "op": "_FusedConv2D", "input": ["StatefulPartitionedCall/inception_resnet_v1/Block35_4_Activation/Relu", "StatefulPartitionedCall/inception_resnet_v1/Block35_5_Branch_0_Conv2d_1x1/Conv2D_weights", "StatefulPartitionedCall/inception_resnet_v1/Block35_5_Branch_0_Conv2d_1x1/Conv2D_bn_offset"], "device": "/device:CPU:0", "attr": {"dilations": {"list": {"i": ["1", "1", "1", "1"]}}, "explicit_paddings": {"list": {}}, "leakyrelu_alpha": {"f": 0.2}, "strides": {"list": {"i": ["1", "1", "1", "1"]}}, "data_format": {"s": "TkhXQw=="}, "fused_ops": {"list": {"s": ["Qmlhc0FkZA==", "UmVsdQ=="]}}, "num_args": {"i": "1"}, "num_host_args": {"i": "0"}, "filter_format": {"s": "SFdJTw=="}, "T": {"type": "DT_FLOAT"}, "use_cudnn_on_gpu": {"b": true}, "padding": {"s": "U0FNRQ=="}, "TArgs": {"list": {"type": ["DT_FLOAT"]}}, "epsilon": {"f": 0.0}}}, {"name": "StatefulPartitionedCall/inception_resnet_v1/Block35_5_Branch_1_Conv2d_0a_1x1_Activation/Relu", "op": "_FusedConv2D", "input": ["StatefulPartitionedCall/inception_resnet_v1/Block35_4_Activation/Relu", "StatefulPartitionedCall/inception_resnet_v1/Block35_5_Branch_1_Conv2d_0a_1x1/Conv2D_weights", "StatefulPartitionedCall/inception_resnet_v1/Block35_5_Branch_1_Conv2d_0a_1x1/Conv2D_bn_offset"], "device": "/device:CPU:0", "attr": {"dilations": {"list": {"i": ["1", "1", "1", "1"]}}, "use_cudnn_on_gpu": {"b": true}, "filter_format": {"s": "SFdJTw=="}, "strides": {"list": {"i": ["1", "1", "1", "1"]}}, "TArgs": {"list": {"type": ["DT_FLOAT"]}}, "data_format": {"s": "TkhXQw=="}, "epsilon": {"f": 0.0}, "leakyrelu_alpha": {"f": 0.2}, "num_host_args": {"i": "0"}, "T": {"type": "DT_FLOAT"}, "padding": {"s": "U0FNRQ=="}, "explicit_paddings": {"list": {}}, "fused_ops": {"list": {"s": ["Qmlhc0FkZA==", "UmVsdQ=="]}}, "num_args": {"i": "1"}}}, {"name": "StatefulPartitionedCall/inception_resnet_v1/Block35_5_Branch_2_Conv2d_0a_1x1_Activation/Relu", "op": "_FusedConv2D", "input": ["StatefulPartitionedCall/inception_resnet_v1/Block35_4_Activation/Relu", "StatefulPartitionedCall/inception_resnet_v1/Block35_5_Branch_2_Conv2d_0a_1x1/Conv2D_weights", "StatefulPartitionedCall/inception_resnet_v1/Block35_5_Branch_2_Conv2d_0a_1x1/Conv2D_bn_offset"], "device": "/device:CPU:0", "attr": {"leakyrelu_alpha": {"f": 0.2}, "num_host_args": {"i": "0"}, "filter_format": {"s": "SFdJTw=="}, "num_args": {"i": "1"}, "strides": {"list": {"i": ["1", "1", "1", "1"]}}, "epsilon": {"f": 0.0}, "TArgs": {"list": {"type": ["DT_FLOAT"]}}, "dilations": {"list": {"i": ["1", "1", "1", "1"]}}, "fused_ops": {"list": {"s": ["Qmlhc0FkZA==", "UmVsdQ=="]}}, "use_cudnn_on_gpu": {"b": true}, "T": {"type": "DT_FLOAT"}, "data_format": {"s": "TkhXQw=="}, "explicit_paddings": {"list": {}}, "padding": {"s": "U0FNRQ=="}}}, {"name": "StatefulPartitionedCall/inception_resnet_v1/Block35_5_Branch_1_Conv2d_0b_3x3_Activation/Relu", "op": "_FusedConv2D", "input": ["StatefulPartitionedCall/inception_resnet_v1/Block35_5_Branch_1_Conv2d_0a_1x1_Activation/Relu", "StatefulPartitionedCall/inception_resnet_v1/Block35_5_Branch_1_Conv2d_0b_3x3/Conv2D_weights", "StatefulPartitionedCall/inception_resnet_v1/Block35_5_Branch_1_Conv2d_0b_3x3/Conv2D_bn_offset"], "device": "/device:CPU:0", "attr": {"T": {"type": "DT_FLOAT"}, "TArgs": {"list": {"type": ["DT_FLOAT"]}}, "strides": {"list": {"i": ["1", "1", "1", "1"]}}, "dilations": {"list": {"i": ["1", "1", "1", "1"]}}, "num_host_args": {"i": "0"}, "use_cudnn_on_gpu": {"b": true}, "leakyrelu_alpha": {"f": 0.2}, "filter_format": {"s": "SFdJTw=="}, "padding": {"s": "U0FNRQ=="}, "num_args": {"i": "1"}, "fused_ops": {"list": {"s": ["Qmlhc0FkZA==", "UmVsdQ=="]}}, "data_format": {"s": "TkhXQw=="}, "explicit_paddings": {"list": {}}, "epsilon": {"f": 0.0}}}, {"name": "StatefulPartitionedCall/inception_resnet_v1/Block35_5_Branch_2_Conv2d_0b_3x3_Activation/Relu", "op": "_FusedConv2D", "input": ["StatefulPartitionedCall/inception_resnet_v1/Block35_5_Branch_2_Conv2d_0a_1x1_Activation/Relu", "StatefulPartitionedCall/inception_resnet_v1/Block35_5_Branch_2_Conv2d_0b_3x3/Conv2D_weights", "StatefulPartitionedCall/inception_resnet_v1/Block35_5_Branch_2_Conv2d_0b_3x3/Conv2D_bn_offset"], "device": "/device:CPU:0", "attr": {"explicit_paddings": {"list": {}}, "epsilon": {"f": 0.0}, "leakyrelu_alpha": {"f": 0.2}, "use_cudnn_on_gpu": {"b": true}, "num_args": {"i": "1"}, "filter_format": {"s": "SFdJTw=="}, "dilations": {"list": {"i": ["1", "1", "1", "1"]}}, "fused_ops": {"list": {"s": ["Qmlhc0FkZA==", "UmVsdQ=="]}}, "TArgs": {"list": {"type": ["DT_FLOAT"]}}, "data_format": {"s": "TkhXQw=="}, "strides": {"list": {"i": ["1", "1", "1", "1"]}}, "T": {"type": "DT_FLOAT"}, "padding": {"s": "U0FNRQ=="}, "num_host_args": {"i": "0"}}}, {"name": "StatefulPartitionedCall/inception_resnet_v1/Block35_5_Branch_2_Conv2d_0c_3x3_Activation/Relu", "op": "_FusedConv2D", "input": ["StatefulPartitionedCall/inception_resnet_v1/Block35_5_Branch_2_Conv2d_0b_3x3_Activation/Relu", "StatefulPartitionedCall/inception_resnet_v1/Block35_5_Branch_2_Conv2d_0c_3x3/Conv2D_weights", "StatefulPartitionedCall/inception_resnet_v1/Block35_5_Branch_2_Conv2d_0c_3x3/Conv2D_bn_offset"], "device": "/device:CPU:0", "attr": {"data_format": {"s": "TkhXQw=="}, "fused_ops": {"list": {"s": ["Qmlhc0FkZA==", "UmVsdQ=="]}}, "use_cudnn_on_gpu": {"b": true}, "num_host_args": {"i": "0"}, "num_args": {"i": "1"}, "epsilon": {"f": 0.0}, "strides": {"list": {"i": ["1", "1", "1", "1"]}}, "T": {"type": "DT_FLOAT"}, "TArgs": {"list": {"type": ["DT_FLOAT"]}}, "leakyrelu_alpha": {"f": 0.2}, "dilations": {"list": {"i": ["1", "1", "1", "1"]}}, "filter_format": {"s": "SFdJTw=="}, "explicit_paddings": {"list": {}}, "padding": {"s": "U0FNRQ=="}}}, {"name": "StatefulPartitionedCall/inception_resnet_v1/Block35_5_Concatenate/concat", "op": "ConcatV2", "input": ["StatefulPartitionedCall/inception_resnet_v1/Block35_5_Branch_0_Conv2d_1x1_Activation/Relu", "StatefulPartitionedCall/inception_resnet_v1/Block35_5_Branch_1_Conv2d_0b_3x3_Activation/Relu", "StatefulPartitionedCall/inception_resnet_v1/Block35_5_Branch_2_Conv2d_0c_3x3_Activation/Relu", "StatefulPartitionedCall/inception_resnet_v1/Block35_5_Concatenate/concat/axis"], "attr": {"T": {"type": "DT_FLOAT"}, "N": {"i": "3"}, "Tidx": {"type": "DT_INT32"}}}, {"name": "StatefulPartitionedCall/inception_resnet_v1/Block35_5_Conv2d_1x1/BiasAdd", "op": "_FusedConv2D", "input": ["StatefulPartitionedCall/inception_resnet_v1/Block35_5_Concatenate/concat", "StatefulPartitionedCall/inception_resnet_v1/Block35_5_Conv2d_1x1/Conv2D/ReadVariableOp", "StatefulPartitionedCall/inception_resnet_v1/Block35_5_Conv2d_1x1/BiasAdd/ReadVariableOp"], "device": "/device:CPU:0", "attr": {"fused_ops": {"list": {"s": ["Qmlhc0FkZA=="]}}, "filter_format": {"s": "SFdJTw=="}, "explicit_paddings": {"list": {}}, "dilations": {"list": {"i": ["1", "1", "1", "1"]}}, "strides": {"list": {"i": ["1", "1", "1", "1"]}}, "T": {"type": "DT_FLOAT"}, "TArgs": {"list": {"type": ["DT_FLOAT"]}}, "use_cudnn_on_gpu": {"b": true}, "epsilon": {"f": 0.0}, "num_args": {"i": "1"}, "data_format": {"s": "TkhXQw=="}, "num_host_args": {"i": "0"}, "padding": {"s": "U0FNRQ=="}, "leakyrelu_alpha": {"f": 0.2}}}, {"name": "StatefulPartitionedCall/inception_resnet_v1/lambda_4/mul", "op": "Mul", "input": ["StatefulPartitionedCall/inception_resnet_v1/Block35_5_Conv2d_1x1/BiasAdd", "StatefulPartitionedCall/inception_resnet_v1/lambda_4/mul/y"], "attr": {"T": {"type": "DT_FLOAT"}}}, {"name": "StatefulPartitionedCall/inception_resnet_v1/add_4/add", "op": "AddV2", "input": ["StatefulPartitionedCall/inception_resnet_v1/Block35_4_Activation/Relu", "StatefulPartitionedCall/inception_resnet_v1/lambda_4/mul"], "attr": {"T": {"type": "DT_FLOAT"}}}, {"name": "StatefulPartitionedCall/inception_resnet_v1/Block35_5_Activation/Relu", "op": "Relu", "input": ["StatefulPartitionedCall/inception_resnet_v1/add_4/add"], "attr": {"T": {"type": "DT_FLOAT"}}}, {"name": "StatefulPartitionedCall/inception_resnet_v1/Mixed_6a_Branch_2_MaxPool_1a_3x3/MaxPool", "op": "MaxPool", "input": ["StatefulPartitionedCall/inception_resnet_v1/Block35_5_Activation/Relu"], "attr": {"explicit_paddings": {"list": {}}, "data_format": {"s": "TkhXQw=="}, "T": {"type": "DT_FLOAT"}, "ksize": {"list": {"i": ["1", "3", "3", "1"]}}, "padding": {"s": "VkFMSUQ="}, "strides": {"list": {"i": ["1", "2", "2", "1"]}}}}, {"name": "StatefulPartitionedCall/inception_resnet_v1/Mixed_6a_Branch_0_Conv2d_1a_3x3_Activation/Relu", "op": "_FusedConv2D", "input": ["StatefulPartitionedCall/inception_resnet_v1/Block35_5_Activation/Relu", "StatefulPartitionedCall/inception_resnet_v1/Mixed_6a_Branch_0_Conv2d_1a_3x3/Conv2D_weights", "StatefulPartitionedCall/inception_resnet_v1/Mixed_6a_Branch_0_Conv2d_1a_3x3/Conv2D_bn_offset"], "device": "/device:CPU:0", "attr": {"leakyrelu_alpha": {"f": 0.2}, "dilations": {"list": {"i": ["1", "1", "1", "1"]}}, "explicit_paddings": {"list": {}}, "T": {"type": "DT_FLOAT"}, "fused_ops": {"list": {"s": ["Qmlhc0FkZA==", "UmVsdQ=="]}}, "use_cudnn_on_gpu": {"b": true}, "filter_format": {"s": "SFdJTw=="}, "epsilon": {"f": 0.0}, "padding": {"s": "VkFMSUQ="}, "num_args": {"i": "1"}, "TArgs": {"list": {"type": ["DT_FLOAT"]}}, "num_host_args": {"i": "0"}, "strides": {"list": {"i": ["1", "2", "2", "1"]}}, "data_format": {"s": "TkhXQw=="}}}, {"name": "StatefulPartitionedCall/inception_resnet_v1/Mixed_6a_Branch_1_Conv2d_0a_1x1_Activation/Relu", "op": "_FusedConv2D", "input": ["StatefulPartitionedCall/inception_resnet_v1/Block35_5_Activation/Relu", "StatefulPartitionedCall/inception_resnet_v1/Mixed_6a_Branch_1_Conv2d_0a_1x1/Conv2D_weights", "StatefulPartitionedCall/inception_resnet_v1/Mixed_6a_Branch_1_Conv2d_0a_1x1/Conv2D_bn_offset"], "device": "/device:CPU:0", "attr": {"TArgs": {"list": {"type": ["DT_FLOAT"]}}, "use_cudnn_on_gpu": {"b": true}, "num_host_args": {"i": "0"}, "filter_format": {"s": "SFdJTw=="}, "strides": {"list": {"i": ["1", "1", "1", "1"]}}, "num_args": {"i": "1"}, "fused_ops": {"list": {"s": ["Qmlhc0FkZA==", "UmVsdQ=="]}}, "data_format": {"s": "TkhXQw=="}, "explicit_paddings": {"list": {}}, "T": {"type": "DT_FLOAT"}, "leakyrelu_alpha": {"f": 0.2}, "epsilon": {"f": 0.0}, "dilations": {"list": {"i": ["1", "1", "1", "1"]}}, "padding": {"s": "U0FNRQ=="}}}, {"name": "StatefulPartitionedCall/inception_resnet_v1/Mixed_6a_Branch_1_Conv2d_0b_3x3_Activation/Relu", "op": "_FusedConv2D", "input": ["StatefulPartitionedCall/inception_resnet_v1/Mixed_6a_Branch_1_Conv2d_0a_1x1_Activation/Relu", "StatefulPartitionedCall/inception_resnet_v1/Mixed_6a_Branch_1_Conv2d_0b_3x3/Conv2D_weights", "StatefulPartitionedCall/inception_resnet_v1/Mixed_6a_Branch_1_Conv2d_0b_3x3/Conv2D_bn_offset"], "device": "/device:CPU:0", "attr": {"num_host_args": {"i": "0"}, "TArgs": {"list": {"type": ["DT_FLOAT"]}}, "strides": {"list": {"i": ["1", "1", "1", "1"]}}, "padding": {"s": "U0FNRQ=="}, "data_format": {"s": "TkhXQw=="}, "T": {"type": "DT_FLOAT"}, "explicit_paddings": {"list": {}}, "num_args": {"i": "1"}, "filter_format": {"s": "SFdJTw=="}, "fused_ops": {"list": {"s": ["Qmlhc0FkZA==", "UmVsdQ=="]}}, "use_cudnn_on_gpu": {"b": true}, "dilations": {"list": {"i": ["1", "1", "1", "1"]}}, "leakyrelu_alpha": {"f": 0.2}, "epsilon": {"f": 0.0}}}, {"name": "StatefulPartitionedCall/inception_resnet_v1/Mixed_6a_Branch_1_Conv2d_1a_3x3_Activation/Relu", "op": "_FusedConv2D", "input": ["StatefulPartitionedCall/inception_resnet_v1/Mixed_6a_Branch_1_Conv2d_0b_3x3_Activation/Relu", "StatefulPartitionedCall/inception_resnet_v1/Mixed_6a_Branch_1_Conv2d_1a_3x3/Conv2D_weights", "StatefulPartitionedCall/inception_resnet_v1/Mixed_6a_Branch_1_Conv2d_1a_3x3/Conv2D_bn_offset"], "device": "/device:CPU:0", "attr": {"data_format": {"s": "TkhXQw=="}, "TArgs": {"list": {"type": ["DT_FLOAT"]}}, "padding": {"s": "VkFMSUQ="}, "leakyrelu_alpha": {"f": 0.2}, "fused_ops": {"list": {"s": ["Qmlhc0FkZA==", "UmVsdQ=="]}}, "T": {"type": "DT_FLOAT"}, "filter_format": {"s": "SFdJTw=="}, "use_cudnn_on_gpu": {"b": true}, "dilations": {"list": {"i": ["1", "1", "1", "1"]}}, "explicit_paddings": {"list": {}}, "num_args": {"i": "1"}, "strides": {"list": {"i": ["1", "2", "2", "1"]}}, "epsilon": {"f": 0.0}, "num_host_args": {"i": "0"}}}, {"name": "StatefulPartitionedCall/inception_resnet_v1/Mixed_6a/concat", "op": "ConcatV2", "input": ["StatefulPartitionedCall/inception_resnet_v1/Mixed_6a_Branch_0_Conv2d_1a_3x3_Activation/Relu", "StatefulPartitionedCall/inception_resnet_v1/Mixed_6a_Branch_1_Conv2d_1a_3x3_Activation/Relu", "StatefulPartitionedCall/inception_resnet_v1/Mixed_6a_Branch_2_MaxPool_1a_3x3/MaxPool", "StatefulPartitionedCall/inception_resnet_v1/Mixed_6a/concat/axis"], "attr": {"Tidx": {"type": "DT_INT32"}, "T": {"type": "DT_FLOAT"}, "N": {"i": "3"}}}, {"name": "StatefulPartitionedCall/inception_resnet_v1/Block17_1_Branch_0_Conv2d_1x1_Activation/Relu", "op": "_FusedConv2D", "input": ["StatefulPartitionedCall/inception_resnet_v1/Mixed_6a/concat", "StatefulPartitionedCall/inception_resnet_v1/Block17_1_Branch_0_Conv2d_1x1/Conv2D_weights", "StatefulPartitionedCall/inception_resnet_v1/Block17_1_Branch_0_Conv2d_1x1/Conv2D_bn_offset"], "device": "/device:CPU:0", "attr": {"leakyrelu_alpha": {"f": 0.2}, "strides": {"list": {"i": ["1", "1", "1", "1"]}}, "dilations": {"list": {"i": ["1", "1", "1", "1"]}}, "epsilon": {"f": 0.0}, "filter_format": {"s": "SFdJTw=="}, "num_host_args": {"i": "0"}, "explicit_paddings": {"list": {}}, "padding": {"s": "U0FNRQ=="}, "T": {"type": "DT_FLOAT"}, "data_format": {"s": "TkhXQw=="}, "fused_ops": {"list": {"s": ["Qmlhc0FkZA==", "UmVsdQ=="]}}, "TArgs": {"list": {"type": ["DT_FLOAT"]}}, "num_args": {"i": "1"}, "use_cudnn_on_gpu": {"b": true}}}, {"name": "StatefulPartitionedCall/inception_resnet_v1/Block17_1_Branch_1_Conv2d_0a_1x1_Activation/Relu", "op": "_FusedConv2D", "input": ["StatefulPartitionedCall/inception_resnet_v1/Mixed_6a/concat", "StatefulPartitionedCall/inception_resnet_v1/Block17_1_Branch_1_Conv2d_0a_1x1/Conv2D_weights", "StatefulPartitionedCall/inception_resnet_v1/Block17_1_Branch_1_Conv2d_0a_1x1/Conv2D_bn_offset"], "device": "/device:CPU:0", "attr": {"padding": {"s": "U0FNRQ=="}, "use_cudnn_on_gpu": {"b": true}, "dilations": {"list": {"i": ["1", "1", "1", "1"]}}, "epsilon": {"f": 0.0}, "num_host_args": {"i": "0"}, "T": {"type": "DT_FLOAT"}, "fused_ops": {"list": {"s": ["Qmlhc0FkZA==", "UmVsdQ=="]}}, "data_format": {"s": "TkhXQw=="}, "filter_format": {"s": "SFdJTw=="}, "strides": {"list": {"i": ["1", "1", "1", "1"]}}, "leakyrelu_alpha": {"f": 0.2}, "explicit_paddings": {"list": {}}, "TArgs": {"list": {"type": ["DT_FLOAT"]}}, "num_args": {"i": "1"}}}, {"name": "StatefulPartitionedCall/inception_resnet_v1/Block17_1_Branch_1_Conv2d_0b_1x7_Activation/Relu", "op": "_FusedConv2D", "input": ["StatefulPartitionedCall/inception_resnet_v1/Block17_1_Branch_1_Conv2d_0a_1x1_Activation/Relu", "StatefulPartitionedCall/inception_resnet_v1/Block17_1_Branch_1_Conv2d_0b_1x7/Conv2D_weights", "StatefulPartitionedCall/inception_resnet_v1/Block17_1_Branch_1_Conv2d_0b_1x7/Conv2D_bn_offset"], "device": "/device:CPU:0", "attr": {"dilations": {"list": {"i": ["1", "1", "1", "1"]}}, "num_host_args": {"i": "0"}, "TArgs": {"list": {"type": ["DT_FLOAT"]}}, "T": {"type": "DT_FLOAT"}, "padding": {"s": "U0FNRQ=="}, "use_cudnn_on_gpu": {"b": true}, "filter_format": {"s": "SFdJTw=="}, "leakyrelu_alpha": {"f": 0.2}, "explicit_paddings": {"list": {}}, "data_format": {"s": "TkhXQw=="}, "epsilon": {"f": 0.0}, "fused_ops": {"list": {"s": ["Qmlhc0FkZA==", "UmVsdQ=="]}}, "strides": {"list": {"i": ["1", "1", "1", "1"]}}, "num_args": {"i": "1"}}}, {"name": "StatefulPartitionedCall/inception_resnet_v1/Block17_1_Branch_1_Conv2d_0c_7x1_Activation/Relu", "op": "_FusedConv2D", "input": ["StatefulPartitionedCall/inception_resnet_v1/Block17_1_Branch_1_Conv2d_0b_1x7_Activation/Relu", "StatefulPartitionedCall/inception_resnet_v1/Block17_1_Branch_1_Conv2d_0c_7x1/Conv2D_weights", "StatefulPartitionedCall/inception_resnet_v1/Block17_1_Branch_1_Conv2d_0c_7x1/Conv2D_bn_offset"], "device": "/device:CPU:0", "attr": {"padding": {"s": "U0FNRQ=="}, "T": {"type": "DT_FLOAT"}, "fused_ops": {"list": {"s": ["Qmlhc0FkZA==", "UmVsdQ=="]}}, "TArgs": {"list": {"type": ["DT_FLOAT"]}}, "num_args": {"i": "1"}, "leakyrelu_alpha": {"f": 0.2}, "epsilon": {"f": 0.0}, "strides": {"list": {"i": ["1", "1", "1", "1"]}}, "dilations": {"list": {"i": ["1", "1", "1", "1"]}}, "num_host_args": {"i": "0"}, "explicit_paddings": {"list": {}}, "filter_format": {"s": "SFdJTw=="}, "data_format": {"s": "TkhXQw=="}, "use_cudnn_on_gpu": {"b": true}}}, {"name": "StatefulPartitionedCall/inception_resnet_v1/Block17_1_Concatenate/concat", "op": "ConcatV2", "input": ["StatefulPartitionedCall/inception_resnet_v1/Block17_1_Branch_0_Conv2d_1x1_Activation/Relu", "StatefulPartitionedCall/inception_resnet_v1/Block17_1_Branch_1_Conv2d_0c_7x1_Activation/Relu", "StatefulPartitionedCall/inception_resnet_v1/Block17_1_Concatenate/concat/axis"], "attr": {"Tidx": {"type": "DT_INT32"}, "T": {"type": "DT_FLOAT"}, "N": {"i": "2"}}}, {"name": "StatefulPartitionedCall/inception_resnet_v1/Block17_1_Conv2d_1x1/BiasAdd", "op": "_FusedConv2D", "input": ["StatefulPartitionedCall/inception_resnet_v1/Block17_1_Concatenate/concat", "StatefulPartitionedCall/inception_resnet_v1/Block17_1_Conv2d_1x1/Conv2D/ReadVariableOp", "StatefulPartitionedCall/inception_resnet_v1/Block17_1_Conv2d_1x1/BiasAdd/ReadVariableOp"], "device": "/device:CPU:0", "attr": {"data_format": {"s": "TkhXQw=="}, "use_cudnn_on_gpu": {"b": true}, "T": {"type": "DT_FLOAT"}, "epsilon": {"f": 0.0}, "padding": {"s": "U0FNRQ=="}, "num_host_args": {"i": "0"}, "filter_format": {"s": "SFdJTw=="}, "num_args": {"i": "1"}, "TArgs": {"list": {"type": ["DT_FLOAT"]}}, "strides": {"list": {"i": ["1", "1", "1", "1"]}}, "explicit_paddings": {"list": {}}, "fused_ops": {"list": {"s": ["Qmlhc0FkZA=="]}}, "dilations": {"list": {"i": ["1", "1", "1", "1"]}}, "leakyrelu_alpha": {"f": 0.2}}}, {"name": "StatefulPartitionedCall/inception_resnet_v1/lambda_5/mul", "op": "Mul", "input": ["StatefulPartitionedCall/inception_resnet_v1/Block17_1_Conv2d_1x1/BiasAdd", "StatefulPartitionedCall/inception_resnet_v1/lambda_5/mul/y"], "attr": {"T": {"type": "DT_FLOAT"}}}, {"name": "StatefulPartitionedCall/inception_resnet_v1/add_5/add", "op": "AddV2", "input": ["StatefulPartitionedCall/inception_resnet_v1/Mixed_6a/concat", "StatefulPartitionedCall/inception_resnet_v1/lambda_5/mul"], "attr": {"T": {"type": "DT_FLOAT"}}}, {"name": "StatefulPartitionedCall/inception_resnet_v1/Block17_1_Activation/Relu", "op": "Relu", "input": ["StatefulPartitionedCall/inception_resnet_v1/add_5/add"], "attr": {"T": {"type": "DT_FLOAT"}}}, {"name": "StatefulPartitionedCall/inception_resnet_v1/Block17_2_Branch_0_Conv2d_1x1_Activation/Relu", "op": "_FusedConv2D", "input": ["StatefulPartitionedCall/inception_resnet_v1/Block17_1_Activation/Relu", "StatefulPartitionedCall/inception_resnet_v1/Block17_2_Branch_0_Conv2d_1x1/Conv2D_weights", "StatefulPartitionedCall/inception_resnet_v1/Block17_2_Branch_0_Conv2d_1x1/Conv2D_bn_offset"], "device": "/device:CPU:0", "attr": {"explicit_paddings": {"list": {}}, "num_args": {"i": "1"}, "filter_format": {"s": "SFdJTw=="}, "use_cudnn_on_gpu": {"b": true}, "strides": {"list": {"i": ["1", "1", "1", "1"]}}, "leakyrelu_alpha": {"f": 0.2}, "data_format": {"s": "TkhXQw=="}, "TArgs": {"list": {"type": ["DT_FLOAT"]}}, "fused_ops": {"list": {"s": ["Qmlhc0FkZA==", "UmVsdQ=="]}}, "padding": {"s": "U0FNRQ=="}, "dilations": {"list": {"i": ["1", "1", "1", "1"]}}, "epsilon": {"f": 0.0}, "num_host_args": {"i": "0"}, "T": {"type": "DT_FLOAT"}}}, {"name": "StatefulPartitionedCall/inception_resnet_v1/Block17_2_Branch_2_Conv2d_0a_1x1_Activation/Relu", "op": "_FusedConv2D", "input": ["StatefulPartitionedCall/inception_resnet_v1/Block17_1_Activation/Relu", "StatefulPartitionedCall/inception_resnet_v1/Block17_2_Branch_2_Conv2d_0a_1x1/Conv2D_weights", "StatefulPartitionedCall/inception_resnet_v1/Block17_2_Branch_2_Conv2d_0a_1x1/Conv2D_bn_offset"], "device": "/device:CPU:0", "attr": {"TArgs": {"list": {"type": ["DT_FLOAT"]}}, "num_host_args": {"i": "0"}, "padding": {"s": "U0FNRQ=="}, "leakyrelu_alpha": {"f": 0.2}, "use_cudnn_on_gpu": {"b": true}, "filter_format": {"s": "SFdJTw=="}, "data_format": {"s": "TkhXQw=="}, "T": {"type": "DT_FLOAT"}, "strides": {"list": {"i": ["1", "1", "1", "1"]}}, "fused_ops": {"list": {"s": ["Qmlhc0FkZA==", "UmVsdQ=="]}}, "explicit_paddings": {"list": {}}, "dilations": {"list": {"i": ["1", "1", "1", "1"]}}, "num_args": {"i": "1"}, "epsilon": {"f": 0.0}}}, {"name": "StatefulPartitionedCall/inception_resnet_v1/Block17_2_Branch_2_Conv2d_0b_1x7_Activation/Relu", "op": "_FusedConv2D", "input": ["StatefulPartitionedCall/inception_resnet_v1/Block17_2_Branch_2_Conv2d_0a_1x1_Activation/Relu", "StatefulPartitionedCall/inception_resnet_v1/Block17_2_Branch_2_Conv2d_0b_1x7/Conv2D_weights", "StatefulPartitionedCall/inception_resnet_v1/Block17_2_Branch_2_Conv2d_0b_1x7/Conv2D_bn_offset"], "device": "/device:CPU:0", "attr": {"num_args": {"i": "1"}, "fused_ops": {"list": {"s": ["Qmlhc0FkZA==", "UmVsdQ=="]}}, "use_cudnn_on_gpu": {"b": true}, "TArgs": {"list": {"type": ["DT_FLOAT"]}}, "data_format": {"s": "TkhXQw=="}, "explicit_paddings": {"list": {}}, "epsilon": {"f": 0.0}, "T": {"type": "DT_FLOAT"}, "num_host_args": {"i": "0"}, "filter_format": {"s": "SFdJTw=="}, "dilations": {"list": {"i": ["1", "1", "1", "1"]}}, "strides": {"list": {"i": ["1", "1", "1", "1"]}}, "padding": {"s": "U0FNRQ=="}, "leakyrelu_alpha": {"f": 0.2}}}, {"name": "StatefulPartitionedCall/inception_resnet_v1/Block17_2_Branch_2_Conv2d_0c_7x1_Activation/Relu", "op": "_FusedConv2D", "input": ["StatefulPartitionedCall/inception_resnet_v1/Block17_2_Branch_2_Conv2d_0b_1x7_Activation/Relu", "StatefulPartitionedCall/inception_resnet_v1/Block17_2_Branch_2_Conv2d_0c_7x1/Conv2D_weights", "StatefulPartitionedCall/inception_resnet_v1/Block17_2_Branch_2_Conv2d_0c_7x1/Conv2D_bn_offset"], "device": "/device:CPU:0", "attr": {"data_format": {"s": "TkhXQw=="}, "explicit_paddings": {"list": {}}, "num_args": {"i": "1"}, "epsilon": {"f": 0.0}, "filter_format": {"s": "SFdJTw=="}, "use_cudnn_on_gpu": {"b": true}, "fused_ops": {"list": {"s": ["Qmlhc0FkZA==", "UmVsdQ=="]}}, "num_host_args": {"i": "0"}, "leakyrelu_alpha": {"f": 0.2}, "padding": {"s": "U0FNRQ=="}, "T": {"type": "DT_FLOAT"}, "TArgs": {"list": {"type": ["DT_FLOAT"]}}, "dilations": {"list": {"i": ["1", "1", "1", "1"]}}, "strides": {"list": {"i": ["1", "1", "1", "1"]}}}}, {"name": "StatefulPartitionedCall/inception_resnet_v1/Block17_2_Concatenate/concat", "op": "ConcatV2", "input": ["StatefulPartitionedCall/inception_resnet_v1/Block17_2_Branch_0_Conv2d_1x1_Activation/Relu", "StatefulPartitionedCall/inception_resnet_v1/Block17_2_Branch_2_Conv2d_0c_7x1_Activation/Relu", "StatefulPartitionedCall/inception_resnet_v1/Block17_2_Concatenate/concat/axis"], "attr": {"T": {"type": "DT_FLOAT"}, "N": {"i": "2"}, "Tidx": {"type": "DT_INT32"}}}, {"name": "StatefulPartitionedCall/inception_resnet_v1/Block17_2_Conv2d_1x1/BiasAdd", "op": "_FusedConv2D", "input": ["StatefulPartitionedCall/inception_resnet_v1/Block17_2_Concatenate/concat", "StatefulPartitionedCall/inception_resnet_v1/Block17_2_Conv2d_1x1/Conv2D/ReadVariableOp", "StatefulPartitionedCall/inception_resnet_v1/Block17_2_Conv2d_1x1/BiasAdd/ReadVariableOp"], "device": "/device:CPU:0", "attr": {"TArgs": {"list": {"type": ["DT_FLOAT"]}}, "filter_format": {"s": "SFdJTw=="}, "leakyrelu_alpha": {"f": 0.2}, "dilations": {"list": {"i": ["1", "1", "1", "1"]}}, "use_cudnn_on_gpu": {"b": true}, "T": {"type": "DT_FLOAT"}, "strides": {"list": {"i": ["1", "1", "1", "1"]}}, "padding": {"s": "U0FNRQ=="}, "data_format": {"s": "TkhXQw=="}, "num_args": {"i": "1"}, "num_host_args": {"i": "0"}, "epsilon": {"f": 0.0}, "explicit_paddings": {"list": {}}, "fused_ops": {"list": {"s": ["Qmlhc0FkZA=="]}}}}, {"name": "StatefulPartitionedCall/inception_resnet_v1/lambda_6/mul", "op": "Mul", "input": ["StatefulPartitionedCall/inception_resnet_v1/Block17_2_Conv2d_1x1/BiasAdd", "StatefulPartitionedCall/inception_resnet_v1/lambda_6/mul/y"], "attr": {"T": {"type": "DT_FLOAT"}}}, {"name": "StatefulPartitionedCall/inception_resnet_v1/add_6/add", "op": "AddV2", "input": ["StatefulPartitionedCall/inception_resnet_v1/Block17_1_Activation/Relu", "StatefulPartitionedCall/inception_resnet_v1/lambda_6/mul"], "attr": {"T": {"type": "DT_FLOAT"}}}, {"name": "StatefulPartitionedCall/inception_resnet_v1/Block17_2_Activation/Relu", "op": "Relu", "input": ["StatefulPartitionedCall/inception_resnet_v1/add_6/add"], "attr": {"T": {"type": "DT_FLOAT"}}}, {"name": "StatefulPartitionedCall/inception_resnet_v1/Block17_3_Branch_0_Conv2d_1x1_Activation/Relu", "op": "_FusedConv2D", "input": ["StatefulPartitionedCall/inception_resnet_v1/Block17_2_Activation/Relu", "StatefulPartitionedCall/inception_resnet_v1/Block17_3_Branch_0_Conv2d_1x1/Conv2D_weights", "StatefulPartitionedCall/inception_resnet_v1/Block17_3_Branch_0_Conv2d_1x1/Conv2D_bn_offset"], "device": "/device:CPU:0", "attr": {"TArgs": {"list": {"type": ["DT_FLOAT"]}}, "data_format": {"s": "TkhXQw=="}, "epsilon": {"f": 0.0}, "num_args": {"i": "1"}, "strides": {"list": {"i": ["1", "1", "1", "1"]}}, "dilations": {"list": {"i": ["1", "1", "1", "1"]}}, "padding": {"s": "U0FNRQ=="}, "fused_ops": {"list": {"s": ["Qmlhc0FkZA==", "UmVsdQ=="]}}, "explicit_paddings": {"list": {}}, "T": {"type": "DT_FLOAT"}, "num_host_args": {"i": "0"}, "leakyrelu_alpha": {"f": 0.2}, "filter_format": {"s": "SFdJTw=="}, "use_cudnn_on_gpu": {"b": true}}}, {"name": "StatefulPartitionedCall/inception_resnet_v1/Block17_3_Branch_3_Conv2d_0a_1x1_Activation/Relu", "op": "_FusedConv2D", "input": ["StatefulPartitionedCall/inception_resnet_v1/Block17_2_Activation/Relu", "StatefulPartitionedCall/inception_resnet_v1/Block17_3_Branch_3_Conv2d_0a_1x1/Conv2D_weights", "StatefulPartitionedCall/inception_resnet_v1/Block17_3_Branch_3_Conv2d_0a_1x1/Conv2D_bn_offset"], "device": "/device:CPU:0", "attr": {"T": {"type": "DT_FLOAT"}, "strides": {"list": {"i": ["1", "1", "1", "1"]}}, "TArgs": {"list": {"type": ["DT_FLOAT"]}}, "fused_ops": {"list": {"s": ["Qmlhc0FkZA==", "UmVsdQ=="]}}, "data_format": {"s": "TkhXQw=="}, "use_cudnn_on_gpu": {"b": true}, "leakyrelu_alpha": {"f": 0.2}, "filter_format": {"s": "SFdJTw=="}, "explicit_paddings": {"list": {}}, "dilations": {"list": {"i": ["1", "1", "1", "1"]}}, "num_args": {"i": "1"}, "epsilon": {"f": 0.0}, "num_host_args": {"i": "0"}, "padding": {"s": "U0FNRQ=="}}}, {"name": "StatefulPartitionedCall/inception_resnet_v1/Block17_3_Branch_3_Conv2d_0b_1x7_Activation/Relu", "op": "_FusedConv2D", "input": ["StatefulPartitionedCall/inception_resnet_v1/Block17_3_Branch_3_Conv2d_0a_1x1_Activation/Relu", "StatefulPartitionedCall/inception_resnet_v1/Block17_3_Branch_3_Conv2d_0b_1x7/Conv2D_weights", "StatefulPartitionedCall/inception_resnet_v1/Block17_3_Branch_3_Conv2d_0b_1x7/Conv2D_bn_offset"], "device": "/device:CPU:0", "attr": {"epsilon": {"f": 0.0}, "explicit_paddings": {"list": {}}, "filter_format": {"s": "SFdJTw=="}, "T": {"type": "DT_FLOAT"}, "num_args": {"i": "1"}, "dilations": {"list": {"i": ["1", "1", "1", "1"]}}, "use_cudnn_on_gpu": {"b": true}, "strides": {"list": {"i": ["1", "1", "1", "1"]}}, "data_format": {"s": "TkhXQw=="}, "num_host_args": {"i": "0"}, "leakyrelu_alpha": {"f": 0.2}, "fused_ops": {"list": {"s": ["Qmlhc0FkZA==", "UmVsdQ=="]}}, "padding": {"s": "U0FNRQ=="}, "TArgs": {"list": {"type": ["DT_FLOAT"]}}}}, {"name": "StatefulPartitionedCall/inception_resnet_v1/Block17_3_Branch_3_Conv2d_0c_7x1_Activation/Relu", "op": "_FusedConv2D", "input": ["StatefulPartitionedCall/inception_resnet_v1/Block17_3_Branch_3_Conv2d_0b_1x7_Activation/Relu", "StatefulPartitionedCall/inception_resnet_v1/Block17_3_Branch_3_Conv2d_0c_7x1/Conv2D_weights", "StatefulPartitionedCall/inception_resnet_v1/Block17_3_Branch_3_Conv2d_0c_7x1/Conv2D_bn_offset"], "device": "/device:CPU:0", "attr": {"dilations": {"list": {"i": ["1", "1", "1", "1"]}}, "leakyrelu_alpha": {"f": 0.2}, "T": {"type": "DT_FLOAT"}, "strides": {"list": {"i": ["1", "1", "1", "1"]}}, "padding": {"s": "U0FNRQ=="}, "use_cudnn_on_gpu": {"b": true}, "data_format": {"s": "TkhXQw=="}, "epsilon": {"f": 0.0}, "explicit_paddings": {"list": {}}, "filter_format": {"s": "SFdJTw=="}, "num_args": {"i": "1"}, "num_host_args": {"i": "0"}, "TArgs": {"list": {"type": ["DT_FLOAT"]}}, "fused_ops": {"list": {"s": ["Qmlhc0FkZA==", "UmVsdQ=="]}}}}, {"name": "StatefulPartitionedCall/inception_resnet_v1/Block17_3_Concatenate/concat", "op": "ConcatV2", "input": ["StatefulPartitionedCall/inception_resnet_v1/Block17_3_Branch_0_Conv2d_1x1_Activation/Relu", "StatefulPartitionedCall/inception_resnet_v1/Block17_3_Branch_3_Conv2d_0c_7x1_Activation/Relu", "StatefulPartitionedCall/inception_resnet_v1/Block17_3_Concatenate/concat/axis"], "attr": {"T": {"type": "DT_FLOAT"}, "N": {"i": "2"}, "Tidx": {"type": "DT_INT32"}}}, {"name": "StatefulPartitionedCall/inception_resnet_v1/Block17_3_Conv2d_1x1/BiasAdd", "op": "_FusedConv2D", "input": ["StatefulPartitionedCall/inception_resnet_v1/Block17_3_Concatenate/concat", "StatefulPartitionedCall/inception_resnet_v1/Block17_3_Conv2d_1x1/Conv2D/ReadVariableOp", "StatefulPartitionedCall/inception_resnet_v1/Block17_3_Conv2d_1x1/BiasAdd/ReadVariableOp"], "device": "/device:CPU:0", "attr": {"leakyrelu_alpha": {"f": 0.2}, "explicit_paddings": {"list": {}}, "dilations": {"list": {"i": ["1", "1", "1", "1"]}}, "TArgs": {"list": {"type": ["DT_FLOAT"]}}, "epsilon": {"f": 0.0}, "use_cudnn_on_gpu": {"b": true}, "data_format": {"s": "TkhXQw=="}, "strides": {"list": {"i": ["1", "1", "1", "1"]}}, "padding": {"s": "U0FNRQ=="}, "filter_format": {"s": "SFdJTw=="}, "num_args": {"i": "1"}, "T": {"type": "DT_FLOAT"}, "fused_ops": {"list": {"s": ["Qmlhc0FkZA=="]}}, "num_host_args": {"i": "0"}}}, {"name": "StatefulPartitionedCall/inception_resnet_v1/lambda_7/mul", "op": "Mul", "input": ["StatefulPartitionedCall/inception_resnet_v1/Block17_3_Conv2d_1x1/BiasAdd", "StatefulPartitionedCall/inception_resnet_v1/lambda_7/mul/y"], "attr": {"T": {"type": "DT_FLOAT"}}}, {"name": "StatefulPartitionedCall/inception_resnet_v1/add_7/add", "op": "AddV2", "input": ["StatefulPartitionedCall/inception_resnet_v1/Block17_2_Activation/Relu", "StatefulPartitionedCall/inception_resnet_v1/lambda_7/mul"], "attr": {"T": {"type": "DT_FLOAT"}}}, {"name": "StatefulPartitionedCall/inception_resnet_v1/Block17_3_Activation/Relu", "op": "Relu", "input": ["StatefulPartitionedCall/inception_resnet_v1/add_7/add"], "attr": {"T": {"type": "DT_FLOAT"}}}, {"name": "StatefulPartitionedCall/inception_resnet_v1/Block17_4_Branch_0_Conv2d_1x1_Activation/Relu", "op": "_FusedConv2D", "input": ["StatefulPartitionedCall/inception_resnet_v1/Block17_3_Activation/Relu", "StatefulPartitionedCall/inception_resnet_v1/Block17_4_Branch_0_Conv2d_1x1/Conv2D_weights", "StatefulPartitionedCall/inception_resnet_v1/Block17_4_Branch_0_Conv2d_1x1/Conv2D_bn_offset"], "device": "/device:CPU:0", "attr": {"explicit_paddings": {"list": {}}, "epsilon": {"f": 0.0}, "leakyrelu_alpha":…
atefulPartitionedCall/inception_resnet_v1/Block8_6_Branch_1_Conv2d_0a_1x1/Conv2D_bn_offset"], "device": "/device:CPU:0", "attr": {"padding": {"s": "U0FNRQ=="}, "TArgs": {"list": {"type": ["DT_FLOAT"]}}, "num_args": {"i": "1"}, "T": {"type": "DT_FLOAT"}, "use_cudnn_on_gpu": {"b": true}, "strides": {"list": {"i": ["1", "1", "1", "1"]}}, "leakyrelu_alpha": {"f": 0.2}, "fused_ops": {"list": {"s": ["Qmlhc0FkZA==", "UmVsdQ=="]}}, "filter_format": {"s": "SFdJTw=="}, "dilations": {"list": {"i": ["1", "1", "1", "1"]}}, "epsilon": {"f": 0.0}, "explicit_paddings": {"list": {}}, "data_format": {"s": "TkhXQw=="}, "num_host_args": {"i": "0"}}}, {"name": "StatefulPartitionedCall/inception_resnet_v1/Block8_6_Branch_1_Conv2d_0b_1x3_Activation/Relu", "op": "_FusedConv2D", "input": ["StatefulPartitionedCall/inception_resnet_v1/Block8_6_Branch_1_Conv2d_0a_1x1_Activation/Relu", "StatefulPartitionedCall/inception_resnet_v1/Block8_6_Branch_1_Conv2d_0b_1x3/Conv2D_weights", "StatefulPartitionedCall/inception_resnet_v1/Block8_6_Branch_1_Conv2d_0b_1x3/Conv2D_bn_offset"], "device": "/device:CPU:0", "attr": {"padding": {"s": "U0FNRQ=="}, "leakyrelu_alpha": {"f": 0.2}, "T": {"type": "DT_FLOAT"}, "explicit_paddings": {"list": {}}, "epsilon": {"f": 0.0}, "fused_ops": {"list": {"s": ["Qmlhc0FkZA==", "UmVsdQ=="]}}, "data_format": {"s": "TkhXQw=="}, "strides": {"list": {"i": ["1", "1", "1", "1"]}}, "filter_format": {"s": "SFdJTw=="}, "use_cudnn_on_gpu": {"b": true}, "num_args": {"i": "1"}, "TArgs": {"list": {"type": ["DT_FLOAT"]}}, "num_host_args": {"i": "0"}, "dilations": {"list": {"i": ["1", "1", "1", "1"]}}}}, {"name": "StatefulPartitionedCall/inception_resnet_v1/Block8_6_Branch_1_Conv2d_0c_3x1_Activation/Relu", "op": "_FusedConv2D", "input": ["StatefulPartitionedCall/inception_resnet_v1/Block8_6_Branch_1_Conv2d_0b_1x3_Activation/Relu", "StatefulPartitionedCall/inception_resnet_v1/Block8_6_Branch_1_Conv2d_0c_3x1/Conv2D_weights", "StatefulPartitionedCall/inception_resnet_v1/Block8_6_Branch_1_Conv2d_0c_3x1/Conv2D_bn_offset"], "device": "/device:CPU:0", "attr": {"strides": {"list": {"i": ["1", "1", "1", "1"]}}, "num_host_args": {"i": "0"}, "padding": {"s": "U0FNRQ=="}, "TArgs": {"list": {"type": ["DT_FLOAT"]}}, "epsilon": {"f": 0.0}, "T": {"type": "DT_FLOAT"}, "fused_ops": {"list": {"s": ["Qmlhc0FkZA==", "UmVsdQ=="]}}, "explicit_paddings": {"list": {}}, "filter_format": {"s": "SFdJTw=="}, "num_args": {"i": "1"}, "use_cudnn_on_gpu": {"b": true}, "data_format": {"s": "TkhXQw=="}, "leakyrelu_alpha": {"f": 0.2}, "dilations": {"list": {"i": ["1", "1", "1", "1"]}}}}, {"name": "StatefulPartitionedCall/inception_resnet_v1/Block8_6_Concatenate/concat", "op": "ConcatV2", "input": ["StatefulPartitionedCall/inception_resnet_v1/Block8_6_Branch_0_Conv2d_1x1_Activation/Relu", "StatefulPartitionedCall/inception_resnet_v1/Block8_6_Branch_1_Conv2d_0c_3x1_Activation/Relu", "StatefulPartitionedCall/inception_resnet_v1/Block8_6_Concatenate/concat/axis"], "attr": {"N": {"i": "2"}, "Tidx": {"type": "DT_INT32"}, "T": {"type": "DT_FLOAT"}}}, {"name": "StatefulPartitionedCall/inception_resnet_v1/Block8_6_Conv2d_1x1/BiasAdd", "op": "_FusedConv2D", "input": ["StatefulPartitionedCall/inception_resnet_v1/Block8_6_Concatenate/concat", "StatefulPartitionedCall/inception_resnet_v1/Block8_6_Conv2d_1x1/Conv2D/ReadVariableOp", "StatefulPartitionedCall/inception_resnet_v1/Block8_6_Conv2d_1x1/BiasAdd/ReadVariableOp"], "device": "/device:CPU:0", "attr": {"strides": {"list": {"i": ["1", "1", "1", "1"]}}, "use_cudnn_on_gpu": {"b": true}, "dilations": {"list": {"i": ["1", "1", "1", "1"]}}, "num_args": {"i": "1"}, "num_host_args": {"i": "0"}, "TArgs": {"list": {"type": ["DT_FLOAT"]}}, "fused_ops": {"list": {"s": ["Qmlhc0FkZA=="]}}, "T": {"type": "DT_FLOAT"}, "explicit_paddings": {"list": {}}, "epsilon": {"f": 0.0}, "padding": {"s": "U0FNRQ=="}, "leakyrelu_alpha": {"f": 0.2}, "data_format": {"s": "TkhXQw=="}, "filter_format": {"s": "SFdJTw=="}}}, {"name": "StatefulPartitionedCall/inception_resnet_v1/add_20/add", "op": "AddV2", "input": ["StatefulPartitionedCall/inception_resnet_v1/Block8_5_Activation/Relu", "StatefulPartitionedCall/inception_resnet_v1/Block8_6_Conv2d_1x1/BiasAdd"], "attr": {"T": {"type": "DT_FLOAT"}}}, {"name": "StatefulPartitionedCall/inception_resnet_v1/AvgPool/Mean", "op": "Mean", "input": ["StatefulPartitionedCall/inception_resnet_v1/add_20/add", "StatefulPartitionedCall/inception_resnet_v1/AvgPool/Mean/reduction_indices"], "attr": {"Tidx": {"type": "DT_INT32"}, "keep_dims": {"b": false}, "T": {"type": "DT_FLOAT"}}}, {"name": "StatefulPartitionedCall/inception_resnet_v1/Bottleneck/MatMul", "op": "MatMul", "input": ["StatefulPartitionedCall/inception_resnet_v1/AvgPool/Mean", "StatefulPartitionedCall/inception_resnet_v1/Bottleneck/MatMul/ReadVariableOp"], "device": "/device:CPU:0", "attr": {"transpose_a": {"b": false}, "transpose_b": {"b": false}, "T": {"type": "DT_FLOAT"}}}, {"name": "StatefulPartitionedCall/inception_resnet_v1/Bottleneck_BatchNorm/batchnorm/mul", "op": "Mul", "input": ["StatefulPartitionedCall/inception_resnet_v1/Bottleneck/MatMul", "StatefulPartitionedCall/inception_resnet_v1/Bottleneck_BatchNorm/batchnorm/Rsqrt"], "attr": {"T": {"type": "DT_FLOAT"}}}, {"name": "StatefulPartitionedCall/inception_resnet_v1/Bottleneck_BatchNorm/batchnorm/add_1", "op": "AddV2", "input": ["StatefulPartitionedCall/inception_resnet_v1/Bottleneck_BatchNorm/batchnorm/mul", "StatefulPartitionedCall/inception_resnet_v1/Bottleneck_BatchNorm/batchnorm/sub"], "attr": {"T": {"type": "DT_FLOAT"}}}, {"name": "Identity", "op": "Identity", "input": ["StatefulPartitionedCall/inception_resnet_v1/Bottleneck_BatchNorm/batchnorm/add_1"], "attr": {"T": {"type": "DT_FLOAT"}}}], "library": {}, "versions": {"producer": 1395}}, "weightsManifest": [{"paths": ["group1-shard1of23.bin", "group1-shard2of23.bin", "group1-shard3of23.bin", "group1-shard4of23.bin", "group1-shard5of23.bin", "group1-shard6of23.bin", "group1-shard7of23.bin", "group1-shard8of23.bin", "group1-shard9of23.bin", "group1-shard10of23.bin", "group1-shard11of23.bin", "group1-shard12of23.bin", "group1-shard13of23.bin", "group1-shard14of23.bin", "group1-shard15of23.bin", "group1-shard16of23.bin", "group1-shard17of23.bin", "group1-shard18of23.bin", "group1-shard19of23.bin", "group1-shard20of23.bin", "group1-shard21of23.bin", "group1-shard22of23.bin", "group1-shard23of23.bin"], "weights": [{"name": "StatefulPartitionedCall/inception_resnet_v1/Block35_1_Concatenate/concat/axis", "shape": [], "dtype": "int32"}, {"name": "StatefulPartitionedCall/inception_resnet_v1/Block35_1_Conv2d_1x1/Conv2D/ReadVariableOp", "shape": [1, 1, 96, 256], "dtype": "float32"}, {"name": "StatefulPartitionedCall/inception_resnet_v1/Block35_1_Conv2d_1x1/BiasAdd/ReadVariableOp", "shape": [256], "dtype": "float32"}, {"name": "StatefulPartitionedCall/inception_resnet_v1/lambda/mul/y", "shape": [], "dtype": "float32"}, {"name": "StatefulPartitionedCall/inception_resnet_v1/Block35_2_Concatenate/concat/axis", "shape": [], "dtype": "int32"}, {"name": "StatefulPartitionedCall/inception_resnet_v1/Block35_2_Conv2d_1x1/Conv2D/ReadVariableOp", "shape": [1, 1, 96, 256], "dtype": "float32"}, {"name": "StatefulPartitionedCall/inception_resnet_v1/Block35_2_Conv2d_1x1/BiasAdd/ReadVariableOp", "shape": [256], "dtype": "float32"}, {"name": "StatefulPartitionedCall/inception_resnet_v1/lambda_1/mul/y", "shape": [], "dtype": "float32"}, {"name": "StatefulPartitionedCall/inception_resnet_v1/Block35_3_Concatenate/concat/axis", "shape": [], "dtype": "int32"}, {"name": "StatefulPartitionedCall/inception_resnet_v1/Block35_3_Conv2d_1x1/Conv2D/ReadVariableOp", "shape": [1, 1, 96, 256], "dtype": "float32"}, {"name": "StatefulPartitionedCall/inception_resnet_v1/Block35_3_Conv2d_1x1/BiasAdd/ReadVariableOp", "shape": [256], "dtype": "float32"}, {"name": "StatefulPartitionedCall/inception_resnet_v1/lambda_2/mul/y", "shape": [], "dtype": "float32"}, {"name": "StatefulPartitionedCall/inception_resnet_v1/Block35_4_Concatenate/concat/axis", "shape": [], "dtype": "int32"}, {"name": "StatefulPartitionedCall/inception_resnet_v1/Block35_4_Conv2d_1x1/Conv2D/ReadVariableOp", "shape": [1, 1, 96, 256], "dtype": "float32"}, {"name": "StatefulPartitionedCall/inception_resnet_v1/Block35_4_Conv2d_1x1/BiasAdd/ReadVariableOp", "shape": [256], "dtype": "float32"}, {"name": "StatefulPartitionedCall/inception_resnet_v1/lambda_3/mul/y", "shape": [], "dtype": "float32"}, {"name": "StatefulPartitionedCall/inception_resnet_v1/Block35_5_Concatenate/concat/axis", "shape": [], "dtype": "int32"}, {"name": "StatefulPartitionedCall/inception_resnet_v1/Block35_5_Conv2d_1x1/Conv2D/ReadVariableOp", "shape": [1, 1, 96, 256], "dtype": "float32"}, {"name": "StatefulPartitionedCall/inception_resnet_v1/Block35_5_Conv2d_1x1/BiasAdd/ReadVariableOp", "shape": [256], "dtype": "float32"}, {"name": "StatefulPartitionedCall/inception_resnet_v1/lambda_4/mul/y", "shape": [], "dtype": "float32"}, {"name": "StatefulPartitionedCall/inception_resnet_v1/Mixed_6a/concat/axis", "shape": [], "dtype": "int32"}, {"name": "StatefulPartitionedCall/inception_resnet_v1/Block17_1_Concatenate/concat/axis", "shape": [], "dtype": "int32"}, {"name": "StatefulPartitionedCall/inception_resnet_v1/Block17_1_Conv2d_1x1/Conv2D/ReadVariableOp", "shape": [1, 1, 256, 896], "dtype": "float32"}, {"name": "StatefulPartitionedCall/inception_resnet_v1/Block17_1_Conv2d_1x1/BiasAdd/ReadVariableOp", "shape": [896], "dtype": "float32"}, {"name": "StatefulPartitionedCall/inception_resnet_v1/lambda_5/mul/y", "shape": [], "dtype": "float32"}, {"name": "StatefulPartitionedCall/inception_resnet_v1/Block17_2_Concatenate/concat/axis", "shape": [], "dtype": "int32"}, {"name": "StatefulPartitionedCall/inception_resnet_v1/Block17_2_Conv2d_1x1/Conv2D/ReadVariableOp", "shape": [1, 1, 256, 896], "dtype": "float32"}, {"name": "StatefulPartitionedCall/inception_resnet_v1/Block17_2_Conv2d_1x1/BiasAdd/ReadVariableOp", "shape": [896], "dtype": "float32"}, {"name": "StatefulPartitionedCall/inception_resnet_v1/lambda_6/mul/y", "shape": [], "dtype": "float32"}, {"name": "StatefulPartitionedCall/inception_resnet_v1/Block17_3_Concatenate/concat/axis", "shape": [], "dtype": "int32"}, {"name": "StatefulPartitionedCall/inception_resnet_v1/Block17_3_Conv2d_1x1/Conv2D/ReadVariableOp", "shape": [1, 1, 256, 896], "dtype": "float32"}, {"name": "StatefulPartitionedCall/inception_resnet_v1/Block17_3_Conv2d_1x1/BiasAdd/ReadVariableOp", "shape": [896], "dtype": "float32"}, {"name": "StatefulPartitionedCall/inception_resnet_v1/lambda_7/mul/y", "shape": [], "dtype": "float32"}, {"name": "StatefulPartitionedCall/inception_resnet_v1/Block17_4_Concatenate/concat/axis", "shape": [], "dtype": "int32"}, {"name": "StatefulPartitionedCall/inception_resnet_v1/Block17_4_Conv2d_1x1/Conv2D/ReadVariableOp", "shape": [1, 1, 256, 896], "dtype": "float32"}, {"name": "StatefulPartitionedCall/inception_resnet_v1/Block17_4_Conv2d_1x1/BiasAdd/ReadVariableOp", "shape": [896], "dtype": "float32"}, {"name": "StatefulPartitionedCall/inception_resnet_v1/lambda_8/mul/y", "shape": [], "dtype": "float32"}, {"name": "StatefulPartitionedCall/inception_resnet_v1/Block17_5_Concatenate/concat/axis", "shape": [], "dtype": "int32"}, {"name": "StatefulPartitionedCall/inception_resnet_v1/Block17_5_Conv2d_1x1/Conv2D/ReadVariableOp", "shape": [1, 1, 256, 896], "dtype": "float32"}, {"name": "StatefulPartitionedCall/inception_resnet_v1/Block17_5_Conv2d_1x1/BiasAdd/ReadVariableOp", "shape": [896], "dtype": "float32"}, {"name": "StatefulPartitionedCall/inception_resnet_v1/lambda_9/mul/y", "shape": [], "dtype": "float32"}, {"name": "StatefulPartitionedCall/inception_resnet_v1/Block17_6_Concatenate/concat/axis", "shape": [], "dtype": "int32"}, {"name": "StatefulPartitionedCall/inception_resnet_v1/Block17_6_Conv2d_1x1/Conv2D/ReadVariableOp", "shape": [1, 1, 256, 896], "dtype": "float32"}, {"name": "StatefulPartitionedCall/inception_resnet_v1/Block17_6_Conv2d_1x1/BiasAdd/ReadVariableOp", "shape": [896], "dtype": "float32"}, {"name": "StatefulPartitionedCall/inception_resnet_v1/lambda_10/mul/y", "shape": [], "dtype": "float32"}, {"name": "StatefulPartitionedCall/inception_resnet_v1/Block17_7_Concatenate/concat/axis", "shape": [], "dtype": "int32"}, {"name": "StatefulPartitionedCall/inception_resnet_v1/Block17_7_Conv2d_1x1/Conv2D/ReadVariableOp", "shape": [1, 1, 256, 896], "dtype": "float32"}, {"name": "StatefulPartitionedCall/inception_resnet_v1/Block17_7_Conv2d_1x1/BiasAdd/ReadVariableOp", "shape": [896], "dtype": "float32"}, {"name": "StatefulPartitionedCall/inception_resnet_v1/lambda_11/mul/y", "shape": [], "dtype": "float32"}, {"name": "StatefulPartitionedCall/inception_resnet_v1/Block17_8_Concatenate/concat/axis", "shape": [], "dtype": "int32"}, {"name": "StatefulPartitionedCall/inception_resnet_v1/Block17_8_Conv2d_1x1/Conv2D/ReadVariableOp", "shape": [1, 1, 256, 896], "dtype": "float32"}, {"name": "StatefulPartitionedCall/inception_resnet_v1/Block17_8_Conv2d_1x1/BiasAdd/ReadVariableOp", "shape": [896], "dtype": "float32"}, {"name": "StatefulPartitionedCall/inception_resnet_v1/lambda_12/mul/y", "shape": [], "dtype": "float32"}, {"name": "StatefulPartitionedCall/inception_resnet_v1/Block17_9_Concatenate/concat/axis", "shape": [], "dtype": "int32"}, {"name": "StatefulPartitionedCall/inception_resnet_v1/Block17_9_Conv2d_1x1/Conv2D/ReadVariableOp", "shape": [1, 1, 256, 896], "dtype": "float32"}, {"name": "StatefulPartitionedCall/inception_resnet_v1/Block17_9_Conv2d_1x1/BiasAdd/ReadVariableOp", "shape": [896], "dtype": "float32"}, {"name": "StatefulPartitionedCall/inception_resnet_v1/lambda_13/mul/y", "shape": [], "dtype": "float32"}, {"name": "StatefulPartitionedCall/inception_resnet_v1/Block17_10_Concatenate/concat/axis", "shape": [], "dtype": "int32"}, {"name": "StatefulPartitionedCall/inception_resnet_v1/Block17_10_Conv2d_1x1/Conv2D/ReadVariableOp", "shape": [1, 1, 256, 896], "dtype": "float32"}, {"name": "StatefulPartitionedCall/inception_resnet_v1/Block17_10_Conv2d_1x1/BiasAdd/ReadVariableOp", "shape": [896], "dtype": "float32"}, {"name": "StatefulPartitionedCall/inception_resnet_v1/lambda_14/mul/y", "shape": [], "dtype": "float32"}, {"name": "StatefulPartitionedCall/inception_resnet_v1/Mixed_7a/concat/axis", "shape": [], "dtype": "int32"}, {"name": "StatefulPartitionedCall/inception_resnet_v1/Block8_1_Concatenate/concat/axis", "shape": [], "dtype": "int32"}, {"name": "StatefulPartitionedCall/inception_resnet_v1/Block8_1_Conv2d_1x1/Conv2D/ReadVariableOp", "shape": [1, 1, 384, 1792], "dtype": "float32"}, {"name": "StatefulPartitionedCall/inception_resnet_v1/Block8_1_Conv2d_1x1/BiasAdd/ReadVariableOp", "shape": [1792], "dtype": "float32"}, {"name": "StatefulPartitionedCall/inception_resnet_v1/lambda_15/mul/y", "shape": [], "dtype": "float32"}, {"name": "StatefulPartitionedCall/inception_resnet_v1/Block8_2_Concatenate/concat/axis", "shape": [], "dtype": "int32"}, {"name": "StatefulPartitionedCall/inception_resnet_v1/Block8_2_Conv2d_1x1/Conv2D/ReadVariableOp", "shape": [1, 1, 384, 1792], "dtype": "float32"}, {"name": "StatefulPartitionedCall/inception_resnet_v1/Block8_2_Conv2d_1x1/BiasAdd/ReadVariableOp", "shape": [1792], "dtype": "float32"}, {"name": "StatefulPartitionedCall/inception_resnet_v1/lambda_16/mul/y", "shape": [], "dtype": "float32"}, {"name": "StatefulPartitionedCall/inception_resnet_v1/Block8_3_Concatenate/concat/axis", "shape": [], "dtype": "int32"}, {"name": "StatefulPartitionedCall/inception_resnet_v1/Block8_3_Conv2d_1x1/Conv2D/ReadVariableOp", "shape": [1, 1, 384, 1792], "dtype": "float32"}, {"name": "StatefulPartitionedCall/inception_resnet_v1/Block8_3_Conv2d_1x1/BiasAdd/ReadVariableOp", "shape": [1792], "dtype": "float32"}, {"name": "StatefulPartitionedCall/inception_resnet_v1/lambda_17/mul/y", "shape": [], "dtype": "float32"}, {"name": "StatefulPartitionedCall/inception_resnet_v1/Block8_4_Concatenate/concat/axis", "shape": [], "dtype": "int32"}, {"name": "StatefulPartitionedCall/inception_resnet_v1/Block8_4_Conv2d_1x1/Conv2D/ReadVariableOp", "shape": [1, 1, 384, 1792], "dtype": "float32"}, {"name": "StatefulPartitionedCall/inception_resnet_v1/Block8_4_Conv2d_1x1/BiasAdd/ReadVariableOp", "shape": [1792], "dtype": "float32"}, {"name": "StatefulPartitionedCall/inception_resnet_v1/lambda_18/mul/y", "shape": [], "dtype": "float32"}, {"name": "StatefulPartitionedCall/inception_resnet_v1/Block8_5_Concatenate/concat/axis", "shape": [], "dtype": "int32"}, {"name": "StatefulPartitionedCall/inception_resnet_v1/Block8_5_Conv2d_1x1/Conv2D/ReadVariableOp", "shape": [1, 1, 384, 1792], "dtype": "float32"}, {"name": "StatefulPartitionedCall/inception_resnet_v1/Block8_5_Conv2d_1x1/BiasAdd/ReadVariableOp", "shape": [1792], "dtype": "float32"}, {"name": "StatefulPartitionedCall/inception_resnet_v1/lambda_19/mul/y", "shape": [], "dtype": "float32"}, {"name": "StatefulPartitionedCall/inception_resnet_v1/Block8_6_Concatenate/concat/axis", "shape": [], "dtype": "int32"}, {"name": "StatefulPartitionedCall/inception_resnet_v1/Block8_6_Conv2d_1x1/Conv2D/ReadVariableOp", "shape": [1, 1, 384, 1792], "dtype": "float32"}, {"name": "StatefulPartitionedCall/inception_resnet_v1/Block8_6_Conv2d_1x1/BiasAdd/ReadVariableOp", "shape": [1792], "dtype": "float32"}, {"name": "StatefulPartitionedCall/inception_resnet_v1/AvgPool/Mean/reduction_indices", "shape": [2], "dtype": "int32"}, {"name": "StatefulPartitionedCall/inception_resnet_v1/Bottleneck/MatMul/ReadVariableOp", "shape": [1792, 512], "dtype": "float32"}, {"name": "StatefulPartitionedCall/inception_resnet_v1/Bottleneck_BatchNorm/batchnorm/Rsqrt", "shape": [512], "dtype": "float32"}, {"name": "StatefulPartitionedCall/inception_resnet_v1/Bottleneck_BatchNorm/batchnorm/sub", "shape": [512], "dtype": "float32"}, {"name": "StatefulPartitionedCall/inception_resnet_v1/Conv2d_1a_3x3/Conv2D_weights", "shape": [3, 3, 3, 32], "dtype": "float32"}, {"name": "StatefulPartitionedCall/inception_resnet_v1/Block17_9_Branch_9_Conv2d_0a_1x1/Conv2D_weights", "shape": [1, 1, 896, 128], "dtype": "float32"}, {"name": "StatefulPartitionedCall/inception_resnet_v1/Conv2d_1a_3x3/Conv2D_bn_offset", "shape": [32], "dtype": "float32"}, {"name": "StatefulPartitionedCall/inception_resnet_v1/Conv2d_2a_3x3/Conv2D_weights", "shape": [3, 3, 32, 32], "dtype": "float32"}, {"name": "StatefulPartitionedCall/inception_resnet_v1/Block17_9_Branch_9_Conv2d_0a_1x1/Conv2D_bn_offset", "shape": [128], "dtype": "float32"}, {"name": "StatefulPartitionedCall/inception_resnet_v1/Conv2d_2a_3x3/Conv2D_bn_offset", "shape": [32], "dtype": "float32"}, {"name": "StatefulPartitionedCall/inception_resnet_v1/Conv2d_2b_3x3/Conv2D_weights", "shape": [3, 3, 32, 64], "dtype": "float32"}, {"name": "StatefulPartitionedCall/inception_resnet_v1/Conv2d_2b_3x3/Conv2D_bn_offset", "shape": [64], "dtype": "float32"}, {"name": "StatefulPartitionedCall/inception_resnet_v1/Block17_9_Branch_9_Conv2d_0b_1x7/Conv2D_weights", "shape": [1, 7, 128, 128], "dtype": "float32"}, {"name": "StatefulPartitionedCall/inception_resnet_v1/Conv2d_3b_1x1/Conv2D_weights", "shape": [1, 1, 64, 80], "dtype": "float32"}, {"name": "StatefulPartitionedCall/inception_resnet_v1/Conv2d_3b_1x1/Conv2D_bn_offset", "shape": [80], "dtype": "float32"}, {"name": "StatefulPartitionedCall/inception_resnet_v1/Block17_9_Branch_9_Conv2d_0b_1x7/Conv2D_bn_offset", "shape": [128], "dtype": "float32"}, {"name": "StatefulPartitionedCall/inception_resnet_v1/Conv2d_4a_3x3/Conv2D_weights", "shape": [3, 3, 80, 192], "dtype": "float32"}, {"name": "StatefulPartitionedCall/inception_resnet_v1/Block8_4_Branch_0_Conv2d_1x1/Conv2D_weights", "shape": [1, 1, 1792, 192], "dtype": "float32"}, {"name": "StatefulPartitionedCall/inception_resnet_v1/Conv2d_4a_3x3/Conv2D_bn_offset", "shape": [192], "dtype": "float32"}, {"name": "StatefulPartitionedCall/inception_resnet_v1/Conv2d_4b_3x3/Conv2D_weights", "shape": [3, 3, 192, 256], "dtype": "float32"}, {"name": "StatefulPartitionedCall/inception_resnet_v1/Block17_9_Branch_9_Conv2d_0c_7x1/Conv2D_weights", "shape": [7, 1, 128, 128], "dtype": "float32"}, {"name": "StatefulPartitionedCall/inception_resnet_v1/Conv2d_4b_3x3/Conv2D_bn_offset", "shape": [256], "dtype": "float32"}, {"name": "StatefulPartitionedCall/inception_resnet_v1/Block8_6_Branch_0_Conv2d_1x1/Conv2D_bn_offset", "shape": [192], "dtype": "float32"}, {"name": "StatefulPartitionedCall/inception_resnet_v1/Block35_1_Branch_0_Conv2d_1x1/Conv2D_weights", "shape": [1, 1, 256, 32], "dtype": "float32"}, {"name": "StatefulPartitionedCall/inception_resnet_v1/Block17_9_Branch_9_Conv2d_0c_7x1/Conv2D_bn_offset", "shape": [128], "dtype": "float32"}, {"name": "StatefulPartitionedCall/inception_resnet_v1/Block35_1_Branch_0_Conv2d_1x1/Conv2D_bn_offset", "shape": [32], "dtype": "float32"}, {"name": "StatefulPartitionedCall/inception_resnet_v1/Block8_4_Branch_0_Conv2d_1x1/Conv2D_bn_offset", "shape": [192], "dtype": "float32"}, {"name": "StatefulPartitionedCall/inception_resnet_v1/Block35_1_Branch_1_Conv2d_0a_1x1/Conv2D_weights", "shape": [1, 1, 256, 32], "dtype": "float32"}, {"name": "StatefulPartitionedCall/inception_resnet_v1/Block35_1_Branch_1_Conv2d_0a_1x1/Conv2D_bn_offset", "shape": [32], "dtype": "float32"}, {"name": "StatefulPartitionedCall/inception_resnet_v1/Block35_1_Branch_2_Conv2d_0a_1x1/Conv2D_weights", "shape": [1, 1, 256, 32], "dtype": "float32"}, {"name": "StatefulPartitionedCall/inception_resnet_v1/Block35_1_Branch_2_Conv2d_0a_1x1/Conv2D_bn_offset", "shape": [32], "dtype": "float32"}, {"name": "StatefulPartitionedCall/inception_resnet_v1/Block35_1_Branch_1_Conv2d_0b_3x3/Conv2D_weights", "shape": [3, 3, 32, 32], "dtype": "float32"}, {"name": "StatefulPartitionedCall/inception_resnet_v1/Block35_1_Branch_1_Conv2d_0b_3x3/Conv2D_bn_offset", "shape": [32], "dtype": "float32"}, {"name": "StatefulPartitionedCall/inception_resnet_v1/Block35_1_Branch_2_Conv2d_0b_3x3/Conv2D_weights", "shape": [3, 3, 32, 32], "dtype": "float32"}, {"name": "StatefulPartitionedCall/inception_resnet_v1/Block35_1_Branch_2_Conv2d_0b_3x3/Conv2D_bn_offset", "shape": [32], "dtype": "float32"}, {"name": "StatefulPartitionedCall/inception_resnet_v1/Block17_10_Branch_0_Conv2d_1x1/Conv2D_weights", "shape": [1, 1, 896, 128], "dtype": "float32"}, {"name": "StatefulPartitionedCall/inception_resnet_v1/Block35_1_Branch_2_Conv2d_0c_3x3/Conv2D_weights", "shape": [3, 3, 32, 32], "dtype": "float32"}, {"name": "StatefulPartitionedCall/inception_resnet_v1/Block35_1_Branch_2_Conv2d_0c_3x3/Conv2D_bn_offset", "shape": [32], "dtype": "float32"}, {"name": "StatefulPartitionedCall/inception_resnet_v1/Block17_10_Branch_0_Conv2d_1x1/Conv2D_bn_offset", "shape": [128], "dtype": "float32"}, {"name": "StatefulPartitionedCall/inception_resnet_v1/Block8_4_Branch_4_Conv2d_0a_1x1/Conv2D_weights", "shape": [1, 1, 1792, 192], "dtype": "float32"}, {"name": "StatefulPartitionedCall/inception_resnet_v1/Block35_2_Branch_0_Conv2d_1x1/Conv2D_weights", "shape": [1, 1, 256, 32], "dtype": "float32"}, {"name": "StatefulPartitionedCall/inception_resnet_v1/Block35_2_Branch_0_Conv2d_1x1/Conv2D_bn_offset", "shape": [32], "dtype": "float32"}, {"name": "StatefulPartitionedCall/inception_resnet_v1/Block17_10_Branch_10_Conv2d_0a_1x1/Conv2D_weights", "shape": [1, 1, 896, 128], "dtype": "float32"}, {"name": "StatefulPartitionedCall/inception_resnet_v1/Block35_2_Branch_1_Conv2d_0a_1x1/Conv2D_weights", "shape": [1, 1, 256, 32], "dtype": "float32"}, {"name": "StatefulPartitionedCall/inception_resnet_v1/Block35_2_Branch_1_Conv2d_0a_1x1/Conv2D_bn_offset", "shape": [32], "dtype": "float32"}, {"name": "StatefulPartitionedCall/inception_resnet_v1/Block17_10_Branch_10_Conv2d_0a_1x1/Conv2D_bn_offset", "shape": [128], "dtype": "float32"}, {"name": "StatefulPartitionedCall/inception_resnet_v1/Block35_2_Branch_2_Conv2d_0a_1x1/Conv2D_weights", "shape": [1, 1, 256, 32], "dtype": "float32"}, {"name": "StatefulPartitionedCall/inception_resnet_v1/Block8_4_Branch_4_Conv2d_0a_1x1/Conv2D_bn_offset", "shape": [192], "dtype": "float32"}, {"name": "StatefulPartitionedCall/inception_resnet_v1/Block35_2_Branch_2_Conv2d_0a_1x1/Conv2D_bn_offset", "shape": [32], "dtype": "float32"}, {"name": "StatefulPartitionedCall/inception_resnet_v1/Block35_2_Branch_1_Conv2d_0b_3x3/Conv2D_weights", "shape": [3, 3, 32, 32], "dtype": "float32"}, {"name": "StatefulPartitionedCall/inception_resnet_v1/Block17_10_Branch_10_Conv2d_0b_1x7/Conv2D_weights", "shape": [1, 7, 128, 128], "dtype": "float32"}, {"name": "StatefulPartitionedCall/inception_resnet_v1/Block35_2_Branch_1_Conv2d_0b_3x3/Conv2D_bn_offset", "shape": [32], "dtype": "float32"}, {"name": "StatefulPartitionedCall/inception_resnet_v1/Block8_6_Branch_1_Conv2d_0a_1x1/Conv2D_weights", "shape": [1, 1, 1792, 192], "dtype": "float32"}, {"name": "StatefulPartitionedCall/inception_resnet_v1/Block35_2_Branch_2_Conv2d_0b_3x3/Conv2D_weights", "shape": [3, 3, 32, 32], "dtype": "float32"}, {"name": "StatefulPartitionedCall/inception_resnet_v1/Block17_10_Branch_10_Conv2d_0b_1x7/Conv2D_bn_offset", "shape": [128], "dtype": "float32"}, {"name": "StatefulPartitionedCall/inception_resnet_v1/Block35_2_Branch_2_Conv2d_0b_3x3/Conv2D_bn_offset", "shape": [32], "dtype": "float32"}, {"name": "StatefulPartitionedCall/inception_resnet_v1/Block35_2_Branch_2_Conv2d_0c_3x3/Conv2D_weights", "shape": [3, 3, 32, 32], "dtype": "float32"}, {"name": "StatefulPartitionedCall/inception_resnet_v1/Block35_2_Branch_2_Conv2d_0c_3x3/Conv2D_bn_offset", "shape": [32], "dtype": "float32"}, {"name": "StatefulPartitionedCall/inception_resnet_v1/Block17_10_Branch_10_Conv2d_0c_7x1/Conv2D_weights", "shape": [7, 1, 128, 128], "dtype": "float32"}, {"name": "StatefulPartitionedCall/inception_resnet_v1/Block8_4_Branch_4_Conv2d_0b_1x3/Conv2D_weights", "shape": [1, 3, 192, 192], "dtype": "float32"}, {"name": "StatefulPartitionedCall/inception_resnet_v1/Block35_3_Branch_0_Conv2d_1x1/Conv2D_weights", "shape": [1, 1, 256, 32], "dtype": "float32"}, {"name": "StatefulPartitionedCall/inception_resnet_v1/Block17_10_Branch_10_Conv2d_0c_7x1/Conv2D_bn_offset", "shape": [128], "dtype": "float32"}, {"name": "StatefulPartitionedCall/inception_resnet_v1/Block35_3_Branch_0_Conv2d_1x1/Conv2D_bn_offset", "shape": [32], "dtype": "float32"}, {"name": "StatefulPartitionedCall/inception_resnet_v1/Block35_3_Branch_1_Conv2d_0a_1x1/Conv2D_weights", "shape": [1, 1, 256, 32], "dtype": "float32"}, {"name": "StatefulPartitionedCall/inception_resnet_v1/Block35_3_Branch_1_Conv2d_0a_1x1/Conv2D_bn_offset", "shape": [32], "dtype": "float32"}, {"name": "StatefulPartitionedCall/inception_resnet_v1/Block35_3_Branch_2_Conv2d_0a_1x1/Conv2D_weights", "shape": [1, 1, 256, 32], "dtype": "float32"}, {"name": "StatefulPartitionedCall/inception_resnet_v1/Block8_4_Branch_4_Conv2d_0b_1x3/Conv2D_bn_offset", "shape": [192], "dtype": "float32"}, {"name": "StatefulPartitionedCall/inception_resnet_v1/Block35_3_Branch_2_Conv2d_0a_1x1/Conv2D_bn_offset", "shape": [32], "dtype": "float32"}, {"name": "StatefulPartitionedCall/inception_resnet_v1/Block35_3_Branch_1_Conv2d_0b_3x3/Conv2D_weights", "shape": [3, 3, 32, 32], "dtype": "float32"}, {"name": "StatefulPartitionedCall/inception_resnet_v1/Block35_3_Branch_1_Conv2d_0b_3x3/Conv2D_bn_offset", "shape": [32], "dtype": "float32"}, {"name": "StatefulPartitionedCall/inception_resnet_v1/Block35_3_Branch_2_Conv2d_0b_3x3/Conv2D_weights", "shape": [3, 3, 32, 32], "dtype": "float32"}, {"name": "StatefulPartitionedCall/inception_resnet_v1/Block35_3_Branch_2_Conv2d_0b_3x3/Conv2D_bn_offset", "shape": [32], "dtype": "float32"}, {"name": "StatefulPartitionedCall/inception_resnet_v1/Block35_3_Branch_2_Conv2d_0c_3x3/Conv2D_weights", "shape": [3, 3, 32, 32], "dtype": "float32"}, {"name": "StatefulPartitionedCall/inception_resnet_v1/Mixed_7a_Branch_0_Conv2d_0a_1x1/Conv2D_weights", "shape": [1, 1, 896, 256], "dtype": "float32"}, {"name": "StatefulPartitionedCall/inception_resnet_v1/Block35_3_Branch_2_Conv2d_0c_3x3/Conv2D_bn_offset", "shape": [32], "dtype": "float32"}, {"name": "StatefulPartitionedCall/inception_resnet_v1/Block8_6_Branch_1_Conv2d_0a_1x1/Conv2D_bn_offset", "shape": [192], "dtype": "float32"}, {"name": "StatefulPartitionedCall/inception_resnet_v1/Mixed_7a_Branch_0_Conv2d_0a_1x1/Conv2D_bn_offset", "shape": [256], "dtype": "float32"}, {"name": "StatefulPartitionedCall/inception_resnet_v1/Block35_4_Branch_0_Conv2d_1x1/Conv2D_weights", "shape": [1, 1, 256, 32], "dtype": "float32"}, {"name": "StatefulPartitionedCall/inception_resnet_v1/Block35_4_Branch_0_Conv2d_1x1/Conv2D_bn_offset", "shape": [32], "dtype": "float32"}, {"name": "StatefulPartitionedCall/inception_resnet_v1/Block35_4_Branch_1_Conv2d_0a_1x1/Conv2D_weights", "shape": [1, 1, 256, 32], "dtype": "float32"}, {"name": "StatefulPartitionedCall/inception_resnet_v1/Mixed_7a_Branch_1_Conv2d_0a_1x1/Conv2D_weights", "shape": [1, 1, 896, 256], "dtype": "float32"}, {"name": "StatefulPartitionedCall/inception_resnet_v1/Block35_4_Branch_1_Conv2d_0a_1x1/Conv2D_bn_offset", "shape": [32], "dtype": "float32"}, {"name": "StatefulPartitionedCall/inception_resnet_v1/Block8_4_Branch_4_Conv2d_0c_3x1/Conv2D_weights", "shape": [3, 1, 192, 192], "dtype": "float32"}, {"name": "StatefulPartitionedCall/inception_resnet_v1/Block35_4_Branch_2_Conv2d_0a_1x1/Conv2D_weights", "shape": [1, 1, 256, 32], "dtype": "float32"}, {"name": "StatefulPartitionedCall/inception_resnet_v1/Mixed_7a_Branch_1_Conv2d_0a_1x1/Conv2D_bn_offset", "shape": [256], "dtype": "float32"}, {"name": "StatefulPartitionedCall/inception_resnet_v1/Block35_4_Branch_2_Conv2d_0a_1x1/Conv2D_bn_offset", "shape": [32], "dtype": "float32"}, {"name": "StatefulPartitionedCall/inception_resnet_v1/Block35_4_Branch_1_Conv2d_0b_3x3/Conv2D_weights", "shape": [3, 3, 32, 32], "dtype": "float32"}, {"name": "StatefulPartitionedCall/inception_resnet_v1/Block35_4_Branch_1_Conv2d_0b_3x3/Conv2D_bn_offset", "shape": [32], "dtype": "float32"}, {"name": "StatefulPartitionedCall/inception_resnet_v1/Mixed_7a_Branch_2_Conv2d_0a_1x1/Conv2D_weights", "shape": [1, 1, 896, 256], "dtype": "float32"}, {"name": "StatefulPartitionedCall/inception_resnet_v1/Block35_4_Branch_2_Conv2d_0b_3x3/Conv2D_weights", "shape": [3, 3, 32, 32], "dtype": "float32"}, {"name": "StatefulPartitionedCall/inception_resnet_v1/Block8_4_Branch_4_Conv2d_0c_3x1/Conv2D_bn_offset", "shape": [192], "dtype": "float32"}, {"name": "StatefulPartitionedCall/inception_resnet_v1/Block35_4_Branch_2_Conv2d_0b_3x3/Conv2D_bn_offset", "shape": [32], "dtype": "float32"}, {"name": "StatefulPartitionedCall/inception_resnet_v1/Mixed_7a_Branch_2_Conv2d_0a_1x1/Conv2D_bn_offset", "shape": [256], "dtype": "float32"}, {"name": "StatefulPartitionedCall/inception_resnet_v1/Block35_4_Branch_2_Conv2d_0c_3x3/Conv2D_weights", "shape": [3, 3, 32, 32], "dtype": "float32"}, {"name": "StatefulPartitionedCall/inception_resnet_v1/Block35_4_Branch_2_Conv2d_0c_3x3/Conv2D_bn_offset", "shape": [32], "dtype": "float32"}, {"name": "StatefulPartitionedCall/inception_resnet_v1/Mixed_7a_Branch_0_Conv2d_1a_3x3/Conv2D_weights", "shape": [3, 3, 256, 384], "dtype": "float32"}, {"name": "StatefulPartitionedCall/inception_resnet_v1/Block35_5_Branch_0_Conv2d_1x1/Conv2D_weights", "shape": [1, 1, 256, 32], "dtype": "float32"}, {"name": "StatefulPartitionedCall/inception_resnet_v1/Block35_5_Branch_0_Conv2d_1x1/Conv2D_bn_offset", "shape": [32], "dtype": "float32"}, {"name": "StatefulPartitionedCall/inception_resnet_v1/Mixed_7a_Branch_0_Conv2d_1a_3x3/Conv2D_bn_offset", "shape": [384], "dtype": "float32"}, {"name": "StatefulPartitionedCall/inception_resnet_v1/Block35_5_Branch_1_Conv2d_0a_1x1/Conv2D_weights", "shape": [1, 1, 256, 32], "dtype": "float32"}, {"name": "StatefulPartitionedCall/inception_resnet_v1/Block35_5_Branch_1_Conv2d_0a_1x1/Conv2D_bn_offset", "shape": [32], "dtype": "float32"}, {"name": "StatefulPartitionedCall/inception_resnet_v1/Block35_5_Branch_2_Conv2d_0a_1x1/Conv2D_weights", "shape": [1, 1, 256, 32], "dtype": "float32"}, {"name": "StatefulPartitionedCall/inception_resnet_v1/Mixed_7a_Branch_1_Conv2d_1a_3x3/Conv2D_weights", "shape": [3, 3, 256, 256], "dtype": "float32"}, {"name": "StatefulPartitionedCall/inception_resnet_v1/Block35_5_Branch_2_Conv2d_0a_1x1/Conv2D_bn_offset", "shape": [32], "dtype": "float32"}, {"name": "StatefulPartitionedCall/inception_resnet_v1/Block8_6_Branch_1_Conv2d_0b_1x3/Conv2D_weights", "shape": [1, 3, 192, 192], "dtype": "float32"}, {"name": "StatefulPartitionedCall/inception_resnet_v1/Block35_5_Branch_1_Conv2d_0b_3x3/Conv2D_weights", "shape": [3, 3, 32, 32], "dtype": "float32"}, {"name": "StatefulPartitionedCall/inception_resnet_v1/Mixed_7a_Branch_1_Conv2d_1a_3x3/Conv2D_bn_offset", "shape": [256], "dtype": "float32"}, {"name": "StatefulPartitionedCall/inception_resnet_v1/Block35_5_Branch_1_Conv2d_0b_3x3/Conv2D_bn_offset", "shape": [32], "dtype": "float32"}, {"name": "StatefulPartitionedCall/inception_resnet_v1/Block35_5_Branch_2_Conv2d_0b_3x3/Conv2D_weights", "shape": [3, 3, 32, 32], "dtype": "float32"}, {"name": "StatefulPartitionedCall/inception_resnet_v1/Block35_5_Branch_2_Conv2d_0b_3x3/Conv2D_bn_offset", "shape": [32], "dtype": "float32"}, {"name": "StatefulPartitionedCall/inception_resnet_v1/Mixed_7a_Branch_2_Conv2d_0b_3x3/Conv2D_weights", "shape": [3, 3, 256, 256], "dtype": "float32"}, {"name": "StatefulPartitionedCall/inception_resnet_v1/Block35_5_Branch_2_Conv2d_0c_3x3/Conv2D_weights", "shape": [3, 3, 32, 32], "dtype": "float32"}, {"name": "StatefulPartitionedCall/inception_resnet_v1/Block35_5_Branch_2_Conv2d_0c_3x3/Conv2D_bn_offset", "shape": [32], "dtype": "float32"}, {"name": "StatefulPartitionedCall/inception_resnet_v1/Mixed_7a_Branch_2_Conv2d_0b_3x3/Conv2D_bn_offset", "shape": [256], "dtype": "float32"}, {"name": "StatefulPartitionedCall/inception_resnet_v1/Mixed_6a_Branch_0_Conv2d_1a_3x3/Conv2D_weights", "shape": [3, 3, 256, 384], "dtype": "float32"}, {"name": "StatefulPartitionedCall/inception_resnet_v1/Mixed_6a_Branch_0_Conv2d_1a_3x3/Conv2D_bn_offset", "shape": [384], "dtype": "float32"}, {"name": "StatefulPartitionedCall/inception_resnet_v1/Mixed_7a_Branch_2_Conv2d_1a_3x3/Conv2D_weights", "shape": [3, 3, 256, 256], "dtype": "float32"}, {"name": "StatefulPartitionedCall/inception_resnet_v1/Mixed_6a_Branch_1_Conv2d_0a_1x1/Conv2D_weights", "shape": [1, 1, 256, 192], "dtype": "float32"}, {"name": "StatefulPartitionedCall/inception_resnet_v1/Mixed_6a_Branch_1_Conv2d_0a_1x1/Conv2D_bn_offset", "shape": [192], "dtype": "float32"}, {"name": "StatefulPartitionedCall/inception_resnet_v1/Mixed_7a_Branch_2_Conv2d_1a_3x3/Conv2D_bn_offset", "shape": [256], "dtype": "float32"}, {"name": "StatefulPartitionedCall/inception_resnet_v1/Mixed_6a_Branch_1_Conv2d_0b_3x3/Conv2D_weights", "shape": [3, 3, 192, 192], "dtype": "float32"}, {"name": "StatefulPartitionedCall/inception_resnet_v1/Block8_5_Branch_0_Conv2d_1x1/Conv2D_weights", "shape": [1, 1, 1792, 192], "dtype": "float32"}, {"name": "StatefulPartitionedCall/inception_resnet_v1/Mixed_6a_Branch_1_Conv2d_0b_3x3/Conv2D_bn_offset", "shape": [192], "dtype": "float32"}, {"name": "StatefulPartitionedCall/inception_resnet_v1/Mixed_6a_Branch_1_Conv2d_1a_3x3/Conv2D_weights", "shape": [3, 3, 192, 256], "dtype": "float32"}, {"name": "StatefulPartitionedCall/inception_resnet_v1/Mixed_6a_Branch_1_Conv2d_1a_3x3/Conv2D_bn_offset", "shape": [256], "dtype": "float32"}, {"name": "StatefulPartitionedCall/inception_resnet_v1/Block8_1_Branch_0_Conv2d_1x1/Conv2D_weights", "shape": [1, 1, 1792, 192], "dtype": "float32"}, {"name": "StatefulPartitionedCall/inception_resnet_v1/Block17_1_Branch_0_Conv2d_1x1/Conv2D_weights", "shape": [1, 1, 896, 128], "dtype": "float32"}, {"name": "StatefulPartitionedCall/inception_resnet_v1/Block17_1_Branch_0_Conv2d_1x1/Conv2D_bn_offset", "shape": [128], "dtype": "float32"}, {"name": "StatefulPartitionedCall/inception_resnet_v1/Block8_1_Branch_0_Conv2d_1x1/Conv2D_bn_offset", "shape": [192], "dtype": "float32"}, {"name": "StatefulPartitionedCall/inception_resnet_v1/Block17_1_Branch_1_Conv2d_0a_1x1/Conv2D_weights", "shape": [1, 1, 896, 128], "dtype": "float32"}, {"name": "StatefulPartitionedCall/inception_resnet_v1/Block8_5_Branch_0_Conv2d_1x1/Conv2D_bn_offset", "shape": [192], "dtype": "float32"}, {"name": "StatefulPartitionedCall/inception_resnet_v1/Block17_1_Branch_1_Conv2d_0a_1x1/Conv2D_bn_offset", "shape": [128], "dtype": "float32"}, {"name": "StatefulPartitionedCall/inception_resnet_v1/Block17_1_Branch_1_Conv2d_0b_1x7/Conv2D_weights", "shape": [1, 7, 128, 128], "dtype": "float32"}, {"name": "StatefulPartitionedCall/inception_resnet_v1/Block8_1_Branch_1_Conv2d_0a_1x1/Conv2D_weights", "shape": [1, 1, 1792, 192], "dtype": "float32"}, {"name": "StatefulPartitionedCall/inception_resnet_v1/Block17_1_Branch_1_Conv2d_0b_1x7/Conv2D_bn_offset", "shape": [128], "dtype": "float32"}, {"name": "StatefulPartitionedCall/inception_resnet_v1/Block8_6_Branch_1_Conv2d_0b_1x3/Conv2D_bn_offset", "shape": [192], "dtype": "float32"}, {"name": "StatefulPartitionedCall/inception_resnet_v1/Block17_1_Branch_1_Conv2d_0c_7x1/Conv2D_weights", "shape": [7, 1, 128, 128], "dtype": "float32"}, {"name": "StatefulPartitionedCall/inception_resnet_v1/Block8_1_Branch_1_Conv2d_0a_1x1/Conv2D_bn_offset", "shape": [192], "dtype": "float32"}, {"name": "StatefulPartitionedCall/inception_resnet_v1/Block17_1_Branch_1_Conv2d_0c_7x1/Conv2D_bn_offset", "shape": [128], "dtype": "float32"}, {"name": "StatefulPartitionedCall/inception_resnet_v1/Block17_2_Branch_0_Conv2d_1x1/Conv2D_weights", "shape": [1, 1, 896, 128], "dtype": "float32"}, {"name": "StatefulPartitionedCall/inception_resnet_v1/Block8_1_Branch_1_Conv2d_0b_1x3/Conv2D_weights", "shape": [1, 3, 192, 192], "dtype": "float32"}, {"name": "StatefulPartitionedCall/inception_resnet_v1/Block17_2_Branch_0_Conv2d_1x1/Conv2D_bn_offset", "shape": [128], "dtype": "float32"}, {"name": "StatefulPartitionedCall/inception_resnet_v1/Block8_5_Branch_5_Conv2d_0a_1x1/Conv2D_weights", "shape": [1, 1, 1792, 192], "dtype": "float32"}, {"name": "StatefulPartitionedCall/inception_resnet_v1/Block17_2_Branch_2_Conv2d_0a_1x1/Conv2D_weights", "shape": [1, 1, 896, 128], "dtype": "float32"}, {"name": "StatefulPartitionedCall/inception_resnet_v1/Block8_1_Branch_1_Conv2d_0b_1x3/Conv2D_bn_offset", "shape": [192], "dtype": "float32"}, {"name": "StatefulPartitionedCall/inception_resnet_v1/Block17_2_Branch_2_Conv2d_0a_1x1/Conv2D_bn_offset", "shape": [128], "dtype": "float32"}, {"name": "StatefulPartitionedCall/inception_resnet_v1/Block17_2_Branch_2_Conv2d_0b_1x7/Conv2D_weights", "shape": [1, 7, 128, 128], "dtype": "float32"}, {"name": "StatefulPartitionedCall/inception_resnet_v1/Block17_2_Branch_2_Conv2d_0b_1x7/Conv2D_bn_offset", "shape": [128], "dtype": "float32"}, {"name": "StatefulPartitionedCall/inception_resnet_v1/Block8_1_Branch_1_Conv2d_0c_3x1/Conv2D_weights", "shape": [3, 1, 192, 192], "dtype": "float32"}, {"name": "StatefulPartitionedCall/inception_resnet_v1/Block17_2_Branch_2_Conv2d_0c_7x1/Conv2D_weights", "shape": [7, 1, 128, 128], "dtype": "float32"}, {"name": "StatefulPartitionedCall/inception_resnet_v1/Block8_5_Branch_5_Conv2d_0a_1x1/Conv2D_bn_offset", "shape": [192], "dtype": "float32"}, {"name": "StatefulPartitionedCall/inception_resnet_v1/Block17_2_Branch_2_Conv2d_0c_7x1/Conv2D_bn_offset", "shape": [128], "dtype": "float32"}, {"name": "StatefulPartitionedCall/inception_resnet_v1/Block8_1_Branch_1_Conv2d_0c_3x1/Conv2D_bn_offset", "shape": [192], "dtype": "float32"}, {"name": "StatefulPartitionedCall/inception_resnet_v1/Block17_3_Branch_0_Conv2d_1x1/Conv2D_weights", "shape": [1, 1, 896, 128], "dtype": "float32"}, {"name": "StatefulPartitionedCall/inception_resnet_v1/Block17_3_Branch_0_Conv2d_1x1/Conv2D_bn_offset", "shape": [128], "dtype": "float32"}, {"name": "StatefulPartitionedCall/inception_resnet_v1/Block17_3_Branch_3_Conv2d_0a_1x1/Conv2D_weights", "shape": [1, 1, 896, 128], "dtype": "float32"}, {"name": "StatefulPartitionedCall/inception_resnet_v1/Block17_3_Branch_3_Conv2d_0a_1x1/Conv2D_bn_offset", "shape": [128], "dtype": "float32"}, {"name": "StatefulPartitionedCall/inception_resnet_v1/Block17_3_Branch_3_Conv2d_0b_1x7/Conv2D_weights", "shape": [1, 7, 128, 128], "dtype": "float32"}, {"name": "StatefulPartitionedCall/inception_resnet_v1/Block17_3_Branch_3_Conv2d_0b_1x7/Conv2D_bn_offset", "shape": [128], "dtype": "float32"}, {"name": "StatefulPartitionedCall/inception_resnet_v1/Block17_3_Branch_3_Conv2d_0c_7x1/Conv2D_weights", "shape": [7, 1, 128, 128], "dtype": "float32"}, {"name": "StatefulPartitionedCall/inception_resnet_v1/Block17_3_Branch_3_Conv2d_0c_7x1/Conv2D_bn_offset", "shape": [128], "dtype": "float32"}, {"name": "StatefulPartitionedCall/inception_resnet_v1/Block8_2_Branch_0_Conv2d_1x1/Conv2D_weights", "shape": [1, 1, 1792, 192], "dtype": "float32"}, {"name": "StatefulPartitionedCall/inception_resnet_v1/Block8_5_Branch_5_Conv2d_0b_1x3/Conv2D_weights", "shape": [1, 3, 192, 192], "dtype": "float32"}, {"name": "StatefulPartitionedCall/inception_resnet_v1/Block17_4_Branch_0_Conv2d_1x1/Conv2D_weights", "shape": [1, 1, 896, 128], "dtype": "float32"}, {"name": "StatefulPartitionedCall/inception_resnet_v1/Block8_2_Branch_0_Conv2d_1x1/Conv2D_bn_offset", "shape": [192], "dtype": "float32"}, {"name": "StatefulPartitionedCall/inception_resnet_v1/Block17_4_Branch_0_Conv2d_1x1/Conv2D_bn_offset", "shape": [128], "dtype": "float32"}, {"name": "StatefulPartitionedCall/inception_resnet_v1/Block8_6_Branch_1_Conv2d_0c_3x1/Conv2D_weights", "shape": [3, 1, 192, 192], "dtype": "float32"}, {"name": "StatefulPartitionedCall/inception_resnet_v1/Block17_4_Branch_4_Conv2d_0a_1x1/Conv2D_weights", "shape": [1, 1, 896, 128], "dtype": "float32"}, {"name": "StatefulPartitionedCall/inception_resnet_v1/Block17_4_Branch_4_Conv2d_0a_1x1/Conv2D_bn_offset", "shape": [128], "dtype": "float32"}, {"name": "StatefulPartitionedCall/inception_resnet_v1/Block8_2_Branch_2_Conv2d_0a_1x1/Conv2D_weights", "shape": [1, 1, 1792, 192], "dtype": "float32"}, {"name": "StatefulPartitionedCall/inception_resnet_v1/Block17_4_Branch_4_Conv2d_0b_1x7/Conv2D_weights", "shape": [1, 7, 128, 128], "dtype": "float32"}, {"name": "StatefulPartitionedCall/inception_resnet_v1/Block8_5_Branch_5_Conv2d_0b_1x3/Conv2D_bn_offset", "shape": [192], "dtype": "float32"}, {"name": "StatefulPartitionedCall/inception_resnet_v1/Block17_4_Branch_4_Conv2d_0b_1x7/Conv2D_bn_offset", "shape": [128], "dtype": "float32"}, {"name": "StatefulPartitionedCall/inception_resnet_v1/Block8_2_Branch_2_Conv2d_0a_1x1/Conv2D_bn_offset", "shape": [192], "dtype": "float32"}, {"name": "StatefulPartitionedCall/inception_resnet_v1/Block17_4_Branch_4_Conv2d_0c_7x1/Conv2D_weights", "shape": [7, 1, 128, 128], "dtype": "float32"}, {"name": "StatefulPartitionedCall/inception_resnet_v1/Block17_4_Branch_4_Conv2d_0c_7x1/Conv2D_bn_offset", "shape": [128], "dtype": "float32"}, {"name": "StatefulPartitionedCall/inception_resnet_v1/Block8_2_Branch_2_Conv2d_0b_1x3/Conv2D_weights", "shape": [1, 3, 192, 192], "dtype": "float32"}, {"name": "StatefulPartitionedCall/inception_resnet_v1/Block17_5_Branch_0_Conv2d_1x1/Conv2D_weights", "shape": [1, 1, 896, 128], "dtype": "float32"}, {"name": "StatefulPartitionedCall/inception_resnet_v1/Block17_5_Branch_0_Conv2d_1x1/Conv2D_bn_offset", "shape": [128], "dtype": "float32"}, {"name": "StatefulPartitionedCall/inception_resnet_v1/Block8_2_Branch_2_Conv2d_0b_1x3/Conv2D_bn_offset", "shape": [192], "dtype": "float32"}, {"name": "StatefulPartitionedCall/inception_resnet_v1/Block17_5_Branch_5_Conv2d_0a_1x1/Conv2D_weights", "shape": [1, 1, 896, 128], "dtype": "float32"}, {"name": "StatefulPartitionedCall/inception_resnet_v1/Block8_5_Branch_5_Conv2d_0c_3x1/Conv2D_weights", "shape": [3, 1, 192, 192], "dtype": "float32"}, {"name": "StatefulPartitionedCall/inception_resnet_v1/Block17_5_Branch_5_Conv2d_0a_1x1/Conv2D_bn_offset", "shape": [128], "dtype": "float32"}, {"name": "StatefulPartitionedCall/inception_resnet_v1/Block17_5_Branch_5_Conv2d_0b_1x7/Conv2D_weights", "shape": [1, 7, 128, 128], "dtype": "float32"}, {"name": "StatefulPartitionedCall/inception_resnet_v1/Block8_2_Branch_2_Conv2d_0c_3x1/Conv2D_weights", "shape": [3, 1, 192, 192], "dtype": "float32"}, {"name": "StatefulPartitionedCall/inception_resnet_v1/Block17_5_Branch_5_Conv2d_0b_1x7/Conv2D_bn_offset", "shape": [128], "dtype": "float32"}, {"name": "StatefulPartitionedCall/inception_resnet_v1/Block8_6_Branch_1_Conv2d_0c_3x1/Conv2D_bn_offset", "shape": [192], "dtype": "float32"}, {"name": "StatefulPartitionedCall/inception_resnet_v1/Block17_5_Branch_5_Conv2d_0c_7x1/Conv2D_weights", "shape": [7, 1, 128, 128], "dtype": "float32"}, {"name": "StatefulPartitionedCall/inception_resnet_v1/Block8_2_Branch_2_Conv2d_0c_3x1/Conv2D_bn_offset", "shape": [192], "dtype": "float32"}, {"name": "StatefulPartitionedCall/inception_resnet_v1/Block17_5_Branch_5_Conv2d_0c_7x1/Conv2D_bn_offset", "shape": [128], "dtype": "float32"}, {"name": "StatefulPartitionedCall/inception_resnet_v1/Block8_5_Branch_5_Conv2d_0c_3x1/Conv2D_bn_offset", "shape": [192], "dtype": "float32"}, {"name": "StatefulPartitionedCall/inception_resnet_v1/Block17_6_Branch_0_Conv2d_1x1/Conv2D_weights", "shape": [1, 1, 896, 128], "dtype": "float32"}, {"name": "StatefulPartitionedCall/inception_resnet_v1/Block17_6_Branch_0_Conv2d_1x1/Conv2D_bn_offset", "shape": [128], "dtype": "float32"}, {"name": "StatefulPartitionedCall/inception_resnet_v1/Block17_6_Branch_6_Conv2d_0a_1x1/Conv2D_weights", "shape": [1, 1, 896, 128], "dtype": "float32"}, {"name": "StatefulPartitionedCall/inception_resnet_v1/Block17_6_Branch_6_Conv2d_0a_1x1/Conv2D_bn_offset", "shape": [128], "dtype": "float32"}, {"name": "StatefulPartitionedCall/inception_resnet_v1/Block17_6_Branch_6_Conv2d_0b_1x7/Conv2D_weights", "shape": [1, 7, 128, 128], "dtype": "float32"}, {"name": "StatefulPartitionedCall/inception_resnet_v1/Block17_6_Branch_6_Conv2d_0b_1x7/Conv2D_bn_offset", "shape": [128], "dtype": "float32"}, {"name": "StatefulPartitionedCall/inception_resnet_v1/Block17_6_Branch_6_Conv2d_0c_7x1/Conv2D_weights", "shape": [7, 1, 128, 128], "dtype": "float32"}, {"name": "StatefulPartitionedCall/inception_resnet_v1/Block8_3_Branch_0_Conv2d_1x1/Conv2D_weights", "shape": [1, 1, 1792, 192], "dtype": "float32"}, {"name": "StatefulPartitionedCall/inception_resnet_v1/Block17_6_Branch_6_Conv2d_0c_7x1/Conv2D_bn_offset", "shape": [128], "dtype": "float32"}, {"name": "StatefulPartitionedCall/inception_resnet_v1/Block8_3_Branch_0_Conv2d_1x1/Conv2D_bn_offset", "shape": [192], "dtype": "float32"}, {"name": "StatefulPartitionedCall/inception_resnet_v1/Block17_7_Branch_0_Conv2d_1x1/Conv2D_weights", "shape": [1, 1, 896, 128], "dtype": "float32"}, {"name": "StatefulPartitionedCall/inception_resnet_v1/Block17_7_Branch_0_Conv2d_1x1/Conv2D_bn_offset", "shape": [128], "dtype": "float32"}, {"name": "StatefulPartitionedCall/inception_resnet_v1/Block17_7_Branch_7_Conv2d_0a_1x1/Conv2D_weights", "shape": [1, 1, 896, 128], "dtype": "float32"}, {"name": "StatefulPartitionedCall/inception_resnet_v1/Block8_3_Branch_3_Conv2d_0a_1x1/Conv2D_weights", "shape": [1, 1, 1792, 192], "dtype": "float32"}, {"name": "StatefulPartitionedCall/inception_resnet_v1/Block17_7_Branch_7_Conv2d_0a_1x1/Conv2D_bn_offset", "shape": [128], "dtype": "float32"}, {"name": "StatefulPartitionedCall/inception_resnet_v1/Block17_7_Branch_7_Conv2d_0b_1x7/Conv2D_weights", "shape": [1, 7, 128, 128], "dtype": "float32"}, {"name": "StatefulPartitionedCall/inception_resnet_v1/Block8_3_Branch_3_Conv2d_0a_1x1/Conv2D_bn_offset", "shape": [192], "dtype": "float32"}, {"name": "StatefulPartitionedCall/inception_resnet_v1/Block17_7_Branch_7_Conv2d_0b_1x7/Conv2D_bn_offset", "shape": [128], "dtype": "float32"}, {"name": "StatefulPartitionedCall/inception_resnet_v1/Block17_7_Branch_7_Conv2d_0c_7x1/Conv2D_weights", "shape": [7, 1, 128, 128], "dtype": "float32"}, {"name": "StatefulPartitionedCall/inception_resnet_v1/Block17_7_Branch_7_Conv2d_0c_7x1/Conv2D_bn_offset", "shape": [128], "dtype": "float32"}, {"name": "StatefulPartitionedCall/inception_resnet_v1/Block8_3_Branch_3_Conv2d_0b_1x3/Conv2D_weights", "shape": [1, 3, 192, 192], "dtype": "float32"}, {"name": "StatefulPartitionedCall/inception_resnet_v1/Block17_8_Branch_0_Conv2d_1x1/Conv2D_weights", "shape": [1, 1, 896, 128], "dtype": "float32"}, {"name": "StatefulPartitionedCall/inception_resnet_v1/Block8_3_Branch_3_Conv2d_0b_1x3/Conv2D_bn_offset", "shape": [192], "dtype": "float32"}, {"name": "StatefulPartitionedCall/inception_resnet_v1/Block17_8_Branch_0_Conv2d_1x1/Conv2D_bn_offset", "shape": [128], "dtype": "float32"}, {"name": "StatefulPartitionedCall/inception_resnet_v1/Block17_8_Branch_8_Conv2d_0a_1x1/Conv2D_weights", "shape": [1, 1, 896, 128], "dtype": "float32"}, {"name": "StatefulPartitionedCall/inception_resnet_v1/Block17_8_Branch_8_Conv2d_0a_1x1/Conv2D_bn_offset", "shape": [128], "dtype": "float32"}, {"name": "StatefulPartitionedCall/inception_resnet_v1/Block8_3_Branch_3_Conv2d_0c_3x1/Conv2D_weights", "shape": [3, 1, 192, 192], "dtype": "float32"}, {"name": "StatefulPartitionedCall/inception_resnet_v1/Block17_8_Branch_8_Conv2d_0b_1x7/Conv2D_weights", "shape": [1, 7, 128, 128], "dtype": "float32"}, {"name": "StatefulPartitionedCall/inception_resnet_v1/Block17_8_Branch_8_Conv2d_0b_1x7/Conv2D_bn_offset", "shape": [128], "dtype": "float32"}, {"name": "StatefulPartitionedCall/inception_resnet_v1/Block8_3_Branch_3_Conv2d_0c_3x1/Conv2D_bn_offset", "shape": [192], "dtype": "float32"}, {"name": "StatefulPartitionedCall/inception_resnet_v1/Block17_8_Branch_8_Conv2d_0c_7x1/Conv2D_weights", "shape": [7, 1, 128, 128], "dtype": "float32"}, {"name": "StatefulPartitionedCall/inception_resnet_v1/Block8_6_Branch_0_Conv2d_1x1/Conv2D_weights", "shape": [1, 1, 1792, 192], "dtype": "float32"}, {"name": "StatefulPartitionedCall/inception_resnet_v1/Block17_8_Branch_8_Conv2d_0c_7x1/Conv2D_bn_offset", "shape": [128], "dtype": "float32"}, {"name": "StatefulPartitionedCall/inception_resnet_v1/Block17_9_Branch_0_Conv2d_1x1/Conv2D_weights", "shape": [1, 1, 896, 128], "dtype": "float32"}, {"name": "StatefulPartitionedCall/inception_resnet_v1/Block17_9_Branch_0_Conv2d_1x1/Conv2D_bn_offset", "shape": [128], "dtype": "float32"}]}]}